controllers/rl_control/best_single_ppo.pth (torch, 989208 bytes, 40 tensors)

actor_log_std f4 [1, 2]
000000 6a 21 88 bf 5e 47 87 bf
       -1.0635197 -1.0568655

shared_fc1.weight f4 [256, 50]
000000 1e d8 99 3b 3b 63 45 3d 05 6f 00 3d 30 24 3c 3d
       0.0046949526 0.048190337 0.031355876 0.04593295
000010 95 9c a1 3d ae ea 8c bd cf 2c 9e bd 8f 06 13 3c
       0.07891194 -0.06880699 -0.0772339 0.008973732
000020 70 14 c3 3d 35 10 35 bd d5 34 61 3c db 36 a8 3d
       0.095253825 -0.04420491 0.013745506 0.08213588
000030 51 53 82 bd e6 63 2f 3e ef b7 30 bc 89 10 a9 3c
       -0.063635476 0.17127952 -0.010786041 0.020637767
000040 31 33 4f bd 2c 6e 11 be cd 48 ef bd 17 d1 cd bd
       -0.05058593 -0.14202183 -0.116838075 -0.10049646
000050 8c 0f f1 bd 60 a5 62 3e d9 d9 b6 bd e6 74 41 bb
       -0.117705435 0.22133398 -0.0892827 -0.002951914
000060 0c 5a 80 bd 55 08 a3 3d 64 da 67 3d ea 7a c1 3d
       -0.06267175 0.079605736 0.056604758 0.09447272
000070 85 05 d2 bd b5 29 3f be 30 46 da bc 55 b4 de bd
       -0.10254959 -0.18668254 -0.026644796 -0.10874239
000080 7b 97 8d 3d cd 13 1f be a0 ee d5 bb b0 83 48 ba
       0.06913658 -0.15534897 -0.0065286905 -0.00076490175
000090 10 34 79 bd 52 18 bd bc 77 c4 5f bd 7b 6e 32 bc
       -0.060840666 -0.023082886 -0.054630723 -0.010890598
0000a0 d7 73 74 3c f0 e2 49 3d 54 47 94 3d 44 8c 1b 3d
       0.0149201965 0.04928869 0.07240167 0.037975565
0000b0 b7 a8 7c 3d 1c f9 7c bd 85 cf 0a be 54 aa 0d 3e
       0.061684337 -0.061761007 -0.13555725 0.13834506
0000c0 4c bb 45 3d 90 a5 db 3c c1 90 20 3e 3b 0a 62 3d
       0.048274323 0.026812345 0.15680219 0.055185538
0000d0 23 ee fd bc 36 ab 64 bb 7c b2 18 bd 1b 71 2c 3d
       -0.030997341 -0.0034892089 -0.03727959 0.042100053
0000e0 4e 46 cd 3b 8b 10 06 3e 28 56 b4 3b 86 e3 bf bb
       0.0062644845 0.13092248 0.0055034347 -0.0058559803
0000f0 31 68 e7 3c 12 42 21 3e bc 9a b3 bd 8e 6b b4 bc
       0.028247925 0.1574786 -0.087697476 -0.022023942
000100 f2 40 44 3d 68 2e a3 3c 9b f6 af 3d 05 90 96 3d
       0.0479135 0.01991959 0.08591958 0.07351688
000110 21 b0 75 bc 5b 72 c1 3d a2 45 b0 bd 9b ac 32 bc
       -0.014995606 0.0944564 -0.086070314 -0.01090541
000120 23 44 65 be c6 47 2c 3e 9b 7b 76 bd 0b 57 06 3e
       -0.22389273 0.16824254 -0.060176473 0.13119142
000130 e8 82 8f 3d 11 6c f5 3c 85 73 25 be 1e 3e 0c be
       0.0700739 0.029958757 -0.16157348 -0.13695571
000140 10 a7 d4 bd ce b4 b1 3d 68 81 3c bd 3d 55 9d bc
       -0.10383427 0.08677064 -0.04602185 -0.019205684
000150 87 72 c5 3d 94 eb b0 bd eb 5b 8a 3d a4 6a 17 3d
       0.09640985 -0.08638683 0.06755813 0.036966935
000160 2d d6 68 bd 43 dc e8 bd e9 de af bc 38 4d 19 bd
       -0.05684488 -0.113701366 -0.021468597 -0.037427157
000170 d7 fd 3a 3e 3b 31 40 bd 8b 1b 71 bc e7 d7 63 bd
       0.18260895 -0.04692195 -0.014716039 -0.055625822
000180 67 17 8c bd 8d 97 74 3d 07 40 ec 3d f9 c1 08 be
       -0.06840401 0.059714843 0.1153565 -0.13355245
000190 57 76 9f 3c 6e 52 23 be 13 29 a4 bd f2 10 38 3d
       0.019465609 -0.15949413 -0.08015647 0.044938035
0001a0 f8 e7 47 3d ee 37 d1 3b 1e d2 c7 bc 5f 3a 8c 3d
       0.048805207 0.006384841 -0.024392184 0.06847071
0001b0 e4 1b 42 be 06 b9 4d be a4 ce 1f bc 1a 38 d1 3d
       -0.18955952 -0.20090112 -0.009753857 0.10215779
0001c0 ce 43 d6 3d 0b b0 b9 bc ec 2f bd bd 5c 48 18 3c
       0.104621515 -0.022666952 -0.09237656 0.009294596
0001d0 d2 06 73 3e 7a 1e ac bd 5a a1 8a 3c af af a2 bb
       0.2373307 -0.084042504 0.016922642 -0.004964791
0001e0 c9 49 b7 3d 05 7e 31 be 2f 79 5a bd 55 87 73 3c
       0.0894962 -0.17333229 -0.053338226 0.014863809
0001f0 23 b4 44 bd da e6 1e 3e f3 45 00 3e a2 90 61 bd
       -0.048023354 0.1551775 0.12526684 -0.055069573
000200 e1 e4 fa bd 51 9b 38 be cb fb 95 3c 06 a3 41 be
       -0.122506864 -0.18027999 0.01830854 -0.18909845
000210 7e 3a 21 bb 36 f6 ad 3d 9c e9 4f 3d c4 a7 1f be
       -0.0024601514 0.08494227 0.050759897 -0.15591341
000220 20 ce ad 3d ed 41 a3 3b f4 09 4c 3d 0a 47 ad 3d
       0.08486581 0.004982224 0.04981418 0.08460815
000230 b8 6b 1b 3e 42 cc 9f 3d 0c 4d d1 bd 94 a8 ab bc
       0.1517781 0.07802631 -0.10219774 -0.020954408
000240 42 e9 0a be 12 e4 04 3d bf 74 9f 3d 20 d3 ec bc
       -0.13565543 0.032444067 0.077859394 -0.028909266
000250 ec 5e 16 bd 4e 0d ac 3d d4 3c 99 3d 86 51 d7 bd
       -0.03671162 0.08400975 0.07482305 -0.10513596
000260 36 19 0d 3e 76 53 62 3d 25 cd e1 3c c1 21 50 be
       0.13779148 0.055255376 0.02756364 -0.20325376
000270 c5 fd 9e 3c d6 96 4e b9 3b 36 46 3d 95 c9 75 3b
       0.019408116 -0.00019701882 0.048391562 0.0037504185
000280 51 e7 b2 bb 47 f0 aa 3d bd ed 71 bd de 3f 89 3c
       -0.005459704 0.083466105 -0.059064616 0.016754087
000290 4e 2a 03 3c e7 86 95 3d f1 92 8e 3b d7 40 b9 bd
       0.008005692 0.07301121 0.004351013 -0.0904557
0002a0 f6 58 fc 3b 3d 97 2b be 42 15 3f 3c d9 4c 54 bd
       0.0077010347 -0.16756912 0.011662783 -0.0518311
0002b0 b0 13 0f 3d 60 28 f0 bc a8 fb e0 3d 96 9d 54 bc
       0.034930885 -0.029316127 0.109854996 -0.012977025
0002c0 2f b6 13 3c e1 ad 8e 3d fa 7f 15 3d 6b d6 9d 3c
       0.009015604 0.069667585 0.036499 0.019267282
0002d0 b1 41 a2 3d 1b 39 97 3d d3 41 53 bb 2d 5b 8b bd
       0.07922686 0.07383939 -0.003223528 -0.068045
0002e0 fd ac 85 bb 07 17 b6 bd dc 7a dc bd 02 f0 89 bd
       -0.0040794597 -0.08891111 -0.10765621 -0.06735231
0002f0 88 d8 01 bd df 1a 24 be 82 c2 8c 3c e4 cb 05 bd
       -0.03170064 -0.16025876 0.017182592 -0.03266515
000300 4f a8 b4 3d 18 10 13 3d 5d 86 54 bb 2e d7 16 3d
       0.08821165 0.03590402 -0.003242872 0.036826305
000310 43 fe 21 3e 4f 72 36 3c f2 b7 2f 3b a9 e5 db 3c
       0.1581965 0.011135652 0.002681252 0.026842909
000320 2e f1 41 3c b2 56 97 bc 89 cd 0d 3c b3 de 59 3d
       0.011837287 -0.018473957 0.00865496 0.0531909
000330 f3 e9 e1 3d 73 ab 3f bc 0a d8 81 3d ad 05 31 3e
       0.110309504 -0.0116985915 0.06340034 0.17287321
000340 92 7c 24 bd f7 e7 38 bc 09 a6 67 3d b6 0e 0d be
       -0.040157862 -0.0112857735 0.056554828 -0.13775143
000350 2a 70 08 bc 1b 34 b3 bd 10 69 ac bc 4b 4d 9b bd
       -0.008327523 -0.08750173 -0.021046191 -0.07583102
000360 4b d3 24 3e 79 e7 ab bd 00 dd 5b bc 3d b0 fe 3b
       0.16096227 -0.08393759 -0.01341939 0.007772474
000370 d1 6e e7 bd cc 55 e2 3c cd 5a ce 3d cd 0e 9e 3d
       -0.113004334 0.027628802 0.100759126 0.07717667
000380 cf 64 c1 3c f5 0b da bd a9 59 84 bd e4 f3 28 3d
       0.02360764 -0.10646812 -0.06462414 0.041248217
000390 52 47 39 bd b1 e0 c8 bc cf ef dc bc 00 89 8c 3d
       -0.045234032 -0.024521204 -0.026969818 0.06862068
0003a0 9d 0c cc bc 7c 94 03 bc 35 23 0c 3e 17 31 a7 3d
       -0.024908358 -0.008031007 0.13685305 0.0816366
0003b0 a2 24 10 3d d5 c5 0e be ef db 6e bd b4 9c 18 bd
       0.035191186 -0.13942654 -0.058315214 -0.03725882
0003c0 92 65 0c 3e 7d 9c 11 3d 73 ef e5 3d c0 66 88 bd
       0.13710621 0.03554963 0.11227312 -0.06660223
0003d0 2c ac ed bd f0 1a c2 ba 71 c7 5c bc 36 08 ea bc
       -0.11605105 -0.0014809053 -0.013475285 -0.028568368
0003e0 dc 60 01 3e ed 17 b8 ba 28 51 46 be b4 88 1d 3e
       0.12634605 -0.0014045216 -0.19366896 0.1538418
0003f0 00 e3 00 be 71 3d 20 be 1a 82 33 bd ed ca fa 3b
       -0.12586594 -0.15648438 -0.043825246 0.007653585

shared_fc1.bias f4 [256]
000000 15 39 8a 30 a2 e0 bb 32 2e 91 44 b2 be 66 45 32
       1.0057045e-09 2.1871816e-08 -1.1441712e-08 1.149027e-08
000010 f4 2d 86 33 1e 51 3a 34 f9 9d c2 32 6a de 42 b2
       6.24822e-08 1.735211e-07 2.265641e-08 -1.1342857e-08
000020 fb 35 04 b3 6d 8b 06 33 bb 15 1d 32 ee ae 17 b4
       -3.078274e-08 3.1326113e-08 9.143544e-09 -1.412661e-07
000030 ea 40 80 b3 77 1e 41 b2 35 77 b9 b2 e4 6a 35 b4
       -5.972272e-08 -1.12410055e-08 -2.1591044e-08 -1.6895825e-07
000040 3c db 48 33 e6 db c8 b2 fe ec ca 32 20 cc 4b b0
       4.676552e-08 -2.3383063e-08 2.3623667e-08 -7.414105e-10
000050 1f 0c 7e b4 0a 61 45 b2 b2 6e 98 32 6d 2a 43 b3
       -2.3660003e-07 -1.1488973e-08 1.7745467e-08 -4.544056e-08
000060 bd 95 89 b3 25 8b 9b 32 4b d9 26 34 6e 0e 5a 33
       -6.406797e-08 1.810765e-08 1.5539005e-07 5.0770204e-08
000070 a3 a6 15 33 f8 9f c5 32 b2 64 28 32 29 9a ce b2
       3.484332e-08 2.3006564e-08 9.8017825e-09 -2.405166e-08
000080 58 56 d9 32 28 9f d2 b1 87 8b 22 b3 ba 0f a5 33
       2.530139e-08 -6.1298984e-09 -3.7845464e-08 7.686272e-08
000090 6a be 62 31 3f 9d 20 33 ec 01 df 32 9c f8 93 b3
       3.2995566e-09 3.7395917e-08 2.596149e-08 -6.890443e-08
0000a0 a3 3d 8a b2 93 9c a4 b2 34 e9 08 b3 2f 89 46 b4
       -1.6093344e-08 -1.9163314e-08 -3.1877065e-08 -1.8490094e-07
0000b0 80 0d 67 33 10 bf f5 30 55 06 8d b3 50 e8 08 b3
       5.3796157e-08 1.7880399e-09 -6.566976e-08 -3.1876255e-08
0000c0 36 4e 81 32 02 84 0f 33 e1 ae 47 33 42 d4 aa b1
       1.5053143e-08 3.3414842e-08 4.649235e-08 -4.971782e-09
0000d0 4c da 3f 33 9a 1e 46 33 66 b4 3f b1 5b 81 2b 33
       4.4669193e-08 4.61283e-08 -2.7896703e-09 3.9931688e-08
0000e0 1a da 09 b2 2f 10 dd b0 fe 11 3f b2 b1 7e 6f b2
       -8.02404e-09 -1.6084466e-09 -1.1121754e-08 -1.3940437e-08
0000f0 a0 f4 77 b2 e7 55 2f 33 83 28 b6 33 6e 17 2b b3
       -1.44329135e-08 4.082349e-08 8.4824045e-08 -3.983535e-08
000100 d0 64 d9 33 62 26 27 b3 69 ae f4 32 ec da bb b3
       1.01231876e-07 -3.8917626e-08 2.8484651e-08 -8.747688e-08
000110 6d 8f 72 33 0a 6a 77 31 ff a3 1c b2 26 97 b0 32
       5.647546e-08 3.6003507e-09 -9.1176835e-09 2.0557831e-08
000120 c1 8e c8 b2 3e 03 3f 33 5a 36 df b2 22 45 a9 32
       -2.3347981e-08 4.44736e-08 -2.5985333e-08 1.9705627e-08
000130 eb 19 3e b3 b1 8e 38 33 90 da 7a b2 cd db da 33
       -4.4261395e-08 4.2970616e-08 -1.4601611e-08 1.01913976e-07
000140 fb c6 f8 33 e0 f2 a0 b3 69 cc 43 b1 2f 23 32 33
       1.1584594e-07 -7.494759e-08 -2.8492428e-09 4.1475854e-08
000150 08 f9 45 b2 91 12 87 b2 80 12 55 32 f3 49 53 33
       -1.1523532e-08 -1.5724511e-08 1.2402438e-08 4.9194522e-08
000160 48 13 18 34 b3 6b 22 33 73 df ab 33 4c 9a 86 b3
       1.4163118e-07 3.7816516e-08 8.003453e-08 -6.267928e-08
000170 77 d0 e0 31 8e e0 b7 32 31 72 85 33 16 11 64 32
       6.5429577e-09 2.140612e-08 6.2140664e-08 1.3275232e-08
000180 81 0f 21 b3 76 4a b4 b2 1b 2f 67 32 d5 e2 9a b2
       -3.7499834e-08 -2.0988619e-08 1.345668e-08 -1.803111e-08
000190 e6 8e cd b3 d6 f2 b6 b0 ab 73 97 33 3a 28 12 32
       -9.5720495e-08 -1.3311261e-09 7.052525e-08 8.507465e-09
0001a0 2c e4 0a b3 85 d7 87 b3 e2 e2 99 b3 ac fc 39 33
       -3.233815e-08 -6.32563e-08 -7.1658874e-08 4.3303473e-08
0001b0 bd 0b c8 b2 94 8c 89 31 b8 3b 7e b4 22 42 8c b1
       -2.3288402e-08 4.0032067e-09 -2.3677319e-07 -4.0820547e-09
0001c0 91 bc 18 33 b5 72 bd 32 88 fa 06 b3 60 d6 88 b2
       3.5561758e-08 2.2054659e-08 -3.1427163e-08 -1.592997e-08
0001d0 1f 21 8b b3 f9 c3 34 32 35 0d c8 33 d3 6e 80 b2
       -6.4787166e-08 1.0521938e-08 9.315628e-08 -1.4951558e-08
0001e0 53 c8 a3 32 3e c8 c1 33 c7 49 80 31 41 20 78 33
       1.9066794e-08 9.023687e-08 3.733678e-09 5.7771334e-08
0001f0 b5 12 11 30 c7 4d 91 33 4d 41 c2 32 7d 55 b6 31
       5.2777277e-10 6.766236e-08 2.2614268e-08 5.306616e-09
000200 a6 84 93 b2 13 7a ee 32 86 01 80 b3 da 4a 4a b2
       -1.7173374e-08 2.776236e-08 -5.9607416e-08 -1.1774967e-08
000210 85 ea 04 b2 cd 23 45 b2 52 db 1f b2 98 15 51 34
       -7.736735e-09 -1.1475049e-08 -9.304886e-09 1.9472498e-07
000220 26 5a 9c 33 5d 07 55 33 e8 9d d3 b2 a7 91 b0 b3
       7.280714e-08 4.9599624e-08 -2.463544e-08 -8.222133e-08
000230 e8 7a 3a b3 89 53 9d 33 72 f2 25 b2 b1 0d e5 b3
       -4.3418282e-08 7.326077e-08 -9.65939e-09 -1.0666134e-07
000240 d1 63 fb 32 6c b1 33 b3 cd 2b 60 b3 82 30 5c 32
       2.9265637e-08 -4.183805e-08 -5.21939e-08 1.2816715e-08
000250 53 bc 0f 33 9f 44 b4 33 fc 5c 4b 33 71 30 72 b0
       3.3466062e-08 8.394385e-08 4.734919e-08 -8.8107927e-10
000260 9c b2 25 33 fd 04 3e 33 01 82 b4 b3 cd 92 7e 33
       3.85795e-08 4.424236e-08 -8.405551e-08 5.9272498e-08
000270 44 e5 a2 b2 ae 03 a0 33 74 fe 12 b3 56 73 c0 b2
       -1.896354e-08 7.45125e-08 -3.4224698e-08 -2.240419e-08
000280 6c 5b d2 32 b1 05 d5 af 7c 58 95 b1 ab 05 40 b3
       2.4488791e-08 -3.8748518e-10 -4.3465302e-09 -4.470864e-08
000290 3c fb 1b b2 2e 04 2d 32 10 4d 11 b3 dd c9 ed 32
       -9.0793115e-09 1.0070876e-08 -3.383053e-08 2.7682228e-08
0002a0 d0 3a 1a 34 e6 eb d9 b2 b5 08 97 b3 f4 55 c1 32
       1.4363764e-07 -2.5369399e-08 -7.033069e-08 2.2507244e-08
0002b0 42 14 fc 30 c3 6e a4 33 76 eb 17 35 63 3b 20 32
       1.8341171e-09 7.6569926e-08 5.6594524e-07 9.326729e-09
0002c0 84 77 8b 33 b7 05 3b 33 e0 e3 aa b1 af 1d 1c b3
       6.494432e-08 4.3544528e-08 -4.9735576e-09 -3.6348577e-08
0002d0 ef 9f 81 b1 2c 2f 02 b2 f3 29 1c 32 aa c1 00 33
       -3.7725765e-09 -7.577722e-09 9.089933e-09 2.997846e-08
0002e0 b3 8b 85 b3 3a d2 19 33 1e 71 ef b2 e1 8c e0 b2
       -6.218706e-08 3.581429e-08 -2.7874702e-08 -2.6141096e-08
0002f0 9f 8f 9a 33 cc 39 4a 32 45 57 1e 34 e9 85 85 b3
       7.197308e-08 1.1771089e-08 1.4746645e-07 -6.217653e-08
000300 19 05 ad 32 f4 7a 0d b1 0f 6b ff 32 f4 3e d6 31
       2.0142169e-08 -2.0588091e-09 2.9734592e-08 6.2353767e-09
000310 74 d1 70 b3 53 84 6e b3 cf 0c ca 33 3f bc 84 33
       -5.606985e-08 -5.553404e-08 9.408688e-08 6.180971e-08
000320 44 20 18 33 8a db a7 33 2e 53 23 b2 54 ad b9 33
       3.5419603e-08 7.8164774e-08 -9.506762e-09 8.646262e-08
000330 c7 2f d6 b2 db dd 6a 32 27 62 b2 b3 3b fd 86 32
       -2.4934605e-08 1.3671037e-08 -8.306625e-08 1.5714809e-08
000340 09 d0 12 b2 9c 12 a3 32 28 f1 d5 32 73 4c a1 32
       -8.54562e-09 1.898416e-08 2.4906129e-08 1.8777632e-08
000350 6a a9 ab b2 ba 31 37 32 f9 6b 02 b3 e6 58 86 b2
       -1.998406e-08 1.06633085e-08 -3.0366184e-08 -1.564008e-08
000360 a6 7a 61 33 ec 6d 5d 33 f8 1a f6 b3 6b d9 94 31
       5.2498443e-08 5.1555546e-08 -1.1460173e-07 4.3320845e-09
000370 22 14 e5 b2 74 5e 5c 33 74 9d 97 34 5f be 21 32
       -2.6668264e-08 5.1308646e-08 2.8240504e-07 9.414719e-09
000380 0b 1f 31 32 87 71 1e 33 ba da 2c 33 22 ec 37 b3
       1.0309814e-08 3.6890494e-08 4.02458e-08 -4.282277e-08
000390 18 72 21 b3 ba 07 af 32 0e e9 90 b0 08 d3 29 32
       -3.75895e-08 2.0376195e-08 -1.0543617e-09 9.885078e-09
0003a0 e1 35 0a 34 08 37 91 ae 61 e4 0a b3 a5 98 7c b3
       1.2871853e-07 -6.603612e-11 -3.233834e-08 -5.881215e-08
0003b0 c3 ad 19 34 80 08 15 33 d2 68 c2 b2 c0 75 0d 31
       1.431245e-07 3.4699497e-08 -2.263224e-08 2.0585134e-09
0003c0 b1 cd a3 b3 b4 68 00 b3 50 a5 11 b3 3a f2 e8 b2
       -7.627694e-08 -2.989755e-08 -3.3910794e-08 -2.7118507e-08
0003d0 8a 0d 8d b3 70 0d 25 b4 00 53 75 b2 91 df 83 b3
       -6.568287e-08 -1.5371711e-07 -1.4279749e-08 -6.1408294e-08
0003e0 88 c3 ba 32 20 0f 3f b1 dd 57 49 b3 ff 94 c9 b2
       2.1742167e-08 -2.7802756e-09 -4.687887e-08 -2.3467235e-08
0003f0 ea 57 29 b2 a7 44 f2 b2 44 3e 8e 34 56 50 0a b4
       -9.857084e-09 -2.8203727e-08 2.6494865e-07 -1.2881478e-07

bn1.weight f4 [256]
000000 a4 7e 7f 3f 0b 9e 79 3f c5 85 7e 3f c7 39 82 3f
       0.99802613 0.9750678 0.99422866 1.0173882
000010 58 03 80 3f 93 c3 80 3f dc 55 82 3f 07 2e 80 3f
       1.000102 1.0059685 1.0182452 1.0014046
000020 50 70 7e 3f 86 e9 82 3f 4a c6 81 3f 55 f2 7f 3f
       0.99390125 1.0227516 1.0138638 0.99979144
000030 ca 97 7a 3f 6c af 7b 3f 29 22 7f 3f 16 31 82 3f
       0.9788786 0.9831455 0.996615 1.017123
000040 6e ed 7a 3f 75 a7 7e 3f 2d 5c 81 3f 33 b9 74 3f
       0.9801854 0.9947427 1.0106255 0.9559509
000050 a1 9c 86 3f 10 de 7e 3f 1f 5c 80 3f eb 5b 80 3f
       1.0516549 0.9955759 1.0028113 1.0028051
000060 6c 63 81 3f 0f a4 7d 3f dc 8c 7b 3f c8 4b 7b 3f
       1.0108466 0.9907846 0.9826181 0.9816251
000070 b4 33 7c 3f 40 8a 7e 3f 8b 73 7d 3f 3c 46 7e 3f
       0.9851639 0.994297 0.9900443 0.9932592
000080 44 f4 78 3f 2a 61 7f 3f 83 54 80 3f 25 f5 7b 3f
       0.9724772 0.99757636 1.0025791 0.98420936
000090 95 1c 80 3f 90 20 80 3f 71 ff 80 3f 05 79 81 3f
       1.0008723 1.0009937 1.0077955 1.0115057
0000a0 4c 08 7e 3f 88 75 7a 3f 3e a9 81 3f 64 95 86 3f
       0.9923141 0.9783559 1.0129774 1.051434
0000b0 a3 44 81 3f f0 71 7e 3f b5 18 80 3f 4a f0 80 3f
       1.0099071 0.99392605 1.000754 1.007333
0000c0 8b aa 81 3f 01 87 7a 3f 7c 84 7e 3f a2 30 7d 3f
       1.013017 0.9786225 0.99420905 0.9890233
0000d0 03 b4 84 3f 45 27 82 3f 19 de 7b 3f 4a a4 81 3f
       1.0367435 1.0168234 0.9838577 1.0128262
0000e0 85 0f 80 3f 04 27 81 3f 1b 78 7b 3f 57 f9 7e 3f
       1.0004736 1.0090032 0.9823014 0.9959921
0000f0 f6 df 80 3f 40 3e 7f 3f e5 e0 7f 3f b5 21 80 3f
       1.0068347 0.9970436 0.99952537 1.0010287
000100 f7 e2 7a 3f 43 4f 80 3f a9 79 82 3f 26 dc 7c 3f
       0.9800257 1.0024189 1.0193378 0.9877342
000110 af 0b 7d 3f 66 66 7d 3f 4e e8 7f 3f b6 d0 7f 3f
       0.9884595 0.9898437 0.99963844 0.9992784
000120 5a d7 81 3f 64 82 7b 3f 2d 2e 7f 3f ab ae 82 3f
       1.0143845 0.98245835 0.99679834 1.0209554
000130 49 72 80 3f e2 23 80 3f 55 b6 7c 3f 2d 5c 7c 3f
       1.0034877 1.001095 0.98715717 0.9857815
000140 0c b9 7e 3f 06 67 82 3f ca 92 7e 3f 67 66 7f 3f
       0.9950111 1.018769 0.9944273 0.9976563
000150 e4 fb 7e 3f 52 55 82 3f 3c 7d 80 3f ee 28 83 3f
       0.99603105 1.0182288 1.0038218 1.0246866
000160 7d 9e 82 3f bb 83 81 3f 2c 51 80 3f 1a d5 80 3f
       1.0204617 1.0118326 1.0024772 1.0065033
000170 60 ca 7e 3f 1a c8 7a 3f 8e ac 84 3f c5 5b 81 3f
       0.9952755 0.9796158 1.036516 1.0106131
000180 1a 03 76 3f 7a 89 7c 3f b3 ec 7d 3f 46 b2 81 3f
       0.9609848 0.9864727 0.991893 1.013253
000190 5b bc 7f 3f fb a0 83 3f 97 bf 7d 3f a6 3d 7f 3f
       0.9989678 1.0283502 0.9912047 0.99703443
0001a0 f9 e0 83 3f 91 45 7a 3f 95 88 7c 3f 31 93 7a 3f
       1.0303031 0.977624 0.9864591 0.97880846
0001b0 7e ee 81 3f 93 b3 80 3f 00 48 80 3f 16 4d 81 3f
       1.0150907 1.0054802 1.0021973 1.010165
0001c0 c4 74 7e 3f d9 ff 7d 3f 09 b6 7a 3f 4c 3c 80 3f
       0.9939692 0.9921852 0.97934014 1.0018401
0001d0 5b 7d 78 3f 8f 2b 80 3f 4b c0 7e 3f 16 27 7d 3f
       0.9706628 1.0013293 0.99512166 0.98887765
0001e0 b5 7c 7e 3f 5b fc 81 3f e2 6e 78 3f d5 bd 7f 3f
       0.9940904 1.0155138 0.97044194 0.99899036
0001f0 ec a1 7c 3f 9b c3 7b 3f b1 6c 7f 3f c9 be 7d 3f
       0.98684573 0.98345345 0.99775225 0.9911924
000200 e1 64 81 3f c3 60 7f 3f 3e 3f 79 3f b9 ba 7c 3f
       1.0108911 0.9975702 0.97362125 0.98722416
000210 16 5c 7f 3f 35 7e 7e 3f a7 90 77 3f 7b be 7a 3f
       0.99749887 0.99411327 0.96705097 0.979469
000220 78 70 80 3f f9 a2 7d 3f bd 7b 80 3f b2 43 83 3f
       1.0034323 0.990768 1.0037762 1.0255034
000230 d1 b7 78 3f 63 5d 83 3f 70 b1 80 3f bc 0d 7c 3f
       0.9715548 1.0262874 1.005415 0.98458457
000240 f0 79 7f 3f 5a c8 81 3f c5 d2 7a 3f 23 9e 80 3f
       0.99795437 1.0139267 0.9797786 1.004826
000250 5d e5 7f 3f 35 79 81 3f 3b 4a 82 3f 07 5a 7b 3f
       0.99959356 1.0115114 1.0178903 0.98184246
000260 8e 1e 81 3f 87 62 79 3f 8a 1f 83 3f dd b8 7c 3f
       1.008745 0.97415966 1.0244 0.9871958
000270 ee 0f 7e 3f 89 72 82 3f e1 51 7e 3f f8 9d 7d 3f
       0.99243057 1.0191203 0.9934369 0.99069166
000280 ca 01 80 3f 03 d9 7c 3f c9 ad 7f 3f b8 a0 7f 3f
       1.0000546 0.98768634 0.9987455 0.9985461
000290 1f 97 7e 3f 7e 3e 7d 3f 47 5b 76 3f eb b5 80 3f
       0.9944934 0.9892348 0.9623303 1.0055517
0002a0 17 d3 82 3f 9e 0b 86 3f f7 64 82 3f c7 08 81 3f
       1.022067 1.0472295 1.0187062 1.0080804
0002b0 12 fb 7a 3f 2c e6 7e 3f ec 66 81 3f 91 76 7f 3f
       0.9803935 0.99569964 1.0109534 0.9979029
0002c0 04 6b 80 3f 99 af 7e 3f 35 cb 82 3f fe 4d 7d 3f
       1.0032659 0.9948669 1.0218264 0.9894713
0002d0 fc 52 7e 3f 4d 06 80 3f da ce 7d 3f a9 41 84 3f
       0.99345374 1.0001923 0.99143755 1.0332538
0002e0 3c 3a 82 3f 91 83 7f 3f 36 fe 7f 3f be ff 81 3f
       1.0174022 0.9981013 0.9999727 1.0156171
0002f0 80 1a 81 3f 79 a1 81 3f 25 bd 75 3f 5c 9d 7f 3f
       1.0086212 1.0127403 0.95991737 0.99849486
000300 2c f3 7f 3f f8 3d 7c 3f e8 fd 7d 3f f7 ef 80 3f
       0.99980426 0.98532057 0.99215555 1.0073231
000310 d7 eb 7a 3f b2 4d 7d 3f b0 a6 83 3f b1 64 80 3f
       0.98016113 0.9894668 1.0285244 1.0030729
000320 df 71 7e 3f 20 89 81 3f 23 d1 7b 3f 0f 5c 80 3f
       0.99392503 1.0119972 0.9836599 1.0028094
000330 cc b4 7b 3f 3e 8f 7e 3f ec 67 7f 3f 5b 88 7f 3f
       0.9832275 0.9943732 0.9976795 0.99817437
000340 e5 a4 80 3f cc be 7e 3f 50 59 80 3f 19 c5 81 3f
       1.0050322 0.9950988 1.0027256 1.0138274
000350 25 70 7e 3f be 52 7e 3f 6c c5 81 3f 49 d1 7d 3f
       0.9938987 0.99345005 1.0138373 0.9914747
000360 9f 20 82 3f 99 77 7f 3f 48 1c 80 3f 95 0f 7e 3f
       1.0166205 0.99791867 1.0008631 0.99242526
000370 71 a4 7d 3f 37 cb 7d 3f 66 cc 80 3f 40 af 7f 3f
       0.9907904 0.99138206 1.0062377 0.99876785
000380 f2 bf 7b 3f 0b 1c 7d 3f d3 27 7c 3f 61 9d 7b 3f
       0.9833976 0.98870915 0.98498267 0.98287016
000390 38 aa 81 3f ee b0 7c 3f d3 df 7d 3f 4d 88 7e 3f
       1.0130072 0.98707473 0.99169654 0.9942673
0003a0 d4 c6 83 3f cf f6 7c 3f 3e c9 7c 3f 58 2f 7c 3f
       1.0295053 0.988141 0.9874457 0.9850974
0003b0 59 0d 7b 3f 71 f9 7f 3f 32 56 7a 3f 3f cb 7d 3f
       0.9806724 0.9998999 0.97787774 0.99138254
0003c0 58 78 82 3f 41 75 7e 3f 3f 4f 80 3f 0b 87 82 3f
       1.0192976 0.99397665 1.0024184 1.0197462
0003d0 be 99 83 3f ea 3b 83 3f e0 53 81 3f 66 f9 7e 3f
       1.0281293 1.0252659 1.0103722 0.995993
0003e0 cd 15 7c 3f c8 93 80 3f fa 09 80 3f bc a0 80 3f
       0.98470765 1.0045099 1.0003045 1.0049052
0003f0 cc 23 81 3f a9 83 81 3f c8 a0 80 3f 7d 0b 7e 3f
       1.0089049 1.0118304 1.0049067 0.9923628

bn1.bias f4 [256]
000000 8d 54 6e 39 c3 1e 7f bc 18 1a af 3b 5f c3 21 3a
       0.00022728946 -0.015571299 0.005343687 0.0006170775
000010 26 e9 60 3c 16 60 3e 3c e7 e8 3a 3c 59 2a 0d 3a
       0.013727462 0.011619588 0.011408067 0.00053850334
000020 4f a4 dc bc f6 15 53 bc 34 47 a3 3c fa 10 83 bb
       -0.026933817 -0.012883654 0.019931413 -0.0039998265
000030 8d 7b df bb cb 74 8f 3c 96 75 bd 3c be e9 ab 3c
       -0.0068201483 0.017511746 0.023127358 0.02098548
000040 af 18 54 3c cb 1a e9 3a 59 cd 93 bb f3 b1 90 bc
       0.012945338 0.0017784474 -0.0045105633 -0.017662978
000050 98 e3 41 3d 62 22 4f bc d7 31 44 bc 20 d5 c9 3c
       0.04733619 -0.012642475 -0.011974773 0.024637759
000060 1b 2f 40 3b 51 ad f6 3b 71 b4 9d 3b 55 82 c0 bb
       0.0029324952 0.007527985 0.00481277 -0.005874912
000070 0e cd 1f bb 31 4f 28 bc 68 90 11 bd 64 7c 02 bc
       -0.0024383697 -0.010272787 -0.035538107 -0.007964227
000080 a6 f1 eb bc 82 8c 76 bc f4 64 3d 3b 29 0f 77 bc
       -0.02880175 -0.015048148 0.0028899284 -0.015079298
000090 ad 69 a8 3c fc a3 10 3c 57 0a 1e 3c a0 66 92 bc
       0.020558203 0.008828159 0.00964602 -0.017871201
0000a0 c4 a1 ca 39 f1 4f a4 3b ed 70 a2 3c fd d8 aa 3c
       0.00038648967 0.0050144126 0.019829238 0.020855421
0000b0 fd ab c7 3c 22 7f f9 bb 48 f5 4c 3c e9 13 0b 3d
       0.024374003 -0.0076140324 0.0125096515 0.033954535
0000c0 69 a9 5e 3c ce cc 14 bc e5 e4 6b 3c ab f6 a6 bc
       0.013590195 -0.009082032 0.014397834 -0.020381292
0000d0 6b b7 34 3c 45 e9 fc 3b 4f d3 01 bc 23 88 44 bc
       0.011030058 0.0077182376 -0.007923915 -0.011995348
0000e0 53 d9 e3 bb ca 56 8f 3a dd ae 6b bb c9 fa 5b 3c
       -0.0069533973 0.0010935899 -0.003596238 0.013426491
0000f0 50 86 46 3c 91 f6 4a 3a 39 34 7c bc 4f c5 6c bc
       0.0121169835 0.000774243 -0.01539331 -0.014451339
000100 35 2b 01 bd 48 05 01 bc 2a 8a 9e 3c bd bf bd bc
       -0.031535346 -0.007874794 0.019352991 -0.023162717
000110 97 72 0f bc 38 80 1a bc 20 16 10 bc 7d 72 51 3c
       -0.008755348 -0.009429984 -0.0087943375 0.012783644
000120 ec 28 23 3b 67 ce 22 bc d3 69 b5 bc 51 7d 01 3c
       0.0024896218 -0.0099369055 -0.022145187 0.007903413
000130 d4 5f 1f bb bf 8e 8d bc 1a 9e 5c bb 93 5c 6b 3c
       -0.0024318593 -0.01727998 -0.0033663572 0.014365333
000140 2d c3 c5 ba f8 e7 b1 bb a2 f3 aa 3b f2 2b d0 3a
       -0.0015088074 -0.005429264 0.0052170316 0.0015882237
000150 17 08 31 3c 2a ec 01 3d bc e1 ce 3c 03 8f 00 3d
       0.010805151 0.031719364 0.025254123 0.031386387
000160 f6 b5 85 3c 0f 18 7a 3c 78 10 84 3c 39 e8 9c 3c
       0.016322117 0.015264525 0.016121134 0.019153701
000170 19 3a a7 3c c3 d8 6b bc 7d c8 dd 3c 7b b0 92 3c
       0.020413445 -0.014394942 0.02707314 0.017906418
000180 6c 60 64 bc 5e d5 0d bc 98 24 73 bc ee e0 8e 3b
       -0.013939004 -0.008656828 -0.014840268 0.00436031
000190 41 65 fc bc fa 47 53 bc ed d6 58 bc 18 31 12 bc
       -0.03081 -0.0128955785 -0.013234836 -0.008922838
0001a0 d1 19 bf 3c 1f e8 6c bc 38 24 d0 bb 76 0a 6f bb
       0.02332774 -0.014459639 -0.006351974 -0.003647474
0001b0 9e 8f 2e 3a ee c7 e3 ba 4b b7 93 3c b9 82 2d 3c
       0.0006658974 -0.0017378309 0.018031737 0.010590249
0001c0 23 fa 13 bc d9 25 c5 3b ca 47 42 bc 9e bd 82 3b
       -0.009031805 0.0060164747 -0.011857936 0.0039898893
0001d0 32 20 e6 bc dd c4 60 bc 72 4b c3 3b 37 ed 62 3c
       -0.028091524 -0.013718811 0.0059599215 0.013850502
0001e0 ca ee 6a 3b 61 a4 ba 3a 8f 7c e5 bc 93 28 19 bb
       0.0035847896 0.0014239663 -0.028013496 -0.0023370131
0001f0 33 a5 16 bc 2a a5 eb bc 44 da bf ba 6f 9a f8 bc
       -0.00919466 -0.02876528 -0.0014637192 -0.030347077
000200 28 24 0e 3d b2 00 35 bc a9 c6 ae bc 0b 38 7c bc
       0.03470245 -0.011047529 -0.021334963 -0.015394221
000210 44 34 8d 3c 12 ea 86 3c 46 3a da bc eb 41 45 bc
       0.017236836 0.016469035 -0.026639115 -0.012039642
000220 ba 2a fe 3b 8e 99 f9 bb 25 9c 7e bc 09 6d bb bb
       0.0077565582 -0.007617182 -0.015540157 -0.005719785
000230 8e b8 7f b9 46 ed 5c 3c 4a c2 92 3a d6 d1 94 bc
       -0.00024387447 0.013484305 0.0011196819 -0.018166464
000240 c3 5e 9e bc 8c 5f e4 b8 33 02 32 bb 7a 63 9a bc
       -0.019332295 -0.00010889684 -0.0027161955 -0.018846262
000250 16 8d 3a bc 29 49 3d 3b 91 bf 3c 3c 86 49 e0 bc
       -0.011386177 0.0028882718 0.011520282 -0.027378809
000260 d4 e8 16 3c af ab 8a bc d7 1c b8 bc c5 ac b2 bc
       0.009210784 -0.016927568 -0.02247469 -0.021810899
000270 32 8c 8a 3c 14 82 55 3c 06 08 93 3c dd 15 70 bc
       0.016912553 0.013031501 0.017948162 -0.01465365
000280 01 44 92 ba a0 32 8c ba 23 1e 68 bc f9 bd 22 bd
       -0.0011159183 -0.001069624 -0.014167341 -0.039731953
000290 81 04 fc 3b 01 d9 39 bc 86 ad 94 bc 22 e0 80 bc
       0.0076909666 -0.011343242 -0.018149149 -0.015731875
0002a0 53 67 98 bc 36 e8 0c 3d e7 4a 99 3a 32 ee 6d 3b
       -0.018603956 0.03440114 0.0011695296 0.0036305306
0002b0 5f a3 18 3a e0 b1 36 bc 45 92 ae 3b bb 43 6f bc
       0.0005822684 -0.011150807 0.0053274953 -0.014603551
0002c0 0e 21 03 bc 01 8f 1d 3b 53 bc e3 3b 64 90 d3 3b
       -0.008003486 0.0024041536 0.00694994 0.0064564217
0002d0 80 9a 8a 3c 23 9d d1 ba 02 ae f2 bb 0e e9 1d bc
       0.016919374 -0.0015992265 -0.0074059973 -0.009638084
0002e0 60 eb 95 3c a4 d8 38 bc a7 09 2d 3c 47 f5 d4 bb
       0.018300712 -0.01128212 0.010561383 -0.006498966
0002f0 b8 d8 57 3c b7 99 31 3b 61 67 cd bc 77 26 f7 ba
       0.013174228 0.0027099678 -0.025073709 -0.0018856068
000300 26 ed 24 3b 3b 65 3e bc f4 cc 07 bc c1 0f 8c 3b
       0.0025165766 -0.011620815 -0.008288611 0.004274339
000310 81 8f 3a bc b2 fd 25 bc 46 3c 60 3c 51 f7 31 3c
       -0.011386753 -0.010131286 0.013686245 0.0108621875
000320 b5 08 92 3b 67 e3 40 3b 1b 65 3d bc 59 0f 8f bb
       0.0044566044 0.0029432417 -0.01155975 -0.0043658433
000330 7b 65 da bb ed 55 be bb 10 92 08 3b 09 8b 18 3b
       -0.0066649294 -0.005808583 0.0020839013 0.002327623
000340 b2 98 6a 3b b0 48 97 bc 85 d2 5d bc b9 c5 19 3d
       0.003579658 -0.018467277 -0.013538961 0.03754208
000350 61 7e 90 bc 50 5f 88 ba 78 3d 7f 3b fb fa 25 3c
       -0.017638387 -0.0010404382 0.003894655 0.010130639
000360 2c 55 ab 3c 86 67 73 3a 10 cf 0c bd 41 a8 a5 bc
       0.020914637 0.00092851405 -0.034377158 -0.020221831
000370 ad d6 8f b8 6c 02 4a 3c d8 42 2d bc 60 f0 78 3b
       -6.858758e-05 0.012329679 -0.010575019 0.0037985072
000380 55 01 61 bb a7 dc 88 bb f8 4c 8e bc 8b f7 f3 bc
       -0.003433307 -0.0041766944 -0.017370686 -0.029781124
000390 7d ef f3 3b 4e 6c 14 bc c9 f6 1c 3c f2 93 af 3b
       0.0074443207 -0.009059025 0.009580323 0.0053582126
0003a0 ae 38 08 bd 86 18 29 bb 59 50 b1 bc 0b 23 50 3c
       -0.03325718 -0.002580197 -0.021644758 0.012703667
0003b0 73 47 95 bc cb 72 24 bd 2e 3f 26 bc dd 06 b3 bb
       -0.018222546 -0.040148538 -0.010146899 -0.0054634647
0003c0 f8 55 05 bc df e6 19 3c 51 6a 9f 3c 26 3b 05 bd
       -0.008138172 0.009393423 0.019459875 -0.03252711
0003d0 62 f6 ee 3c 33 98 8c bc ea e4 2a 3c 09 1c 51 bb
       0.029170219 -0.017162418 0.010430554 -0.003190758
0003e0 9a de b9 ba bd 31 4c bb 5c 00 23 3d cf fd 3c bb
       -0.001418072 -0.0031157576 0.039795265 -0.0028837805
0003f0 04 46 e8 3c 9b 8a 71 bb 45 08 17 3d fe 57 b2 bb
       0.028353699 -0.0036856297 0.03687312 -0.0054426184

bn1.running_mean f4 [256]
000000 2d 79 cb be 8c 4c 1f 3e da 68 e4 be d8 5a 9b 3e
       -0.39740887 0.15556544 -0.44611245 0.30342746
000010 f6 43 22 3e 3e 08 9d bf 02 26 97 3f 23 fc 4c 3f
       0.15846238 -1.226814 1.1808474 0.8007223
000020 ae db 09 be f9 30 8b 3f 5a 5f f9 3e f8 1c 55 3f
       -0.13462707 1.087432 0.4870556 0.8324733
000030 54 55 f1 3e 03 4c b1 3e 9b b0 20 3e 36 5d a2 be
       0.47135413 0.34628305 0.1569237 -0.3171174
000040 99 a6 3d 3e 61 52 30 3f 6a 99 8e 3e dd ad 0a 3e
       0.18520583 0.688757 0.2785142 0.13542886
000050 51 32 e3 bf 81 46 82 bf 69 28 76 bf da 87 28 3f
       -1.774973 -1.0177766 -0.9615541 0.65832293
000060 62 e2 c6 3c b4 38 93 bf fc a6 83 3f 26 38 07 be
       0.02427787 -1.150168 1.0285335 -0.13205013
000070 d9 30 ac bf 30 10 c4 be f9 30 5c bf 0a aa 82 bd
       -1.3452407 -0.382936 -0.86012226 -0.063800886
000080 a6 cd d6 3e d1 d2 73 3f 5a d8 8c bf 32 70 38 3e
       0.41953772 0.95243555 -1.1003525 0.18011549
000090 5c f7 2c 3f 89 01 3a 3f 51 2e df 3d ff be 9e 3c
       0.6756494 0.7265859 0.10897506 0.019378183
0000a0 af 3a 3f bf 30 8b 89 3f e0 43 88 3f f3 58 aa bf
       -0.7469892 1.0745602 1.0645714 -1.3308395
0000b0 46 9d 89 bf 1c b0 1c bf f0 3d 67 3e 1a 5a 32 3f
       -1.0751121 -0.6120622 0.22582221 0.69668734
0000c0 df 76 da be 6e 63 a1 3f e4 9b 1b bf 9c f4 44 3f
       -0.42668816 1.2608469 -0.60784745 0.76935744
0000d0 d4 3b cb 3c 8d fc 7e 3f b8 78 29 bd b9 d8 09 bf
       0.024808802 0.9960411 -0.041374892 -0.5384632
0000e0 6a c8 67 bd c4 c2 b0 bf 0e 17 87 3f a4 06 8d 3d
       -0.056587614 -1.3809438 1.0553911 0.06886032
0000f0 ce 85 9c bc 5a e1 6b bf ec ee 4d bf f0 83 61 bf
       -0.019106772 -0.92140734 -0.8044269 -0.88091946
000100 14 ee 70 bf cc ac 85 3e a0 96 8d 3a b9 d5 19 3e
       -0.9411328 0.26108396 0.0010802336 0.15022935
000110 86 09 49 3f dc 5f 68 3f 1c ef 8f 3e 6c 86 88 3e
       0.78530157 0.9077127 0.28112113 0.26665056
000120 c8 2b 98 bd 7b 5a e6 be 64 2d 2e bf 7b df 1a bf
       -0.074302256 -0.44990906 -0.6803801 -0.60497254
000130 24 f2 2c be 62 3e 14 be c2 39 d7 bd e8 27 24 bf
       -0.16889244 -0.14476922 -0.10509063 -0.6412339
000140 69 29 c5 3f 92 52 68 bf 31 af ed 3e 8f c7 d0 be
       1.5403262 -0.9075099 0.46422723 -0.4077725
000150 d9 0f b0 be 64 2c a2 bf f7 a7 7b bf 92 90 7c 3e
       -0.3438709 -1.2669797 -0.9830317 0.24664524
000160 41 fd 23 3e 8e 4d 32 bf b0 89 11 be dd 9f af 3d
       0.16014577 -0.6964959 -0.1421268 0.085754134
000170 92 cf c0 bb 6b dc 4f be dd 87 77 3f bb 60 8e bf
       -0.0058841193 -0.20298927 0.96691686 -1.112327
000180 c1 d7 42 3f 6a f7 52 bf 97 94 8e 3f f7 4c 44 bf
       0.76110464 -0.82408774 1.1139096 -0.7667994
000190 93 f7 03 bf 3a f0 38 bf ed 1a 0a bf ae 89 67 bf
       -0.51549643 -0.72241557 -0.53947335 -0.9044446
0001a0 1c db 3f bf 1c f6 94 3f da 24 d4 3e c8 09 a5 3e
       -0.7494371 1.1637607 0.41434366 0.32234025
0001b0 7d f8 c9 3d 31 06 85 be c5 fd c9 be 1f 32 9a bf
       0.098618485 -0.25981286 -0.39451423 -1.2046546
0001c0 7e 4d 5f 3f ef b8 04 3e 65 cb 3f be 7e b3 1f be
       0.8722762 0.12961172 -0.18729933 -0.15595815
0001d0 26 35 fd bd 32 9c bd 3e 4b 4d 92 bf c3 e0 1f be
       -0.12363653 0.3703323 -1.1429838 -0.15613084
0001e0 0f dc ef 3d 31 44 7a bf e2 77 94 3e 8b 98 50 bf
       0.11711895 -0.977603 0.28997713 -0.8148276
0001f0 89 b7 a4 be 71 e5 1f be 83 db 37 3f e8 f6 c4 bb
       -0.32171276 -0.15614869 0.71819323 -0.006010879
000200 95 a9 31 3e 0a f0 1d 3f 71 54 c4 be ba 5b e8 3d
       0.17349847 0.61694396 -0.38345674 0.113456205
000210 a5 03 36 3e 52 24 95 bf d8 20 95 3e 12 da 09 bf
       0.17774828 -1.1651709 0.2912662 -0.53848374
000220 fd 26 89 bf 68 fd ff 3e 36 5c 5a bc e4 69 f7 be
       -1.0715023 0.4999802 -0.013327649 -0.48322976
000230 eb 06 d5 be ea 4c 92 3e e8 f3 ff 3d ed 49 3b 3f
       -0.4160684 0.28574306 0.12497693 0.73159677
000240 14 ed a5 bd 54 0a c6 bd fb 79 d9 3e 60 8d 6b be
       -0.0810186 -0.09669939 0.42475876 -0.23003149
000250 28 52 b1 bd 0a ce 90 bf 8b c7 ca bf e6 20 9b 3e
       -0.08658248 -1.1312878 -1.5842146 0.30298537
000260 92 bd f4 3e 4e b2 b1 3e b4 f6 65 3c 1f bf a5 be
       0.4780088 0.34706348 0.014035869 -0.32372376
000270 10 c8 93 3d 08 c0 3f bf 53 f2 a0 3e 8c c9 84 3e
       0.07215893 -0.7490239 0.3143488 0.25935018
000280 27 87 ca bf f1 ed 1d bf 8e fd c0 bf 42 0b dc 3d
       -1.5822495 -0.61691195 -1.5077379 0.10744335
000290 6f ab b8 be 85 cb cf 3e 38 0c 16 3f 20 1b 92 bf
       -0.36068293 0.4058496 0.58612394 -1.1414528
0002a0 6f a4 63 3e 3f 58 d5 be 88 7c bf bf d0 8f 91 be
       0.22230695 -0.4166889 -1.4959879 -0.28430033
0002b0 dc bb 85 bf 78 66 e9 3d e6 78 08 3f b2 31 46 bc
       -1.0447955 0.113964975 0.53309476 -0.012096809
0002c0 02 e9 86 3e c9 fe 16 3e 80 5a bf be 50 7a f4 3e
       0.26349646 0.1474563 -0.37373734 0.47749567
0002d0 b8 fc af 3c 5c f1 57 bf 84 f9 6a be 1a 7f 4b bf
       0.02148281 -0.8435266 -0.22946745 -0.79490817
0002e0 fd db 63 bf f0 a6 eb bd 42 0b 90 3f 70 58 aa bf
       -0.8900755 -0.1150645 1.1253436 -1.3308239
0002f0 61 3b 9a 3c 99 ca 7d bf df c6 4b bf ef 68 a9 3f
       0.018827142 -0.99137264 -0.7960033 1.3235148
000300 4e 3a 9c 3e 34 a6 31 bd b9 63 2b bf 8a cb 38 be
       0.30513233 -0.043371394 -0.6694904 -0.18046394
000310 3c 6e ac bf f1 46 4f bf c9 26 5a bf 4c ed 6e bd
       -1.3471141 -0.80967623 -0.8521543 -0.058331773
000320 e5 f7 9d bc 03 ef e1 bd fc c7 a9 be 1f 6b b3 be
       -0.019283244 -0.11031916 -0.33160388 -0.35042664
000330 c8 d9 fc 3e de 88 b1 3d 38 0e f9 bd 34 9f ed bf
       0.49384904 0.086686835 -0.12160915 -1.856421
000340 e4 b2 96 3e b9 fa ac 3e c1 8c ae bf 6c 23 1c 3f
       0.29433358 0.33785036 -1.3636705 0.6099155
000350 4a 49 5b be a1 45 c8 bd 1c dc 0b bf f0 d4 3f 3f
       -0.21414676 -0.09778906 -0.54632735 0.7493429
000360 ad af f7 bf c8 6c c6 be 94 bd 5a 3f 0a c4 c4 3c
       -1.9350487 -0.38754869 0.85445523 0.02401926
000370 07 1c 82 bf f1 12 b1 be ee 41 d8 bf 11 f6 4a bf
       -1.0164803 -0.34584764 -1.689512 -0.7928172
000380 e7 5c 61 3f 1e ad c3 3f 90 1d a5 3d 8d 0b d5 be
       0.8803238 1.5287206 0.08062279 -0.41610375
000390 7d 0d d1 bf 6f cb e5 be 11 b8 6a 3f df 97 14 bf
       -1.6332241 -0.4488177 0.91687113 -0.58044237
0003a0 04 d7 86 3f 40 dc b0 bd 22 53 6f 3f d0 97 87 3e
       1.0534368 -0.08635759 0.93486226 0.2648301
0003b0 9f db 96 3f ff d6 32 3f 5f d7 d9 3f 3e 17 be 3e
       1.1785773 0.6985931 1.7018851 0.37127107
0003c0 8f d0 ee bd 57 df d1 be 16 6f e1 be d6 ed 20 3f
       -0.11660873 -0.40990707 -0.44030064 0.6286291
0003d0 f8 5c 0e 3e 9e 32 62 bd d5 22 da bf ff 9a 00 bf
       0.13902652 -0.055224054 -1.704188 -0.50236505
0003e0 5a 36 41 bf 32 76 33 3f a5 66 48 3e 36 3c fa 3e
       -0.7547356 0.70102227 0.19570406 0.48874062
0003f0 e0 0c 05 bf ee 0a 96 bf 04 9c 05 bf 0b 90 b0 3d
       -0.5197277 -1.1722085 -0.52191186 0.08621224

bn1.running_var f4 [256]
000000 04 82 b8 3e 1f 1a f8 3e 75 66 81 3e fb 2a 5d 3f
       0.36036694 0.4845743 0.2527348 0.8639371
000010 ce 2b ff 3e f4 bf 30 3e 38 7a 29 3f 67 ee 9e 3d
       0.49838108 0.17260724 0.66202116 0.077603154
000020 c6 f4 df 3d 26 bd 9c 3e f0 0d 8f 3f 50 0c c1 3d
       0.10935359 0.3061306 1.1176128 0.094261765
000030 9a 82 27 3e 8f 45 5c 3f 78 f6 c0 3d 5b d2 05 3e
       0.16358414 0.8604364 0.0942201 0.13068525
000040 9b 5e d2 3d 32 f7 be 3f d1 a4 73 3e e7 2c 40 3e
       0.10271951 1.4919188 0.23793341 0.18767129
000050 81 c3 e4 3d 6b 5e e9 3d 41 03 65 3f dc 9b 84 3e
       0.11170102 0.11394962 0.8945809 0.2590016
000060 86 75 19 3e 42 f0 81 3e 21 7d 40 3e 4c 82 1b 3f
       0.14986238 0.25378615 0.18797733 0.6074569
000070 f9 95 cf 3e 1b f3 95 3e 85 0f b0 3d dc d3 2e 3e
       0.40544108 0.29287037 0.0859671 0.17073005
000080 0e 4d ee 3e f5 bc 9d 3e d6 93 32 3e 9a d3 20 3e
       0.46543163 0.30808225 0.17439207 0.1570572
000090 9c 30 2d 3f 95 a2 93 3e 03 d8 ef 3f c3 5b 0b 3e
       0.676523 0.28834978 1.8737797 0.13609223
0000a0 d2 a8 13 3e 34 e9 cf 3e 63 5d 6f 3f 70 3f b2 3d
       0.14419869 0.40607607 0.9350187 0.08703506
0000b0 97 81 c6 3e aa a6 09 3f 56 69 8e 3e 85 8d ce 3e
       0.38770744 0.53769934 0.2781474 0.40342346
0000c0 82 bb 3e 3f c2 cd a3 3e 56 d1 e6 3e 36 50 a9 3e
       0.74504864 0.31992918 0.45081586 0.3306901
0000d0 f9 2a bd 3d a6 cb ce 3e b2 25 14 3e 9d de 2c 3e
       0.09236712 0.40389746 0.14467505 0.16881795
0000e0 ec d4 39 3f ca a8 10 3f a2 db 97 3e 65 40 74 3e
       0.7259052 0.5650755 0.29659754 0.2385269
0000f0 bf 77 10 3e 17 9c 67 3f 98 17 4b 3f 92 44 a8 3e
       0.1410818 0.9047255 0.79332876 0.32864815
000100 60 c0 22 3e 04 1e 59 3e 47 ca c9 3e d0 85 99 3e
       0.15893698 0.21202856 0.39412138 0.29984903
000110 9f dc 42 3e 05 9d a0 3e 25 32 7d 3f 87 be 5c 3e
       0.19029473 0.31369796 0.9890464 0.21557055
000120 50 9e a4 3e d9 5c 30 3e c1 c7 ea 3d dd 98 8e 3f
       0.32152033 0.17222919 0.11463881 1.11404
000130 75 b1 9e 3e 2e b6 5d 3e b5 db 56 3f 7f f0 17 3e
       0.30994764 0.21651527 0.83928996 0.14837836
000140 cc ca 44 3e 55 e1 80 3d 06 5f 8d 3e ff f4 1c 3f
       0.19217986 0.06292979 0.2761156 0.61311334
000150 c3 c2 b3 3d b8 73 4e 3e 5a 46 cd 3e 02 33 bd 3d
       0.08777382 0.2016133 0.40092736 0.092382446
000160 c9 09 00 3e 11 b5 22 3f 95 88 98 3e c8 44 ee 3e
       0.12503733 0.63557535 0.29791704 0.4653685
000170 60 c4 98 3e 44 9f 22 3f 48 24 02 3e 64 4c 4e 3e
       0.29837322 0.6352427 0.12709153 0.20146328
000180 44 c5 39 3e 30 c2 99 3e 87 53 b6 3e ff d3 12 3e
       0.18141657 0.30030966 0.356106 0.14338683
000190 7a fb b7 3d b5 91 55 3e b3 47 04 3e a2 c3 85 3f
       0.08983512 0.20856364 0.12917976 1.0450327
0001a0 29 68 96 3d d0 45 e6 3e 45 74 46 3e c6 7a 83 3d
       0.07344086 0.44975138 0.19380291 0.064199015
0001b0 7a 36 35 3e 92 ee 01 3f 96 6f 3e 3d b2 71 0f 3f
       0.17696562 0.50754654 0.046493135 0.5603286
0001c0 48 88 22 3f 84 c8 18 3f 45 2b 0b 3f a8 bb 4e 3f
       0.634892 0.5968096 0.543629 0.8075509
0001d0 15 b5 1f 3e a1 a5 60 3e 8f e3 e8 3e c9 63 cf 3e
       0.15596421 0.21938182 0.45486113 0.40505818
0001e0 26 85 21 3f 40 17 14 3e 1a e7 f9 3e 9c ae 11 3e
       0.63093793 0.14461994 0.4880913 0.14226764
0001f0 fe 83 89 3f 7f f5 57 3e bf 12 ad 3e 21 df 2b 3e
       1.0743406 0.21089743 0.33803365 0.16784336
000200 af ec 41 3e cd c7 b7 3d 3c aa 1b 3e 63 0a e9 3e
       0.18937944 0.08973656 0.15201658 0.45515737
000210 4a 79 1c 3f 2b 8d 41 3f 10 0f e8 3e e9 32 6c 3e
       0.6112257 0.7560603 0.45323992 0.23066296
000220 cb c3 24 3e e3 21 59 3e 4f 31 1a 3e 8a 05 0d 3e
       0.16090314 0.21204333 0.15057872 0.13771644
000230 4c 84 82 3e 7d 45 bb 3d b5 b6 a6 3e 6c 6b 2f 3e
       0.2549156 0.09144113 0.3256127 0.17130822
000240 c9 5f 82 3e f4 e7 1e 3f 5c 98 d8 3d e2 6c ff 3e
       0.25463703 0.6207268 0.10575935 0.49887758
000250 f7 b5 0a 3f bc b4 57 3e aa ea d3 3d 45 37 20 3f
       0.54183906 0.21065038 0.10347493 0.62584335
000260 33 52 73 3e 71 a7 06 3f 03 71 d5 3d ca 39 b7 3e
       0.23761825 0.52599245 0.10421946 0.35786277
000270 4f c9 4d 3f 70 9e 2a 3e 1e a2 48 3e 0b 2f 20 3e
       0.803853 0.16662002 0.19593093 0.15642945
000280 5c b0 31 3f 83 ad 20 3f b5 08 8c 3f fc 9d fb 3e
       0.6940973 0.6276476 1.0940157 0.4914397
000290 4e c4 34 3e 45 76 2f 3f f2 82 41 3e 2d bb 3e 3f
       0.1765301 0.6853984 0.18897608 0.7450436
0002a0 54 59 ea 3c ba a0 cc 3d 04 76 2a 3e be c5 96 3e
       0.028607048 0.09991594 0.16646582 0.2944774
0002b0 68 0d 19 3f 9a 2c 14 3e 6c c7 7e 3d 6c 5d 00 3f
       0.5978608 0.14470139 0.062201902 0.5014255
0002c0 2c 6e 94 3e 73 42 9d 3e b4 eb 09 3f b3 c7 f3 3e
       0.28990304 0.3071476 0.5387528 0.47613296
0002d0 f5 19 9f 3e 23 54 fe 3e 35 66 94 3d cc ea 61 3e
       0.3107449 0.49673566 0.07246057 0.22062224
0002e0 48 ed 2b 3e 8b 8c 81 3f 7a fb 8d 3e cb a4 3e 3f
       0.16789734 1.0121015 0.27730924 0.74470204
0002f0 62 87 ed 3d 50 b6 88 3e 9c 32 73 3e 50 a9 65 3f
       0.11598088 0.26701593 0.23749775 0.89711475
000300 fb 5d 0e 3f 0b 5f 26 3f 73 05 3b 3f fd 9d 32 3f
       0.5561215 0.64988774 0.7305519 0.6977232
000310 1b 6d a9 3e e9 42 30 3e 80 db 21 3d 94 03 1e 3e
       0.33091053 0.17213024 0.039515972 0.15431052
000320 25 2c 8f 3e ee d0 89 3e e9 bf 1c 3f ea 90 f8 3d
       0.27963367 0.26917213 0.6123033 0.12137015
000330 97 a2 1c 3f 56 44 9e 3e 98 8b f4 3d ed c6 73 3f
       0.6118559 0.3091151 0.11940688 0.9522541
000340 a8 8e a8 3f 87 fc e5 3d df c8 e3 3e e5 4d df 3e
       1.3168535 0.112298064 0.4448919 0.43614116
000350 ce 4d 54 3f f4 0b 60 3e f8 fd f8 3e e1 36 a2 3e
       0.8293122 0.2187956 0.48631263 0.31682494
000360 1d 6d a9 3e fe 20 b8 3e ad cc 64 3e fa 06 8d 3f
       0.3309106 0.3596267 0.22343703 1.1017754
000370 2a 51 86 3f 57 2c 8d 3e 48 6d 36 3d 41 d2 ea 3e
       1.0493519 0.2757289 0.044537812 0.45863536
000380 51 61 9a 3e 55 e9 d8 3e 56 46 dd 3e e4 60 1c 3e
       0.30152372 0.42365518 0.43217725 0.15271336
000390 ef c8 c7 3e 62 b2 e3 3e 7c 33 10 3f 65 02 18 3f
       0.39020488 0.44472033 0.5632856 0.59378654
0003a0 bd 42 ea 3d d3 31 bd 3f 79 33 ed 3e 0a 3b 15 3f
       0.114385106 1.478083 0.46328333 0.5829321
0003b0 0f e6 c1 3e be 07 d6 3e 6c 7d fa 3e e9 77 35 3f
       0.37870833 0.41802782 0.48923814 0.70886093
0003c0 2e 1a bd 3d ba 37 6b 3f e5 b9 c6 3e a7 3b 56 3e
       0.09233509 0.91881907 0.388137 0.20921193
0003d0 98 d3 19 3e a9 14 71 3e 8d a9 21 3f 0d 08 4f 3e
       0.15022123 0.23543037 0.6314934 0.20217915
0003e0 71 43 a2 3e 38 db 9b 3f f2 d0 62 3e 3c 42 02 3e
       0.3169208 1.2176275 0.22150019 0.12720579
0003f0 11 6b 35 3f 39 eb 9d 3e f3 f7 b3 3d eb eb 2e 3e
       0.70866495 0.30843523 0.08787527 0.17082183

shared_fc2.weight f4 [256, 256]
000000 7f 54 b0 bb f3 85 b0 3d f8 a0 85 bc 26 0e 57 3d
       -0.0053811665 0.08619299 -0.016312107 0.052503727
000010 8d d2 5c 3d 78 c0 4a bc 61 f3 0c bd 9c 78 e7 bc
       0.053911734 -0.01237499 -0.03441179 -0.028255753
000020 2e f0 05 bd 62 ed fd 3d b9 33 7d bd 4f 26 03 be
       -0.032699756 0.12398793 -0.061816905 -0.12807582
000030 6b 2b 80 bc 35 cf 7d 3c 03 49 06 bd dd 66 c0 3d
       -0.015645703 0.015491297 -0.032784473 0.093946196
000040 ff ec 42 bc 1e cd 4b be dc e0 ca bc 11 af b8 bd
       -0.011897325 -0.19902465 -0.024765424 -0.09017766
000050 82 82 99 3c df af fb bd 5f 93 b2 bc 2b 09 a6 3d
       0.018738989 -0.12289404 -0.021798788 0.081072174
000060 e8 cf 97 3c 69 a7 1c 3e 2e f2 2c bd 56 1d a8 bd
       0.018531755 0.15298237 -0.042223148 -0.082087204
000070 2e bf 37 bd ff 82 0a 3e 69 67 68 3d 37 b2 0c bd
       -0.044860058 0.13526534 0.056739245 -0.034349646
000080 05 03 6f bc 3a 97 ae 3d 00 f7 c2 bd ac d3 98 3d
       -0.014588122 0.08524938 -0.09519768 0.07462248
000090 b9 8b 4a bd 61 05 13 be 01 1b cb bd 45 46 65 3e
       -0.049449656 -0.1435752 -0.0991726 0.22390087
0000a0 87 1d b4 bd 40 04 0f 3e ec 5a 34 be 91 ce 26 3d
       -0.087946944 0.13966465 -0.17612809 0.04072434
0000b0 ce dd 56 3e 2b 8d 41 3e c2 04 33 3d 57 c2 17 bd
       0.2098305 0.18901508 0.04370571 -0.03705057
0000c0 f7 7b 34 3e 30 86 b0 bd e1 2b 47 be d8 0f 8b bd
       0.17625414 -0.08619344 -0.19450332 -0.06790131
0000d0 2a 4d 15 3e c9 70 5b bc e0 77 49 ba 6e ec a2 bd
       0.14580217 -0.013393589 -0.0007685404 -0.07955252
0000e0 54 a7 14 bd 84 96 f8 bc da f3 0f bd 91 78 a1 bc
       -0.03629239 -0.030345209 -0.035144664 -0.01971081
0000f0 9c 88 b6 3c ae 45 64 3e d5 f9 ed 3d 78 4d 9c bd
       0.022281937 0.22292206 0.11619917 -0.076319635
000100 09 46 df bc 34 b3 d6 3c 2a e4 47 bd a9 ee a7 bd
       -0.027255075 0.026208498 -0.04880158 -0.08199818
000110 73 f3 2b bd e0 53 e1 bd c8 13 2d 3d bd cf 44 3d
       -0.04198022 -0.11002326 0.042255193 0.048049677
000120 f2 dd 9a 3d 20 d0 a2 3d ad 0a 07 bd 86 2f 06 3d
       0.07561864 0.07949853 -0.032969166 0.032760166
000130 73 d2 eb 3b 01 81 37 be 18 32 fd bb c9 ab 8c 3c
       0.0071967184 -0.17920305 -0.007726919 0.017171757
000140 e2 40 af 3d 65 39 13 3e 7c 76 9f bb c2 50 0b 3d
       0.08557297 0.14377363 -0.0048664194 0.034012564
000150 58 e4 94 bd 96 cb f3 3d 3b 32 84 bd 29 49 ae 3d
       -0.072701156 0.11904065 -0.06454893 0.08510048
000160 95 a0 07 3d 8a 63 13 be e8 8c 87 3d 8d 5a 08 3d
       0.033112127 -0.1439344 0.066186726 0.03328948
000170 3f 8e 69 3d 72 dc 93 3d 0c 01 6e bd 29 02 c3 3d
       0.057020422 0.07219781 -0.058106467 0.095218964
000180 13 2e b4 bd 55 0f dc bd 60 79 aa bb 58 43 90 3d
       -0.087978505 -0.10745112 -0.0052024573 0.07044095
000190 f3 b0 b6 3b 45 34 38 bd 51 e7 e1 bc f0 6c 93 3d
       0.005575293 -0.044971723 -0.02757612 0.071985126
0001a0 9a 40 4c 3d e1 e3 d0 bb 3e 1d b1 bd 57 b4 dc bd
       0.049866296 -0.0063748215 -0.08648156 -0.107765846
0001b0 33 1c dd bd e9 38 b5 3d 55 65 9a bd a2 e7 0d be
       -0.10796394 0.088487454 -0.07538859 -0.13857892
0001c0 0b d4 56 3d a5 dd 51 3d 77 9b a4 3c bc 5d 8a 3c
       0.052448314 0.051236767 0.020093663 0.0168904
0001d0 39 45 9a bd a2 7a 34 be 5b 79 d2 3c 66 fa 0a be
       -0.075327344 -0.17624906 0.025692632 -0.13572082
0001e0 db 4b b4 3d c1 e6 80 bd c9 0c 91 3d ff 60 0c bd
       0.08803531 -0.06294013 0.07082517 -0.03427219
0001f0 5e 6d ce bd f8 98 f4 3c 61 05 08 3d 1b 94 c9 bd
       -0.10079454 0.029858097 0.033208255 -0.09842702
000200 87 47 94 3d 8a 3f 58 38 94 2e e0 bd 60 5f 92 bc
       0.07240205 5.155759e-05 -0.10946384 -0.017867744
000210 be 47 98 bc 22 fe ba 3c e5 9c c7 3d df 78 aa bc
       -0.018588897 0.022826258 0.09746722 -0.020809589
000220 e3 a8 2f 3e 56 16 45 be 59 01 06 be 5d 22 09 3d
       0.17154269 -0.19246802 -0.13086452 0.033480037
000230 3e 4e 75 bd 6a 75 27 3d b5 56 a6 3d 04 4d 2c 3c
       -0.05988907 0.04088346 0.08122007 0.010516409
000240 4f 89 8d 3d 8a 2e d2 bd dc 21 d8 bd 89 e3 86 bd
       0.06910955 -0.10262783 -0.10553333 -0.06586368
000250 04 c4 93 bd 5f 6d 05 3d 0f bc bb 3c e3 f7 32 3d
       -0.072151214 0.032575008 0.022916822 0.043693434
000260 65 22 3b bc 12 a9 96 bd 3b 8f a4 3d 1e b6 18 3e
       -0.0114217745 -0.07356466 0.080351315 0.14913222
000270 e7 b8 9b 3c 6b 3b 2c bd fd c1 35 be 89 4d 8e 3d
       0.019009067 -0.042048853 -0.17749782 0.069483824
000280 40 61 af bd 7b ba 8c 3c c0 63 5f bc 58 18 26 3d
       -0.08563471 0.017178765 -0.013634622 0.04055056
000290 4d 3c 4c bd 9b f9 65 bc c9 9f f5 3d 58 51 c3 3c
       -0.049862195 -0.014036561 0.11993367 0.023842499
0002a0 59 3c 0a 3e a5 f0 9e 3c 91 cf d5 bd 62 71 f5 bd
       0.13499583 0.019401858 -0.10439981 -0.11984517
0002b0 c8 65 59 bc 13 e9 02 be a2 04 5d 3d d0 3f 67 bc
       -0.013268895 -0.12784223 0.053959496 -0.014114335
0002c0 5a fc c1 bc bb 4c ef bc f3 89 ae 3d cf 6a 3e be
       -0.0236799 -0.029211393 0.085224055 -0.18595432
0002d0 98 81 8d bc d0 a9 10 3e 3e 76 76 3c 0b dc f3 3c
       -0.01727371 0.14127278 0.01504284 0.02976801
0002e0 91 ed 0a bc fe f6 db 3d e3 c4 ef 3c 86 56 ed 3d
       -0.008479492 0.107404694 0.029268688 0.11588769
0002f0 09 89 b5 3c cc a9 b8 3d 94 18 6b 3b fe 04 e0 b9
       0.02216007 0.09016761 0.0035872804 -0.0004272833
000300 6b 2d 00 3e e6 84 a8 3d f5 f1 71 3d 5c 16 1f be
       0.12517326 0.08228473 0.05906864 -0.15535873
000310 d7 2c 74 bd 2a a3 08 be 02 21 4a 3e f3 cb 16 3d
       -0.059613075 -0.13343492 0.19739154 0.036815595
000320 46 54 91 bd 15 e5 78 3d fe 04 09 3d 4a 75 b2 3d
       -0.07096152 0.060765345 0.033452027 0.08713777
000330 fc 79 ee bc bf 3d 86 3d 61 6a 02 be a4 e0 be 3c
       -0.029110901 0.06554746 -0.12735893 0.023300476
000340 61 90 a3 bd 50 1c a1 bd 02 3a 93 3d 38 fb ac bd
       -0.079865225 -0.07866728 0.071887985 -0.08446354
000350 65 19 a2 bd 01 6c c0 bd 8b 15 70 3d 48 42 3c be
       -0.07915 -0.093956 0.058614295 -0.1838466
000360 bd bf 0b bd e6 78 ac 3d 75 c6 b6 bb 9e 7c ec 3c
       -0.034118403 0.08421497 -0.005577857 0.028868016
000370 50 59 45 3c 07 82 08 bc aa cb 27 3e 1c 61 51 bd
       0.01204522 -0.008331782 0.16386285 -0.051118
000380 0d a9 b3 3c 63 c8 58 bd f0 66 77 3c 20 44 61 bc
       0.021931196 -0.05292548 0.015100226 -0.013749152
000390 f5 65 1d 3e 6e 04 f4 3d 0e 15 55 3c ea 61 14 3d
       0.15370925 0.119149074 0.013005508 0.03622619
0003a0 6e 9a 9a 3c 9e 8a b0 3d 91 46 fd 3d 4d 0b 20 be
       0.018872466 0.08620189 0.12366975 -0.15629311
0003b0 b2 df 89 bd ed 4d a2 3c 15 e3 33 bd 3c e9 75 3e
       -0.067321196 0.019812549 -0.043917734 0.24014753
0003c0 5d 94 f0 bd 38 1a 9f bd 6d 50 63 3d 9e 4d aa bd
       -0.11747048 -0.07768673 0.055496622 -0.083155856
0003d0 79 5b 66 bc 69 26 cc 3d 84 23 25 3d 2c f5 88 3c
       -0.014059895 0.09968264 0.040317073 0.01671847
0003e0 a3 4c f3 3d 48 4d 60 3e 27 01 15 3c 91 c7 a1 3c
       0.11879852 0.2190448 0.009094513 0.019748481
0003f0 37 11 7a 3d 00 a7 42 3e 8a 89 2f 3d fc e6 df 3d
       0.061051574 0.19009018 0.042855777 0.10932729
