controllers/rl_control/checkpoint_episode_50.pth (torch, 966874 bytes, 24 tensors)

actor_log_std f4 [1, 2]
00000000: 6727 e23a f0fe d53b
0.0017254174 0.006530635

shared_fc1.weight f4 [256, 50]
00000000: 6015 1f3c dd7f 2d3c 88b6 223c 6cc0 283c
00000010: a32d 2b3c 70b2 353c f50e 393c d04d 033c
00000020: 151f 1d3c 6163 383c a7ec 0d3c 407a 1b3c
00000030: 1bf0 0f3c 3666 203c c251 f93b fd7e 1a3c
00000040: a2e9 383c 8444 2c3c 20ee 333c 0512 383c
00000050: b3b1 283c e189 223c 7b6f 3b3c 794d 043c
00000060: 4f0c 373c ab1b 4f3c 081d 083c d3bd 0c3c
00000070: 0ef4 153c eddf 1d3c 5b6a 2b3c 80aa 0c3c
00000080: a30e 353c 582b 1f3c 63c7 313c 870c 343c
00000090: 5a4d 343c 210d 3b3c faa7 333c 50d1 133c
000000a0: 9918 2c3c a536 453c 8dc7 0c3c 700d 143c
000000b0: 8eff 143c 4f18 0e3c f75c 263c b2ff 143c
000000c0: 335a febb 5019 bb3a 0609 103c 5411 fc3b
000000d0: baa9 013c 36f6 0b3c 7bf6 0f3c 2b77 193c
000000e0: 38d3 263c f789 e73b 530b 013c 3e8c 1e3c
000000f0: e5c3 d83b 9ff7 ce3b 237e d03b a3f6 f23b
00000100: cda7 da3b ae97 dd3b 82b2 033c ebd8 133c
00000110: 4948 0f3c 8486 223c d39b 043c 9a12 283c
00000120: 2131 1d3c 7a37 ee3b 5df7 263c 3e48 3a3c
00000130: 9381 c73b 4afd f03b d7b6 ea3b 5ea5 fe3b
00000140: 7c75 b83b 2d21 e33b 5d1e 1c3c 09e8 133c
00000150: 61be 133c bffe 1d3c 0114 2b3c 8233 2c3c
00000160: 46f2 1e3c 7110 043c 5f7f 0f3c 0fe1 353c
00000170: d7e7 ca3b 7ddd 013c fb75 f83b ac2e f83b
00000180: ed0a c63b caf6 c23b 05ec f2bb e06a 3939
00000190: a954 e7b9 fa61 92b8 24f1 af3a 9e36 e039
000001a0: a491 feb8 5743 20ba ca0a 5c39 0690 12ba
000001b0: 9914 6cba ddd1 8839 6089 233a ccc8 42ba
000001c0: a6d4 04ba 99e7 9139 2f03 0f36 da25 f1b9
000001d0: 41ee bc39 ba4c f938 bda4 8539 ef9b 2eb9
000001e0: 00da 4b3a eeb0 dbb7 8572 f6b8 47bf 29b9
000001f0: 5965 133a ab15 18ba f050 063a f585 0aba
00000200: 336f 4439 488f 903a 6c07 6cba 9285 0a39
00000210: e6fa 7dba e86f 563a ef3c 3e3a 4680 24b8
00000220: 0bb0 11ba 56b8 b939 8df6 8039 32f3 20ba
00000230: b5bd 3bba 2bae 12b9 c8a4 bbb9 5c2a 323a
00000240: a909 9fba 1013 87b9 2f04 7f3a 258e 0db9
00000250: 7201 d839 8d38 1bba dbec 303c 83f2 313c
00000260: 8faa 2d3c c0cc 393c 0313 373c f103 293c
00000270: d69e 2c3c 913c 0e3c 7417 373c dddc 383c
00000280: ec2d 1c3c 7ebe 113c b6af 193c 412c 203c
00000290: 14de 133c 5ac0 1a3c 6782 333c 0c53 3b3c
000002a0: 40f9 483c 488d 2e3c cfda 383c c81d 403c
000002b0: c120 3a3c 3fca 2c3c eefb 2b3c 596a 503c
000002c0: 9bb9 043c 45c8 213c 0d8e 1e3c 789e 193c
000002d0: 6048 233c 6f5b 193c ee2a 303c 886f 3a3c
000002e0: f67c 233c b7f2 393c 541d 403c be30 453c
000002f0: bcc5 2f3c 99a9 283c 988e 423c 2623 4a3c
00000300: 4a58 f73b 34d6 043c e4eb 193c 0424 1b3c
00000310: 1f03 1d3c 0ba8 173c 3436 f0bb 36a7 af3a
00000320: 1fa0 383c e664 253c cff2 2f3c 38af 383c
00000330: f651 313c 03d4 323c 47e9 583c bcab 2a3c
00000340: f020 333c 3eea 2f3c f520 163c 9590 113c
00000350: 98c6 0b3c fd98 0c3c 65f1 1a3c 4a37 2c3c
00000360: 496a 383c 6c1d 363c fc91 443c 3170 363c
00000370: 88da 493c 2609 353c e556 443c 6759 2b3c
00000380: 309d 323c d45f 423c 4380 013c aa0f 203c
00000390: f24d 2a3c fff8 243c db5b 1c3c add7 123c
000003a0: 4baa 3a3c 30f9 3d3c eb05 4d3c ccec 403c
000003b0: 2c06 463c d1cf 473c b0d0 633c 8556 353c
000003c0: 7c13 383c 0f6d 4a3c 0d77 163c 3a9f 0d3c
000003d0: cd47 213c 8e0c 233c 7807 1a3c 9a90 223c
000003e0: ac78 e7bb 0ace d13a 81e1 233a 23f7 3eba
000003f0: 4567 49b9 cc63 25ba 8130 143a 36d0 ab38
0.009709686 0.010589567 0.009931214 0.010299783 0.010447892 0.011089906 0.01129507 0.008014157
0.00958993 0.0112541625 0.008662379 0.009489596 0.008785273 0.009789994 0.0076086232 0.00942969
0.011286171 0.010514382 0.010982066 0.011234765 0.010296273 0.009920568 0.011440153 0.008075112
0.011172368 0.012640874 0.008307703 0.0085901795 0.009152425 0.009635908 0.010462369 0.008585572
0.011050853 0.009714924 0.01085076 0.010989315 0.01100477 0.011416704 0.010965342 0.009022072
0.010503911 0.012036954 0.0085924985 0.009036407 0.009094132 0.008672788 0.0101540005 0.009094166
-0.0077622174 0.0014274511 0.008791214 0.0076924954 0.007914001 0.008542588 0.008786793 0.009366791
0.010182194 0.0070660072 0.007876235 0.009676991 0.0066151493 0.00631614 0.006362693 0.0074146553
0.0066728354 0.0067624664 0.008038165 0.009023885 0.0087452615 0.009919766 0.008093792 0.010258341
0.009594233 0.007269797 0.010190812 0.011369763 0.0060884445 0.007354413 0.0071629095 0.007771178
0.0056292396 0.006931445 0.009528724 0.009027489 0.009017558 0.009643256 0.010441781 0.010510327
0.009701317 0.008060561 0.008758395 0.011101021 0.0061921882 0.007926342 0.0075824237 0.007573923
0.006043783 0.0059498297 -0.0074133896 0.00017682789 -0.0004412283 -6.980072e-05 0.0013423306 0.00042765302
-0.000121387915 -0.000611355 0.00020984854 -0.0005590919 -0.0009005755 0.00026096302 0.0006238427 -0.0007430434
-0.00050670875 0.0002782911 2.1310514e-06 -0.00045995304 0.00036035667 0.00011887537 0.00025490476 -0.00016652023
0.000777632 -2.6189224e-05 -0.00011751525 -0.00016188352 0.0005622707 -0.00058015686 0.0005123755 -0.00052842434
0.00018733442 0.0011029029 -0.00090037915 0.00013210464 -0.0009688571 0.00081801275 0.00072570046 -3.922011e-05
-0.00055575435 0.0003542329 0.00024597757 -0.00061397546 -0.00071617524 -0.00013988528 -0.0003579019 0.0006796473
-0.0012133616 -0.0002576341 0.00097281014 -0.00013499761 0.00041199807 -0.00059212075 0.010798658 0.010861042
0.010599746 0.01134032 0.011173966 0.010315881 0.010535916 0.008681432 0.011175025 0.011283127
0.009532433 0.0088955145 0.009380272 0.009776176 0.0090251155 0.009445274 0.010956383 0.011433374
0.012266457 0.010653801 0.011282637 0.01172585 0.011360348 0.010546266 0.010497076 0.012720668
0.008100892 0.009874408 0.009677422 0.009376161 0.009965986 0.009360178 0.010752423 0.01137913
0.0099785235 0.011349372 0.011725742 0.012035547 0.010728296 0.0102943415 0.011874817 0.012337482
0.0075483667 0.008107711 0.00939462 0.009469036 0.009583264 0.009256373 -0.0073306803 0.0013401273
0.011268645 0.010094857 0.010739042 0.011272244 0.010822764 0.010914805 0.013239211 0.010416921
0.010933146 0.010737 0.009163131 0.008884569 0.008531235 0.008581397 0.009456967 0.010511229
0.011255809 0.011115413 0.011997696 0.011135147 0.012320168 0.011049544 0.011983608 0.010458327
0.010901734 0.0118636675 0.007904115 0.00976936 0.01039456 0.010069131 0.009543384 0.008962554
0.01139314 0.011595055 0.012513618 0.011775207 0.012086432 0.012195543 0.013904735 0.011067991
0.011235114 0.012355103 0.009183657 0.00864392 0.009843779 0.009951724 0.009401195 0.009922171
-0.0070639458 0.0016006839 0.0006251559 -0.0007284751 -0.00019207325 -0.00063091214 0.00056529796 8.192698e-05

shared_fc1.bias f4 [256]
00000000: 0ce3 2f3c e9f4 193c 824e 4fb6 07a8 363c
00000010: f240 3b3c df31 83b8 ce48 05b8 96cf 293c
00000020: 96c4 393c ba50 0db8 c3b5 343c 13c6 ccb8
00000030: 322a 10b7 fb6d 13b8 5dea 373c 7e82 363c
00000040: fa7c 1fb8 a12d aa38 dd52 353c 594e e7b8
00000050: 1ee9 363c 677e 3a3c c5ca 3b3c 78c0 08b8
00000060: 2746 2e3c 6aeb 383c 6f1f 8ab8 5420 3a3c
00000070: 17a8 0fb9 8489 343c 2206 223c 9d44 3b3c
00000080: b4a2 2a3c d9d8 3a3a 4058 f437 5ba0 383c
00000090: dd5d 343c 9f9d 3a3c 1ffc 393c d73c 3c3c
000000a0: 32c5 323c 1af2 363c 2185 353c acae aeb8
000000b0: 9756 3a3c fb21 393c bdb0 3a3c 477a 3b3c
000000c0: 2081 3a3c 85c9 19b8 ed10 373c 204e 3b3c
000000d0: 54ca 393c 22db 273c 0ee1 3a3c fc88 393c
000000e0: 69c8 293c 1161 363c 900f 343c 8dc9 a8b7
000000f0: 4e66 3bb8 8de7 143c 8661 393c 145e 393c
00000100: 1e72 203c 0000 0000 7d6f 383c cc6f 3b3c
00000110: f607 63b8 7b6e 3c3c 83f3 c5b8 3e50 a635
00000120: ec47 373c 0000 0000 3ca6 373c 90bd 323c
00000130: 742c b9b7 0000 0000 1542 253c b242 3c3c
00000140: 0bf7 a8b8 98b4 a7b8 2075 3c3c 353f 01b7
00000150: f319 383c 9b48 363c 83d5 353c f42f 90b8
00000160: 5c54 383c 9468 283c 0937 beb8 667f 313c
00000170: 8453 243c 1192 3a3c 92f5 30b8 0d61 323c
00000180: 2d6a f437 6ee3 373c 0000 0000 9b62 3b3c
00000190: 78de 313c 9e22 3b3c 3f07 1eb9 3c8d f8b8
000001a0: 49c7 5fb9 b104 343c dccc 05b9 3541 3b3c
000001b0: 7956 363c 667e 2c3c 04b6 373c 69f2 373c
000001c0: d143 bb3b f3c0 243c c6ec 333c 65d5 373c
000001d0: 5db4 233c 3ef7 3a3c 082e 373c 0000 0000
000001e0: 2d3d 343c 63e9 9b38 a7b1 3d3c d525 3b3c
000001f0: 8f72 10b8 305e 3a3c 3596 393c 0000 0000
00000200: 4bc6 303c 0000 0000 4761 35b7 b9f4 373c
00000210: 4d2c f9b7 6d3b 393c 5a56 b6b5 c3f6 393c
00000220: fba7 2e3c e3eb 0638 53ac 2f3c 6c9a 393c
00000230: f6fc 8bb8 b71b 383c 3377 3c3c 598d 393c
00000240: 0154 303c 3131 373c 1a0b 383c 0000 0000
00000250: 0aa6 05b9 6310 beb4 d381 303c cf12 2b3c
00000260: 0e53 0ab7 646c 1137 e9af d2b7 61a3 fcb8
00000270: 05b1 3a3c 371f 2c3c bd72 3c3c 98e9 95b6
00000280: 0d76 383c 0000 0000 2a13 353c bf69 0436
00000290: 9e74 f5b7 fc65 363c a41f aab7 b518 d2b8
000002a0: a984 023c 0000 0000 0000 0000 c96e 383c
000002b0: d52c 313c 82cc 313c 991c 9f3b 5392 333c
000002c0: e998 373c f34b 07ba c4db 3b3c 108e 313c
000002d0: cb51 393c 5004 0436 7c13 5db8 dcf9 383c
000002e0: f855 3a3c 1167 3a3c 1812 373c 5f7f 3a3c
000002f0: 137d 313c e23c 0db8 b6cb 1e3c df72 383c
00000300: acf4 383c b4af 2e3c 9751 373c 0000 0000
00000310: 3f61 2138 a47f 22b8 8e71 dbb8 a503 3a3c
00000320: bdff 313c f1f7 dd36 dccd 293c 5776 2c3c
00000330: bc42 9db6 e993 333c 15d3 8336 3fae 393c
00000340: ad5b 333c 4cad 393c 1920 86b8 505f 3b3c
00000350: 22e5 393c 6680 6734 a05a 3b3c 0085 393c
00000360: 5ae5 203c 2b02 3c3c 6206 6fb7 4d3a 8fb7
00000370: 2efd 363c b7ad 04b9 d9c1 373c 3491 223c
00000380: a5b3 353c 57f2 d3b8 441e 383c af91 363c
00000390: 09be 393c 6b02 ddb7 9cbb 623a 8e69 353c
000003a0: ec58 3b3c 0000 0000 45ab 383c 32c5 9ab8
000003b0: b2f6 333c c006 3a3c e4e2 323c 3fdc 383c
000003c0: 9c4d 373c 21ce 09b8 e6da 2c3c 6f1d 363c
000003d0: 68a0 7fb7 af9f 363c daf4 1c3c 2deb ed3b
000003e0: a1f0 393c 0000 0000 3b94 deb6 9284 19b5
000003f0: 0000 0000 fb98 2ab9 0000 0000 0000 0000
0.010735285 0.00939677 -3.0891101e-06 0.011148459 0.011429058 -6.255856e-05 -3.1777476e-05 0.010364434
0.011338374 -3.3692202e-05 0.0110296635 -9.764372e-05 -8.592893e-06 -3.514996e-05 0.01122531 0.01113951
-3.8024948e-05 8.114731e-05 0.011067119 -0.00011029532 0.011163978 0.011382676 0.011461918 -3.2604177e-05
0.010636843 0.011286596 -6.586208e-05 0.011360247 -0.00013700161 0.011019114 0.0098891575 0.011429933
0.010414768 0.000712765 2.9128161e-05 0.0112687005 0.011008707 0.011390119 0.011351614 0.011489115
0.010911273 0.01116612 0.011079104 -8.329502e-05 0.011373184 0.0112996055 0.011394677 0.011442727
0.011383325 -3.6665722e-05 0.011173469 0.011432201 0.011339743 0.010245116 0.011406196 0.0113241635
0.010362723 0.011131541 0.0109900385 -2.0121015e-05 -4.4679553e-05 0.009088409 0.011314755 0.011313934
0.009792833 0.0 0.01125705 0.011440229 -5.412843e-05 0.01150095 -9.4390496e-05 1.2391317e-06
0.011186581 0.0 0.011209067 0.010909453 -2.2074419e-05 0.0 0.010086556 0.011490511
-8.0568796e-05 -7.996819e-05 0.011502534 -7.703716e-06 0.0112366555 0.011125709 0.011098268 -6.875387e-05
0.011250582 0.01027884 -9.070157e-05 0.010833597 0.010029677 0.011387364 -4.2190375e-05 0.0108873965
2.9136509e-05 0.011223657 0.0 0.011437084 0.010856263 0.011421828 -0.00015070754 -0.000118518685
-0.00021341177 0.010987447 -0.00012760184 0.011429121 0.011129015 0.010528183 0.0112128295 0.011227229
0.0057148715 0.010055768 0.010981744 0.011220311 0.009991732 0.011411486 0.011180408 0.0
0.011000914 7.4344476e-05 0.011578 0.011422594 -3.4438966e-05 0.011374995 0.011327316 0.0
0.010789464 0.0 -1.081109e-05 0.01122778 -2.9703742e-05 0.011305672 -1.3585188e-06 0.0113503365
0.010660167 3.2167776e-05 0.010722238 0.011328321 -6.675154e-05 0.0112370765 0.011503029 0.011325204
0.010762216 0.011181162 0.011233116 0.0 -0.00012745723 -3.540218e-07 0.01077314 0.010441496
-8.244779e-06 8.66791e-06 -2.5115865e-05 -0.00012046728 0.011394744 0.010505489 0.011501965 -4.46774e-06
0.011258614 0.0 0.011051932 1.9731085e-06 -2.926058e-05 0.011132713 -2.0280313e-05 -0.000100181824
0.007966199 0.0 0.0 0.011256882 0.010813911 0.010851981 0.004855704 0.010960179
0.01120589 -0.00051611586 0.01146597 0.010837093 0.011311005 1.9672043e-06 -5.2708652e-05 0.01129004
0.011373036 0.011377112 0.0111737475 0.011382907 0.010833043 -3.367372e-05 0.009692123 0.011257856
0.011288803 0.010662008 0.011188886 0.0 3.847596e-05 -3.8742684e-05 -0.00010463885 0.011353408
0.010864195 6.6151774e-06 0.010364022 0.010526261 -4.6867335e-06 0.0109605575 3.9286774e-06 0.011333047
0.01094715 0.011332821 -6.3955966e-05 0.0114362985 0.011346133 2.1560263e-07 0.011435181 0.011323214
0.009820307 0.011475126 -1.4246996e-05 -1.7074077e-05 0.011168761 -0.00012653215 0.0112156505 0.009922314
0.011090194 -0.00010106403 0.011237685 0.011143132 0.011336812 -2.6346379e-05 0.0008649172 0.0110725295
0.011434775 0.0 0.011271303 -7.380023e-05 0.01098411 0.011354148 0.010918353 0.0112829795
0.011187937 -3.2855318e-05 0.010550236 0.011115416 -1.5236532e-05 0.01114647 0.009579862 0.007260701
0.011348874 0.0 -6.633372e-06 -5.7189857e-07 0.0 -0.00016269453 0.0 0.0

shared_fc2.weight f4 [256, 256]
00000000: 8f20 39ba 9784 6eba 3060 d0b8 8554 25ba
00000010: 9e0d 363a d7da 8cb9 7010 3b3a d47b d239
00000020: d922 9ab9 dcbf 54b8 ab85 5fba 0f9f 46ba
00000030: 74b1 fcb9 1e5d 2dba cdd0 3d37 cf20 513a
00000040: 17b1 4f3a 991d c0b9 e041 bd39 66ad 99b8
00000050: de7d 86b9 667e 82b6 7399 ce39 ab51 8e39
00000060: 8652 abb9 0004 ccb7 80ac 97b9 8ae3 54ba
00000070: 241b 4739 f6a5 8e38 3c7f 6eba 193f af38
00000080: d821 46ba bb36 a9ba 3b20 69ba 571c 4cba
00000090: c56a 413a 21fc 3aba 0fe9 e137 eb40 29ba
000000a0: d2f7 b639 02a8 9a3a c255 953a 159b 5cb7
000000b0: 8246 eab9 6de1 1bba c55b 17ba 1675 043a
000000c0: 94d4 8e39 40c4 8db9 74b5 93ba b50e 9839
000000d0: 8fca a1b8 5447 75ba 3d85 28ba 1979 2aba
000000e0: 7718 023a d9e5 d739 ef9b 4c3a 19cc 21b9
000000f0: 6df7 85b9 c787 b6b9 9d87 84b9 2b82 0139
00000100: 555c e5b8 7d24 8639 eae3 68b9 6f1d 8dba
00000110: 0afb 563a 47d1 3e39 d623 2d39 554a 85ba
00000120: d54c 3339 bdae 513a ebc4 4939 361c a43a
00000130: ca76 6fba 32d2 fd38 29c4 c4b6 4b51 a0b9
00000140: 0f8d d237 87f4 41b9 9312 10ba 9442 b0b8
00000150: a62d 25b9 db00 8d39 bcda ae39 5e71 a139
00000160: 2f1b 52ba b0dc 7039 aa2b da39 204c 603a
00000170: 85b5 d0ba 4f14 e039 7953 cfb9 0013 40b8
00000180: 8c07 573a 65df 50b9 0cfa 4d3a dddd 9c3a
00000190: d057 03ba c06a 833a 8a2c 3f3a 5087 0b38
000001a0: 2b31 2dba b035 15ba 800d e037 b246 8639
000001b0: eefa e738 a0ce d83a b92a 23ba 1dfb 9439
000001c0: 7834 93b8 21c8 5f3a 97fb 163a 1079 60ba
000001d0: f956 09ba 4f7f 2739 82c2 c4b9 702d 97ba
000001e0: 851b 41ba 005c 66b9 2b96 3aba a1bf b1b9
000001f0: fe73 32b9 2ec7 223a e914 aa39 25c6 2aba
00000200: 69c9 d339 d287 d639 23bb 8939 69f9 30b9
00000210: 5039 32ba fed4 58ba bb81 d4b9 a7eb 36ba
00000220: bd2d b039 0218 33ba afca dab9 93a7 7539
00000230: 33fc 863a 11a3 0f3a 2ef0 07ba bebe 2b3a
00000240: 7f59 013a 4a16 1f39 b804 b938 4c6f 68ba
00000250: 8993 013a ab67 2cba 0521 6e39 9ef3 ebb9
00000260: 8fc1 923a 8e9b 0e3a 0120 76b9 ecba d6b9
00000270: ae40 453a 20f9 d239 8746 ce39 0097 d939
00000280: ae25 97b9 b53b 7aba b0be c239 d7d8 ce39
00000290: 422f d839 17c7 9e38 eb0b 613a abda c538
000002a0: d840 c7ba d6c8 98ba b0a7 d738 4958 ea39
000002b0: db91 89b9 d324 c7ba eb7e d538 158a 213a
000002c0: fd1d e8b9 29e6 11b7 bbc8 05ba 5c86 9d38
000002d0: aaa2 b6b9 f005 6a39 ac1e efb9 4771 4835
000002e0: b344 64b8 fb06 1dba 910c 003a 925d b1b8
000002f0: a49e 40ba bb61 9dba 45e0 753a 58d3 e239
00000300: 5d6b f9b9 7da0 3a3a 98db 8639 01ed 0cb9
00000310: 453f a8b7 8ab5 cb3a 5387 82b9 1e18 7638
00000320: 9c14 b23a 815e b23a 8fb9 c73a f738 bcb9
00000330: e1a6 8cb5 195f d238 bd2b 1d3a e232 6c3a
00000340: 1cf4 ee39 1b40 bab9 57c1 6039 f0d1 99ba
00000350: 761e 0b3a e575 53ba 25cd 5fb9 3260 83b9
00000360: 4bac 97b9 8fbc 893a 5b5a eb39 f229 c8b9
00000370: b8c2 633a 2750 46ba 3920 f5b8 7b4d 8a39
00000380: 4778 273a 0260 5b38 35a1 5c3a 5793 33b9
00000390: 808d 03ba d00c 903a 7258 d23a 7e3c f439
000003a0: 09ec d339 50cf 9839 be82 e639 abe0 2839
000003b0: a450 3137 6bb4 1c3a 6ec5 e6b9 0018 7eba
000003c0: b9fa 35ba 37c5 3ab9 e998 d439 5c5e cdb9
000003d0: 7cef b1b9 8861 8cba c1aa 27b9 52b0 d839
000003e0: c7ef 8738 6103 8f38 c5db b43a 68b1 80b9
000003f0: 7d13 52ba 1780 f938 dc1e e3b9 3599 edb8
-0.00070620415 -0.0009098737 -9.936129e-05 -0.0006306845 0.0006944778 -0.0002686593 0.0007135933 0.0004014658
-0.00029399132 -5.072342e-05 -0.0008526693 -0.0007576802 -0.00048197398 -0.0006613302 1.1313893e-05 0.0007977606
0.0007922812 -0.00036643146 0.0003609797 -7.3279065e-05 -0.0002565225 -3.8890166e-06 0.0003940571 0.00027145198
-0.00032677146 -2.4320558e-05 -0.00028929487 -0.0008121064 0.0001898823 6.802e-05 -0.0009097939 8.356403e-05
-0.00075581437 -0.0012909988 -0.00088930473 -0.00077862054 0.00073782756 -0.0007132907 2.6930617e-05 -0.0006456512
0.00034898386 0.0011799338 0.0011393356 -1.314913e-05 -0.0004468449 -0.0005946372 -0.00057738676 0.00050528476
0.00027242734 -0.00027039833 -0.0011269287 0.00029002657 -7.714808e-05 -0.0009356637 -0.00064285455 -0.00065030303
0.0004962752 0.00041179245 0.00078052183 -0.00015430189 -0.00025552083 -0.00034814907 -0.00025278042 0.0001235089
-0.00010936769 0.00025585658 -0.00022210149 -0.0010766218 0.000820086 0.00018197774 0.00016511916 -0.0010169247
0.00017099392 0.00079987553 0.00019242211 0.0012520615 -0.00091348274 0.00012103132 -5.8640912e-06 -0.00030578146
2.5099636e-05 -0.00018497008 -0.0005495932 -8.404735e-05 -0.00015752632 0.00026894253 0.00033350836 0.00030792778
-0.0008014915 0.00022970396 0.00041612732 0.00085562654 -0.0015923238 0.0004273974 -0.0003954431 -4.5794062e-05
0.00082027237 -0.00019919647 0.0007857389 0.0011967976 -0.00050103385 0.0010026321 0.00072927086 3.3266202e-05
-0.0006606753 -0.0005691899 2.6709167e-05 0.00025611144 0.00011061678 0.0016541071 -0.0006224323 0.00028415854
-7.019279e-05 0.00085365964 0.00057595357 -0.00085629616 -0.0005239095 0.00015973787 -0.00037528953 -0.0011533927
-0.00073664665 -0.00021968782 -0.00071177137 -0.00033902845 -0.00017018613 0.00062094897 0.00032440506 -0.0006514511
0.00040395118 0.00040918455 0.00026270104 -0.0001687758 -0.00067987014 -0.00082714844 -0.00040532448 -0.0006977864
0.00033603414 -0.00068318855 -0.0004173121 0.00023427447 0.001029855 0.0005479316 -0.0005185631 0.0006551555
0.00049342954 0.00015171725 8.822366e-05 -0.0008866682 0.0004942944 -0.0006576727 0.0002270975 -0.00045004202
0.0011196601 0.00054400496 -0.0002347231 -0.00040956528 0.00075245916 0.00040239934 0.0003934393 0.0004150197
-0.00028829038 -0.000954564 0.00037144637 0.0003945294 0.0004123394 7.5711105e-05 0.0008584845 9.434422e-05
-0.001520182 -0.0011656533 0.00010283233 0.00044697736 -0.00026239347 -0.001519347 0.00010180272 0.00061622384
-0.0004427283 -8.696262e-06 -0.00051034585 7.51137e-05 -0.0003483494 0.00022318191 -0.00045608485 7.4670646e-07
-5.4423417e-05 -0.0005990115 0.0004884685 -8.4574465e-05 -0.0007347858 -0.0012007275 0.0009379427 0.00043263542
-0.00047572973 0.00071192515 0.00025722082 -0.00013439731 -2.0056623e-05 0.0015541774 -0.00024896357 5.867343e-05
0.0013586464 0.0013608487 0.0015237796 -0.00035900596 -1.0479381e-06 0.00010031294 0.0005995592 0.00090102677
0.00045576773 -0.00035524447 0.0002143433 -0.001173554 0.0005306968 -0.0008066579 -0.0002134336 -0.00025057938
-0.00028929333 0.0010508465 0.00044890013 -0.00038178224 0.0008688378 -0.0007565044 -0.00011688512 0.0002637914
0.0006388467 5.2303083e-05 0.00084163557 -0.00017125659 -0.00050183386 0.0010990147 0.0016048087 0.00046584377
0.00040420916 0.0002914616 0.0004396643 0.00016105424 1.0568798e-05 0.0005977812 -0.00044016115 -0.00096929073
-0.00069419626 -0.0001781181 0.00040549718 -0.0003917095 -0.000339385 -0.0010710219 -0.00015989972 0.000413301
6.481964e-05 6.819401e-05 0.0013798407 -0.0002454624 -0.0008013768 0.00011897104 -0.00043319806 -0.00011329578

shared_fc2.bias f4 [256]
00000000: 0000 0000 3f9a 86b9 0000 0000 deca f8b9
00000010: 4933 213c 647a 1e3c 0689 12ba 7916 dcb9
00000020: 4e76 183c 4226 1f3c 4cbb 8cb9 2254 1c3c
00000030: 0000 0000 68c6 1e3c 0000 0000 9255 1e3c
00000040: 5b0b 07ba 6100 18ba 2ee0 14ba e351 1e3c
00000050: df5d 163c 0000 0000 bf9c 1c3c e596 1e3c
00000060: 0000 0000 0000 0000 3e51 223c 6d73 ddb9
00000070: 8f13 223c 0000 0000 c9c7 1c3c 13dd 04ba
00000080: 46db 153c 3ee4 1e3c ccc9 a9b7 0000 0000
00000090: 0000 0000 400d 12b8 8737 1a3c 73e7 93ba
000000a0: 95b3 193c 3217 1a3c c5eb 11ba 0000 0000
000000b0: b393 1f3c 9839 213c 57bc 1b3c 0efa 08ba
000000c0: 8104 1e3c 9a29 1e3c 997e 1f3c 9638 213c
000000d0: 0000 0000 e06e 7bb9 7875 48b9 be55 213c
000000e0: 55d8 213c 9fe6 06ba 0649 193c 3034 213c
000000f0: 2bfb 11ba 9e30 213c 499d 10ba 342b 1e3c
00000100: 4b56 03ba 0000 0000 c775 bfb9 b2fb 203c
00000110: 7d67 f9b9 4209 183c 85b5 1e3c 0000 0000
00000120: 80d1 1fb9 d923 dbb9 e446 0fba f9f7 03ba
00000130: eb65 133c eb3a 213c 19ad 213c 1738 213c
00000140: b93e 5cb9 57e6 1c3c c053 52ba 604f 26ba
00000150: e3d5 193c f95b 1d3c 2784 1b3c db54 15ba
00000160: 706d 1f3c 8fef 1e3c 531b 1d3c fcda 203c
00000170: 21dc 183c 18ae 14ba 183f 213c 0000 0000
00000180: b431 1b3c d734 deb9 9110 30b9 0000 0000
00000190: 3d72 1d3c 69a9 14ba b1da 1b3c c39c 1fba
000001a0: 0e2c 193c c82b cfb9 e25a 11ba 8d71 56b9
000001b0: d4fd ceb8 823b a0b8 e178 c5b9 0813 acb9
000001c0: 8fb3 04ba a5a7 8bb9 0000 0000 63ce 1a3c
000001d0: 0000 0000 c9e1 2cba 94fd adb9 0000 0000
000001e0: c02e 14ba 4903 1e3c 65da c6b9 0000 0000
000001f0: 4f61 0a3c 3935 213c 8d89 203c f48e c437
00000200: 8ab2 82b9 98e5 1f3c 0000 0000 5b07 15ba
00000210: 3fbd 213c b3e1 1e3c 9a4b 1d3c 8d2f 15ba
00000220: f88a 0dba 05e9 40ba 0000 0000 64fb 1e3c
00000230: 0000 0000 dd6f 1c3c 27e6 afba 0c5c 1f3c
00000240: 42eb 203c 8104 0d3c d7d2 1d3c c3da 1c3c
00000250: 79fd 203c 75ec 1c3c e812 203c 8bdf 1aba
00000260: f75b d3b9 f146 1e3c 0000 0000 6ec1 e63b
00000270: 0000 0000 12e8 dab9 ca77 1d3c 1ca7 1e3c
00000280: b003 02b8 0e99 1e3c cdc2 0dba 9af1 07ba
00000290: 6637 1e3c 0dd0 1e3c a4e4 1c3c 0000 0000
000002a0: 6f4b 14ba db53 42b9 4982 213c f2f3 72b8
000002b0: 8bc4 213c c625 feb8 124f 10ba 9fc3 1e3c
000002c0: 4b53 1c3c 0000 0000 cff9 a4b9 dcd0 0eba
000002d0: 9208 113c 3544 82b9 0000 0000 0148 093c
000002e0: 0000 0000 c7b2 10ba 7df9 0f3c d855 213c
000002f0: 4c21 8fb9 4c04 00ba e6a5 15ba 3462 203c
00000300: 0000 0000 eb2b 16ba 2c56 3db9 0000 0000
00000310: 0000 0000 0000 0000 1485 203c 0000 0000
00000320: 0705 13ba 839d eab9 8134 1e3c 5729 203c
00000330: 7139 203c 4807 1e3c 61a2 103c 0000 0000
00000340: da54 d038 0ca1 0b3c 13df 0eba 68d2 29ba
00000350: d868 0fba 4382 0dba 0000 0000 2d4a 1c3c
00000360: 6c95 1f3c 6a64 13ba ff16 233c 2a63 1c3c
00000370: f701 183c 0000 0000 78db 9d36 60d8 b8b8
00000380: 40dc 0dba 90f5 153c 744b 10ba aad1 e4b9
00000390: 4965 9bb9 4bbc 0bba a84e 193c dcac 203c
000003a0: 5d03 213c 48b6 203c f951 1d3c 6cab 1d3c
000003b0: f0e4 193c 5c8e 16ba 0cb0 fab9 0000 0000
000003c0: 0000 0000 b936 163c ecf7 203c 8096 1c3c
000003d0: 0dba 29ba 0000 0000 0000 0000 d31c 13ba
000003e0: 0768 05b9 856f 1e3c 09d5 1e3c c0d8 c8b9
000003f0: 0000 0000 0000 0000 9063 28ba 36a2 203c
0.0 -0.00025673394 0.0 -0.00047453394 0.0098388875 0.009672735 -0.0005589876 -0.00041978413
0.00930555 0.009713711 -0.00026842428 0.009541543 0.0 0.009690858 0.0 0.009663956
-0.00051515334 -0.00057983963 -0.00056791573 0.009663078 0.009177654 0.0 0.009558856 0.009679531
0.0 0.0 0.009907065 -0.00042238404 0.009892358 0.0 0.009569117 -0.0005068343
0.009146517 0.009697972 -2.0240339e-05 0.0 0.0 -3.4821453e-05 0.009412653 -0.0011284187
0.009381195 0.009404944 -0.00055664434 0.0 0.009739804 0.009840392 0.009505353 -0.00052252493
0.0096446285 0.009653473 0.009734773 0.009840151 0.0 -0.0002397853 -0.00019117247 0.009847103
0.009878238 -0.00051460596 0.009355789 0.009839103 -0.0005568738 0.009838251 -0.00055166014 0.009653855
-0.0005010112 0.0 -0.0003651811 0.009825634 -0.00047570086 0.009279551 0.009686832 0.0
-0.00015241466 -0.00041797644 -0.00054655806 -0.0005034204 0.008996467 0.009840707 0.00986793 0.009840033
-0.00021004201 0.009576402 -0.0008023344 -0.0006344225 0.0093893735 0.0096044475 0.009491957 -0.00056965434
0.009730682 0.00970067 0.009589034 0.009817835 0.009329827 -0.0005671694 0.009841703 0.0
0.009472299 -0.00042382508 -0.0001679084 0.0 0.009609756 -0.0005670996 0.009512589 -0.0006088728
0.009348882 -0.00039514736 -0.00055448536 -0.00020450931 -9.8701246e-05 -7.640479e-05 -0.0003766483 -0.00032820576
-0.00050621567 -0.0002663705 0.0 0.0094486205 0.0 -0.0006594924 -0.00033186062 0.0
-0.0005652718 0.009644338 -0.0003792822 0.0 0.008446052 0.009839349 0.00979842 2.3431588e-05
-0.00024928554 0.009759329 0.0 -0.0005684995 0.00987178 0.009697366 0.009600544 -0.00056909845
-0.0005399431 -0.00073589414 0.0 0.009703491 0.0 0.009548155 -0.0013420031 0.0097265355
0.009821715 0.008607031 0.009632788 0.009573641 0.009826058 0.00957786 0.009770133 -0.0005907944
-0.00040313575 0.009660468 0.0 0.0070421016 0.0 -0.00041753106 0.0096110795 0.009683397
-3.099785e-05 0.009680046 -0.0005407751 -0.0005185843 0.009656763 0.009693158 0.009575997 0.0
-0.00056569924 -0.0001853252 0.009857723 -5.7924488e-05 0.00987352 -0.000121187 -0.00055049465 0.009690194
0.009541343 0.0 -0.0003146664 -0.00054479926 0.008852141 -0.0002484635 0.0 0.0083789835
0.0 -0.0005519804 0.00878751 0.009847127 -0.00027299894 -0.0004883453 -0.000570862 0.009789038
0.0 -0.000572859 -0.00018056546 0.0 0.0 0.0 0.009797353 0.0
-0.0005608354 -0.00044749313 0.009656073 0.009775481 0.00977932 0.009645291 0.008827777 0.0
9.934018e-05 0.008522283 -0.0005450111 -0.00064781914 -0.000547064 -0.00053981337 0.0 0.009539169
0.009740215 -0.0005622568 0.009954213 0.009545127 0.009277812 0.0 4.704514e-06 -8.814107e-05
-0.0005411543 0.009152785 -0.00055044075 -0.0004364376 -0.00029639367 -0.0005330487 0.009357132 0.009806838
0.009827462 0.009809084 0.009602063 0.00962339 0.009392962 -0.0005743259 -0.0004781488 0.0
0.0 0.00916832 0.009824734 0.009557366 -0.0006474562 0.0 0.0 -0.00056119
-0.00012722622 0.009670143 0.009694346 -0.00038308464 0.0 0.0 -0.00064235274 0.009804299

actor_mean.weight f4 [2, 256]
00000000: 8f46 c239 dd3c 9dba 1eb1 5a39 2980 c639
00000010: 42fb 3d3a 6c5d 3f3a 085f f4b9 7d75 9c39
00000020: d3c2 7f3a 7d2c a03a ea75 a6b9 b4db c53a
00000030: 66ef e339 ecc5 d33a ffc2 1239 e4d7 3f3a
00000040: 1724 d637 27ff 483a dbba bd38 f384 223a
00000050: 12eb 223b 4f37 57ba 7144 873a 5333 e239
00000060: 700a 17b9 b0cb 853a e28f 4a39 d39c 9439
00000070: 76cd a039 22a5 0dba 26c3 8539 32f4 1d3a
00000080: 6de1 56b9 c377 8f3a f710 50b9 6d3b b7b9
00000090: 2065 17b8 0587 f1b9 740a 7c39 b5bd 97b9
000000a0: 81ce 363a 3821 af3a 9471 51ba 7319 af39
000000b0: 92d0 513a 2669 dc39 4c6a fc39 64cb 4739
000000c0: d3a7 533a 0b10 703a bbd8 1a3a 833b 5a3a
000000d0: e424 acb9 762d cab8 b926 80b9 3dc5 3e39
000000e0: d6fd 393a 748e cdb9 40db 68ba d1a7 803a
000000f0: 8d34 19ba bfe5 803a 6083 5339 17bc 063b
00000100: 51a0 433a 90f3 1b39 86d5 b3ba e468 623a
00000110: d7fd ffb8 ad24 d539 7205 b23a 754e 8e3a
00000120: e954 cfb9 a5b2 1939 954d b839 cbbf 8e38
00000130: e349 34bb b72a 7d3a 3733 413a cb39 e839
00000140: 12fd b5b8 3998 ef3a e33f 2fb6 10a9 3d3a
00000150: 2516 ba3a 7ce1 a43a 9e80 813a 4c67 94ba
00000160: 2dfa 023b d3be b7b9 e7c5 db39 d9c2 7439
00000170: 2928 bd3a 6190 b2b8 6e71 9f3a 0bf5 6939
00000180: 606e 8339 986b c03a e009 9539 3b23 b239
00000190: 4a3b c239 b7a9 81b8 4ad8 8a39 9a3b 6b3a
000001a0: 75ee 9e3a fdb2 31b9 1642 9eba 3e41 9ab9
000001b0: 5dd1 e9b9 7c24 3837 d616 853a 844d 623a
000001c0: d047 7cb8 9cb3 de3a 893d 5c39 7fb3 993a
000001d0: 0dd0 29ba ee1e a8b9 0085 c5b9 05b2 40b9
000001e0: 4344 9c3a e2fd bab7 e39c 2a3a 2e96 55b9
000001f0: efca 1dbb b151 74ba 70cf 603a 2e63 603a
00000200: c688 acba 8d6a ed3a 79f5 2b3a 1a58 583a
00000210: 7af6 1e39 6702 8e3a 6b13 163b e5a7 cb39
00000220: 188f d4ba 07e6 9d3a 80a4 6937 2c8f 15ba
00000230: b818 9cb9 ae6f 133b 2698 44ba 9c61 6539
00000240: 95e7 f138 2e35 5dbb 6301 953a c57a ba3a
00000250: b148 113a b689 543a 5fbf ce39 dd98 04ba
00000260: a7e7 d438 3858 e839 3438 dd3a 6c7a 68bb
00000270: d0aa 0c3a 3c00 97ba 45f8 5b3a 9b23 c23a
00000280: 7871 2339 7600 9a39 c511 01ba bc79 7cba
00000290: 4900 b53a 5867 373a 4aa2 ad3a 0780 7fba
000002a0: 7683 723a 2124 b3b9 6c2e 5a3a d5b0 c337
000002b0: 8114 9139 2667 e8b9 c896 92ba 18b5 f93a
000002c0: 09e9 fc3a a69f 0139 7c7f 01ba 223d df36
000002d0: ee51 bcba cb78 7f39 c9c8 0fb8 07a3 1bbb
000002e0: 047e 2f3a a042 feb9 3b13 58bb 0f92 6b3a
000002f0: 6d1d 2f39 ae25 b2ba 095c 343a 1c5e 283a
00000300: 6d0c 41ba be96 293a 5f0e 7d3a c1c2 f7b8
00000310: e582 4939 92c7 a83a c2bf 383a f963 233a
00000320: 190d d3b7 1807 c2b9 8e5a 6f3a 7880 9e3a
00000330: 3638 5c3a 56fe e63a 23fa edba 76f8 0cba
00000340: 1c79 963a 609b 10bb 9f04 74b8 c1f3 ff38
00000350: 1bd2 b439 365c 813a e9d8 f0b9 78fe 293a
00000360: 32c2 853a 527f bdb7 6a4d ecb8 50d9 c23a
00000370: 1756 b53a 0242 8cb9 f92e 5139 6984 8039
00000380: dc57 c039 90da 19b9 61ca b43a f167 60b8
00000390: aa50 74ba 94c9 b3b9 74dd a1ba c35a d53a
000003a0: a29f 963a 6b4e 093a aef9 893a ec2b f63a
000003b0: b04c c837 b5e9 a138 5a09 a038 d79a 1d3a
000003c0: d7ee e739 9add b2ba 289e 743a f50e 2a3a
000003d0: 9113 fd37 1f8a 0a3a 2ee3 1639 e557 c339
000003e0: 53d7 2f39 dcb6 32ba 7c58 54b9 5061 d039
000003f0: c6dc 9f39 5063 d639 cdf0 81ba fcac 0537
0.00037055134 -0.0011996288 0.00020856081 0.0003786099 0.0007247218 0.0007299993 -0.0004661011 0.00029842174
0.0009756509 0.001222029 -0.0003174984 0.0015095384 0.0004347518 0.0016157008 0.00013996287 0.0007318242
2.5527594e-05 0.0007667415 9.047027e-05 0.00061996205 0.002485935 -0.0008209841 0.001032008 0.0004314432
-0.0001440437 0.0010207798 0.00019317822 0.00028345603 0.00030670658 -0.000540333 0.00025513134 0.00060254626
-0.00020492608 0.0010945726 -0.00019842746 -0.00034948756 -3.6095385e-05 -0.000460677 0.00024036487 -0.00028942307
0.00069735205 0.001336134 -0.0007989642 0.00033397562 0.00080037967 0.00042040012 0.00048144383 0.00019053888
0.0008074019 0.0009157664 0.0005906929 0.0008324908 -0.00032833882 -9.640578e-05 -0.00024442913 0.00018193289
0.00070950144 -0.00039206783 -0.00088827685 0.0009815638 -0.00058443175 0.0009834095 0.00020171469 0.0020558888
0.00074625487 0.00014872686 -0.0013720251 0.0008636846 -0.00012206629 0.00040653851 0.0013581945 0.0010857122
-0.0003954538 0.00014657767 0.00035153018 6.806812e-05 -0.002750986 0.0009657549 0.00073699973 0.00044293547
-8.6778906e-05 0.0018279619 -2.611422e-06 0.000723497 0.0014197273 0.0012579407 0.000988025 -0.0011322289
0.0019985542 -0.00035046655 0.00041918384 0.0002334224 0.0014431524 -8.514594e-05 0.0012164542 0.00022311897
0.00025068503 0.0014680503 0.00028426852 0.00033977054 0.00037046737 -6.182811e-05 0.0002648256 0.000897342
0.0012125509 -0.00016946714 -0.0012074139 -0.00029421778 -0.0004459721 1.0975749e-05 0.00101539 0.00086327665
-6.0148363e-05 0.0016990784 0.00021003759 0.0011726468 -0.00064778404 -0.000320665 -0.0003767386 -0.00018376864
0.0011922199 -2.2291151e-05 0.00065083633 -0.00020369209 -0.0024077257 -0.00093200343 0.00085758325 0.0008559701
-0.001316332 0.001811342 0.00065597106 0.0008252874 0.00015159874 0.0010834456 0.0022899758 0.00038844268
-0.0016216962 0.0012046703 1.3926183e-05 -0.0005705233 -0.00029773056 0.0022496986 -0.00074994785 0.00021875504
0.00011534911 -0.0033753621 0.0011368211 0.0014227262 0.0005542143 0.0008107679 0.00039433964 -0.0005058179
0.000101520964 0.00044316216 0.0016877712 -0.003547336 0.0005366029 -0.0011520456 0.0008391182 0.0014811637
0.00015587162 0.00029373512 -0.00049236073 -0.0009631177 0.0013809289 0.00069962954 0.0013247218 -0.00097465556
0.00092511566 -0.0003416846 0.00083229574 2.3328155e-05 0.00027671832 -0.0004432734 -0.0011183852 0.0019051163
0.0019295524 0.00012361872 -0.0004939956 6.6530347e-06 -0.0014367679 0.00024363694 -3.4280853e-05 -0.0023748295
0.0006694498 -0.00048496295 -0.0032970447 0.0008986303 0.00016700262 -0.0013591552 0.00068801694 0.0006422715
-0.00073642173 0.0006469301 0.00096533255 -0.000118141535 0.00019217616 0.0012876859 0.0007047617 0.00062328536
-2.515926e-05 -0.0003700785 0.000913062 0.001209273 0.000840071 0.0017623405 -0.0018156212 -0.00053776
0.0011480185 -0.0022065267 -5.8178437e-05 0.0001220475 0.00034488816 0.00098694 -0.00045937978 0.0006484757
0.001020497 -2.2589844e-05 -0.000112677764 0.001486579 0.0013834861 -0.0002675206 0.00019949292 0.00024512716
0.00036686554 -0.00014672638 0.0013793224 -5.3502565e-05 -0.0009319881 -0.00034291728 -0.0012349323 0.001627766
0.0011491666 0.00052378204 0.0010526681 0.00187814 2.3877568e-05 7.7206096e-05 7.6311364e-05 0.00060121476
0.00044237703 -0.0013646365 0.00093314284 0.0006487214 3.0169062e-05 0.0005284864 0.00014389746 0.00037258785
0.00016769515 -0.00068174093 -0.00020250859 0.00039745355 0.00030491332 0.00040891254 -0.0009913683 7.967694e-06

actor_mean.bias f4 [2]
00000000: c993 5c3b 89c0 5d3b
0.0033657423 0.0033836684

critic_value.weight f4 [1, 256]
00000000: 66d6 463a 6699 103a 7545 b8b9 59fb 7239
00000010: 9363 583c 01ba 583c 8577 0aba 4dda eeb8
00000020: 3ec4 633c 612f 513c 3f86 e8b9 f921 5d3c
00000030: 83bd 9fba 0f9a 5a3c e265 343a 75a1 5c3c
00000040: e995 2fba b215 a5ba 750c 64ba e68e 523c
00000050: 36c2 623c ea2f 763a 71f9 5c3c b17d 5b3c
00000060: 67ce 363a b279 75b9 c702 563c d100 ebb8
00000070: 635c 533c a248 8339 f45b 5d3c 64f7 efb9
00000080: 78e3 3f3c 7f50 523c 9af7 fd39 31d2 833a
00000090: c247 9739 6752 50ba 4fae 633c 7275 0839
000000a0: 85d4 623c 4e10 5d3c fbeb 0eba ab11 193a
000000b0: cca7 523c 9d8c 533c 0257 623c 2e7b 45b9
000000c0: e2e7 5b3c caaa 513c 65af 593c ed87 553c
000000d0: 906e 9039 e3b0 0eba 53f6 85ba 1e87 593c
000000e0: 743b 563c 79df 3a39 5c46 393c 779d 553c
000000f0: c9ba afb9 12d0 543c 0341 30ba 5b89 573c
00000100: e383 c038 9482 2ab8 8ae8 f5b9 838e 543c
00000110: bfe7 24ba de6d 683c 845b 573c e0b9 e939
00000120: 25d4 76b8 4d94 cc38 2004 1cb9 c032 a6b9
00000130: 94d1 2c3c 4626 563c 5b63 513c 471e 523c
00000140: 826d 29b9 751e 553c 9da9 60b9 0036 cbb9
00000150: eddb 5f3c 4753 503c cd4b 603c 7105 36ba
00000160: 8576 543c 9c6c 5d3c 8222 4d3c d339 573c
00000170: 69f8 633c ea7b 47ba 3572 533c 8d57 3c3a
00000180: 4bdd 653c f84e d2ba 072b 0bb9 5069 9039
00000190: 8d4b 5a3c 46a2 47ba 55fc 603c 8e93 19b9
000001a0: 20e6 623c f90e f9b8 c7c8 67b9 a18d 8dba
000001b0: 28ee a2ba cd6c 4eba 3943 35b8 7a9a 1eb8
000001c0: d0c8 7cb8 c94e f5b8 f792 9db9 85b3 5e3c
000001d0: 74fc 7139 57c7 a8b8 e029 5bb9 f698 90ba
000001e0: ce8b 5bb7 b537 5d3c 92ab 7bb9 db64 b8ba
000001f0: 9153 273c 46b9 523c 90f4 573c 024b 33ba
00000200: 34ef 4cb9 2b8b 523c 0730 29b9 be7d f3b8
00000210: 2085 583c 7d71 513c 377a 573c 633d 93ba
00000220: 9bb2 b7b7 80c5 85b9 f5b5 b2ba ba47 4f3c
00000230: 6bcd 6fba a246 503c b7df 443a ec60 4e3c
00000240: 355e 503c a474 253c c16e 573c dc0a 5b3c
00000250: a056 563c 76cb 5e3c 19ed 4c3c ef81 7db9
00000260: 77ba 4eb6 59ae 4e3c 90c4 e539 48ea 083c
00000270: c701 3838 9efd 1dba 02af 593c ef20 533c
00000280: d2a9 a3b9 83ff 5d3c 4b1d 81ba 7c6d 3f38
00000290: 70d7 533c dd2a 5c3c 61a9 5a3c c0e2 40ba
000002a0: cb28 ccb9 8e6a 8fb9 9c14 523c 718e b1b9
000002b0: 72e5 553c 2781 67ba d6f1 0cba 6bdd 583c
000002c0: dda5 553c ee1f 73ba 68d3 5b39 7ebd 34ba
000002d0: 39a5 333c 5b45 e0b9 8040 4e3a e099 2d3c
000002e0: 3d23 9839 e8fd 38ba bc99 2d3c ede7 533c
000002f0: 2dfe 1139 17de 23b9 e833 8eb9 bde6 503c
00000300: c07a 553a aeeb d9b9 50f3 02b9 822b 31ba
00000310: e4bc 363a d972 c1b9 2d26 533c b568 f0b8
00000320: da50 22ba b74a 0a39 bfe1 5a3c dbc6 533c
00000330: 088f 593c 9007 563c 2881 383c 520b ef39
00000340: 5879 5039 c452 303c 6306 27b9 dcdf bb38
00000350: 6a1b 88b9 13e2 beb9 6eb3 c939 7768 5f3c
00000360: 3b88 583c a380 0aba f8a2 563c fe35 5d3c
00000370: abd2 643c 3b5d 3737 6076 5738 a6ea 9fb7
00000380: 0558 05ba a8fa 3b3c 7dce d4b9 3eac a6b9
00000390: 37ce 66b9 15b5 58ba ee5c 363c dc49 543c
000003a0: 8742 503c ca33 573c 0f2e 5c3c 1185 503c
000003b0: 0a8f 663c d8bd 55ba 0fc8 eab9 56bc 9fb9
000003c0: fd9a ac3a 065a 3f3c 69ca 543c bf80 513c
000003d0: 9a6f 913a 2229 7d39 b9c2 dc38 594e 53ba
000003e0: 8d13 9cba 0253 523c e111 4e3c c3f8 24b9
000003f0: 9d51 a6b8 cb2b 5cba b4aa ac39 fb20 5c3c
0.00075850484 0.0005516022 -0.00035146964 0.00023172553 0.013207334 0.013227941 -0.0005282092 -0.00011389386
0.013901768 0.012767644 -0.0004435051 0.013496869 -0.0012187216 0.0133423945 0.0006881637 0.013466229
-0.00066980586 -0.0012594967 -0.0008699366 0.012851452 0.013840249 0.0009391295 0.013487206 0.013396666
0.00069735054 -0.00023410356 0.013062186 -0.00011205825 0.012900445 0.00025040383 0.013510693 -0.00045769953
0.011711948 0.012836575 0.00048440398 0.0010057149 0.00028854428 -0.0007946849 0.013896539 0.00013013722
0.013844614 0.013492657 -0.0005452034 0.00058391195 0.012857389 0.012911943 0.01381469 -0.00018833272
0.013421984 0.012797067 0.013286446 0.0130328955 0.00027548196 -0.00054432283 -0.0010220505 0.013276843
0.013075698 0.00017821592 0.011308279 0.013038031 -0.00033517767 0.012989061 -0.00067235547 0.013155307
9.179839e-05 -4.065277e-05 -0.00046903297 0.012973431 -0.00062906364 0.014186351 0.013144378 0.0004457971
-5.8848545e-05 9.755101e-05 -0.00014878856 -0.000316998 0.010548014 0.013070649 0.012780036 0.0128246015
-0.00016157891 0.01300775 -0.0002142549 -0.0003875941 0.013663274 0.012715167 0.013689947 -0.000694356
0.01296771 0.013514664 0.012520434 0.013136345 0.013914206 -0.0007609712 0.012905647 0.0007184677
0.014029811 -0.0016045263 -0.00013272102 0.00027544284 0.013323677 -0.0007615428 0.013732036 -0.00014646185
0.013848811 -0.00011876034 -0.00022104672 -0.0010799655 -0.0012430595 -0.0007874489 -4.321637e-05 -3.7814003e-05
-6.0268503e-05 -0.00011697185 -0.0003005487 0.0135926055 0.00023077597 -8.047994e-05 -0.00020901067 -0.0011031914
-1.3085968e-05 0.013502051 -0.0002400114 -0.0014068143 0.010212795 0.012861555 0.013180867 -0.0006839485
-0.00019544066 0.012850563 -0.00016134988 -0.00011610564 0.013215333 0.012783405 0.013151697 -0.0011233505
-2.189847e-05 -0.00025514886 -0.001363455 0.012651378 -0.0009147736 0.012712153 0.0007510143 0.01259635
0.012717773 0.01009861 0.013148964 0.013369288 0.013082176 0.013598314 0.0125077 -0.00024176364
-3.080493e-06 0.01261481 0.00043824734 0.008356638 4.3870674e-05 -0.00060268666 0.013286354 0.01288627
-0.0003121631 0.013549688 -0.0009850649 4.5639914e-05 0.012929782 0.013437954 0.013346047 -0.0007358007
-0.00038940305 -0.00027354475 0.0128222965 -0.00033866198 0.013055192 -0.0008831196 -0.00053766125 0.013236384
0.013040033 -0.0009274472 0.00020964222 -0.00068946916 0.010964685 -0.00042776283 0.00078678876 0.010595769
0.00029017954 -0.0007056878 0.010595735 0.012933713 0.00013922965 -0.00015627626 -0.00027123024 0.012750325
0.00081435964 -0.0004156506 -0.00012488407 -0.00067584973 0.0006970896 -0.00036897397 0.01288752 -0.00011463595
-0.00061918574 0.00013188539 0.013359486 0.012925829 0.01327873 0.0130633265 0.011261262 0.00045594067
0.0001988163 0.01076192 -0.0001592874 8.958552e-05 -0.00025960366 -0.00036408062 0.00038471393 0.013635746
0.013216074 -0.00052834506 0.013100378 0.013501642 0.013966243 1.0929357e-05 5.137024e-05 -1.9063544e-05
-0.00050866633 0.011473335 -0.00040589637 -0.00031790318 -0.0002201133 -0.00082667294 0.011130555 0.012957063
0.012711174 0.013134906 0.013438716 0.012727038 0.014072189 -0.0008153594 -0.00044781013 -0.00030467164
0.0013168749 0.011679178 0.0129877115 0.012787043 0.0011095882 0.00024143283 0.000105266874 -0.0008060686
-0.0011907682 0.012837173 0.012577505 -0.0001573293 -7.9306985e-05 -0.00083988596 0.0003293358 0.0134355975

exp_avg f4 [1, 2]
00000000: 6ce8 183b 5ca7 4b3b
0.0023331894 0.0031075096

exp_avg_sq f4 [1, 2]
00000000: fb22 ff39 5149 063a
0.00048663453 0.00051226193

exp_avg f4 [256, 50]
00000000: b5df ffb7 66af 04b8 13c5 0eb8 c981 20b8
00000010: fb80 3fb8 6f43 74b8 4b69 bdb8 3368 ffb7
00000020: d3a4 a7b8 94f3 02b8 208a 9638 f64c 2a36
00000030: 24f5 bcb6 ee35 ddb6 cf26 dcb6 84cc d9b6
00000040: 8588 23b8 cff0 28b8 f841 35b8 905e 4bb8
00000050: a382 72b8 b8f7 9ab8 d1ea f1b8 6b2c b1b7
00000060: 47c7 c4b8 18e4 a3b8 a5ee 0438 ae76 04b7
00000070: db18 55b7 c23b 4db7 4308 40b7 f0d4 37b7
00000080: b990 27b8 b58c 2cb8 f485 38b8 a14d 4eb8
00000090: a6fb 74b8 17fc 9bb8 417e f4b8 9730 b437
000000a0: 24cd 70b8 4584 23b8 cdda 8e37 efd6 2fb7
000000b0: ecb3 79b7 cd8c 6ab7 f999 58b7 5283 4db7
000000c0: 342e 4e37 6888 25b8 4d3d d1b7 5c0b d9b7
000000d0: 1593 e9b7 4850 03b8 f2b1 1cb8 64e9 47b8
000000e0: 030b 9bb8 c46e c7b7 47a8 86b8 44a5 ccb7
000000f0: fc4d 7c38 42af 2536 a0fd 92b6 4743 afb6
00000100: fa46 afb6 10d4 adb6 7322 06b8 2095 0ab8
00000110: 6db2 14b8 ffd8 26b8 88f9 46b8 f054 7eb8
00000120: 1f8e c6b8 ccd7 87b7 f7d9 9eb8 22e8 84b8
00000130: b3cb e037 3182 cfb6 49e0 2bb7 db1c 26b7
00000140: aa9b 1bb7 650e 15b7 3976 09b8 d78e 0db8
00000150: ce62 17b8 3242 29b8 87ff 48b8 85fb 7fb8
00000160: d6a8 c8b8 6a5e a137 4e9b 3db8 77a2 01b8
00000170: aa4d 7537 aabf 0bb7 2237 4ab7 bd65 3eb7
00000180: d1f3 2fb7 e600 27b7 7176 2b37 95de 08b8
00000190: 5f9a a0b1 36c4 9cb1 826d 9eb1 85a0 a5b1
000001a0: 708b b1b1 cd59 bdb1 b3e6 eeb1 4aa8 40b2
000001b0: 0680 adb2 0ba3 c1b3 6ebb c1b3 9093 3cb2
000001c0: 1ede fab1 9b15 c1b1 b586 a1b1 324b 8fb1
000001d0: a35d a0b1 b600 9eb1 7a3d a1b1 d677 aab1
000001e0: 3aaf b9b1 1f7f cbb1 8092 02b2 a1ed 57b2
000001f0: fbbc d6b2 d4cf 2db3 0d1c 9eb2 1e86 26b2
00000200: 5a52 e7b1 f535 b6b1 1bca 9ab1 3bef 8ab1
00000210: f026 a1b1 db9e a0b1 9de0 a5b1 adb6 b1b1
00000220: 5bce c4b1 34ee dab1 5cf4 14b2 a5c9 81b2
00000230: d6cf 29b3 1cb1 2db3 7b85 73b2 85f5 0fb2
00000240: d277 d1b1 4a6e a9b1 5096 92b1 a777 85b1
00000250: 1c0f bfad b65f 1532 f41e 03b8 11fc 07b8
00000260: f74f 12b8 ce79 24b8 d935 44b8 063b 7ab8
00000270: fee2 c1b8 bf7e fab7 2bc0 a9b8 8eda 02b8
00000280: 2fad 9c38 8082 3a36 cf64 beb6 3438 e0b6
00000290: 556f dfb6 1c2c ddb6 f8e4 27b8 ca6e 2db8
000002a0: 010f 3ab8 7fba 50b8 89d9 78b8 e3fa 9eb8
000002b0: 240f f8b8 1715 aab7 4105 c8b8 b8d3 a7b8
000002c0: 9cc9 0938 22a0 06b7 effd 59b7 180c 52b7
000002d0: 8d85 44b7 d91b 3cb7 ae0e 2cb8 2c28 31b8
000002e0: 006d 3db8 0ec0 53b8 f663 7bb8 4205 a0b8
000002f0: 91b1 fab8 04a3 c637 6b9d 72b8 2463 26b8
00000300: d8db 9337 9397 33b7 dee4 7fb7 e162 70b7
00000310: 8ff0 5db7 7588 52b7 24c6 5a37 ff38 2cb8
00000320: a599 07b8 fb9f 0cb8 1f4d 17b8 c014 2ab8
00000330: 05e5 4ab8 8c5f 81b8 6b7f c8b8 6a95 03b8
00000340: 437e b0b8 9213 09b8 07de a038 b016 3836
00000350: 055f c7b6 19bb e9b6 c1a3 e8b6 7826 e6b6
00000360: 7d7a 2db8 0533 33b8 8c3e 40b8 23ab 57b8
00000370: 2990 80b8 8c44 a4b8 2928 00b9 5ee9 b3b7
00000380: 29a1 cfb8 64df adb8 1246 0d38 3f9b 0cb7
00000390: 7820 62b7 e3b6 59b7 eda5 4bb7 58e8 42b7
000003a0: 7dc5 31b8 730a 37b8 17b8 43b8 e4c9 5ab8
000003b0: 70e0 81b8 b358 a5b8 4285 01b9 4cb0 c737
000003c0: 9e76 7db8 e754 2db8 7322 9737 93e4 3ab7
000003d0: 3b94 84b7 c0f6 78b7 19d5 65b7 a302 5ab7
000003e0: 7c5a 6037 7b52 31b8 e1d8 4222 53ee 4122
000003f0: e271 4822 80b9 5722 6deb 7222 9aec 8e22
-3.050254e-05 -3.1634605e-05 -3.4038978e-05 -3.8267845e-05 -4.565807e-05 -5.8236936e-05 -9.0318346e-05 -3.044689e-05
-7.9938814e-05 -3.1221265e-05 7.178285e-05 2.5376771e-06 -5.6313747e-06 -6.5925915e-06 -6.561029e-06 -6.4909127e-06
-3.8989372e-05 -4.027859e-05 -4.32152e-05 -4.848704e-05 -5.781896e-05 -7.3894334e-05 -0.000115355135 -2.1120728e-05
-9.3831266e-05 -7.8149315e-05 3.1693507e-05 -7.895445e-06 -1.2701576e-05 -1.2232866e-05 -1.1446015e-05 -1.0957228e-05
-3.9950686e-05 -4.113904e-05 -4.3993772e-05 -4.9186525e-05 -5.84085e-05 -7.437931e-05 -0.00011658343 2.1480299e-05
-5.741151e-05 -3.8985414e-05 1.7029606e-05 -1.0480856e-05 -1.4883448e-05 -1.398027e-05 -1.2910453e-05 -1.2249528e-05
1.2289314e-05 -3.9466104e-05 -2.4943287e-05 -2.5873705e-05 -2.7844255e-05 -3.13076e-05 -3.7359023e-05 -4.766266e-05
-7.393027e-05 -2.3774228e-05 -6.420962e-05 -2.4395653e-05 6.015411e-05 2.468893e-06 -4.380665e-06 -5.2232385e-06
-5.223669e-06 -5.180489e-06 -3.1980173e-05 -3.3040647e-05 -3.545212e-05 -3.9779577e-05 -4.7439273e-05 -6.0637423e-05
-9.467848e-05 -1.6193742e-05 -7.574626e-05 -6.3374886e-05 2.6797736e-05 -6.184237e-06 -1.0244615e-05 -9.9010895e-06
-9.274963e-06 -8.884444e-06 -3.277345e-05 -3.375005e-05 -3.6093224e-05 -4.035439e-05 -4.7921694e-05 -6.1030983e-05
-9.568191e-05 1.923666e-05 -4.520575e-05 -3.0907304e-05 1.46212205e-05 -8.329671e-06 -1.2052975e-05 -1.134857e-05
-1.0487581e-05 -9.954185e-06 1.0219971e-05 -3.2632222e-05 -4.674163e-09 -4.562504e-09 -4.610855e-09 -4.820381e-09
-5.16723e-09 -5.510833e-09 -6.952939e-09 -1.1214135e-08 -2.0198069e-08 -9.01692e-08 -9.021356e-08 -1.0976592e-08
-7.3012094e-09 -5.6194955e-09 -4.701031e-09 -4.1703965e-09 -4.667258e-09 -4.598486e-09 -4.692706e-09 -4.961275e-09
-5.4041296e-09 -5.9225296e-09 -7.600306e-09 -1.2568678e-08 -2.4998817e-08 -4.046872e-08 -1.8406377e-08 -9.692966e-09
-6.732347e-09 -5.3030313e-09 -4.5049666e-09 -4.043526e-09 -4.6901434e-09 -4.6746726e-09 -4.8276676e-09 -5.172146e-09
-5.7278107e-09 -6.3717156e-09 -8.670295e-09 -1.5109274e-08 -3.9537404e-08 -4.044078e-08 -1.41748115e-08 -8.37952e-09
-6.0963226e-09 -4.9310858e-09 -4.266248e-09 -3.8844123e-09 -2.1720896e-11 8.694704e-09 -3.126166e-05 -3.2421263e-05
-3.4883586e-05 -3.9214086e-05 -4.678019e-05 -5.9659615e-05 -9.245238e-05 -2.9861343e-05 -8.094342e-05 -3.119796e-05
7.4709176e-05 2.779212e-06 -5.674177e-06 -6.682263e-06 -6.6588786e-06 -6.5914483e-06 -4.0029146e-05 -4.1349595e-05
-4.435983e-05 -4.9764752e-05 -5.9330403e-05 -7.5807584e-05 -0.00011828382 -2.02754e-05 -9.537722e-05 -8.002616e-05
3.285111e-05 -8.024306e-06 -1.2993331e-05 -1.2519791e-05 -1.1713605e-05 -1.1212157e-05 -4.1021667e-05 -4.22375e-05
-4.5162626e-05 -5.0485185e-05 -5.993616e-05 -7.630374e-05 -0.00011954003 2.367935e-05 -5.7843903e-05 -3.9669816e-05
1.7626138e-05 -1.07045225e-05 -1.5252472e-05 -1.4328137e-05 -1.3228636e-05 -1.2548747e-05 1.3039946e-05 -4.1061077e-05
-3.23296e-05 -3.3527594e-05 -3.607303e-05 -4.0550483e-05 -4.8373844e-05 -6.168996e-05 -9.5604766e-05 -3.1371987e-05
-8.415852e-05 -3.268157e-05 7.67075e-05 2.7431342e-06 -5.941724e-06 -6.965722e-06 -6.9332023e-06 -6.8590125e-06
-4.136049e-05 -4.272444e-05 -4.583462e-05 -5.1419378e-05 -6.1303675e-05 -7.832897e-05 -0.00012221992 -2.1447133e-05
-9.9005476e-05 -8.2908926e-05 3.3682278e-05 -8.380796e-06 -1.3478209e-05 -1.297679e-05 -1.21383755e-05 -1.1617398e-05
-4.2384014e-05 -4.364033e-05 -4.666307e-05 -5.2163276e-05 -6.193004e-05 -7.8843346e-05 -0.00012352041 2.3804743e-05
-6.043037e-05 -4.1325486e-05 1.8016644e-05 -1.1139683e-05 -1.5804651e-05 -1.4839403e-05 -1.3699079e-05 -1.29944265e-05
1.3372508e-05 -4.2276904e-05 2.6406717e-18 2.6282545e-18 2.7165343e-18 2.9236136e-18 3.292175e-18 3.873969e-18
