controllers/rl_control/checkpoint_episode_150.pth (torch, 966978 bytes, 24 tensors)

actor_log_std f4 [1, 2]
0	0x3be47a0a	0.006972556
1	0x3b9f787a	0.004866657

shared_fc1.weight f4 [256, 50]
0	0x3cbabc07	0.022794737
1	0x3c1f0924	0.009706769
2	0x3b9b287e	0.0047350517
3	0x3caad83e	0.020855065
4	0x3c8d7dfb	0.017271986
5	0x3c372930	0.011179253
6	0x3c85dea8	0.016341522
7	0x3c1775c3	0.009244385
8	0x3c310c5c	0.010806169
9	0x3c6f131f	0.014591961
10	0x3c6113cb	0.013737629
11	0x3c976f97	0.018485827
12	0x3cab0e93	0.020880973
13	0x3cc93fde	0.024566587
14	0x3cc2f222	0.023797099
15	0x3cd29ff9	0.025711047
16	0x3cab963d	0.020945663
17	0x3bd1d58a	0.0064036297
18	0x3b5dd8aa	0.0033851066
19	0x3cadf520	0.021235049
20	0x3c8374e2	0.016046945
21	0x3c101f8f	0.008796587
22	0x3c772a7f	0.015085815
23	0x3c0c9aaa	0.008581797
24	0x3c4aa809	0.012369164
25	0x3c81f723	0.015864914
26	0x3c59210f	0.013252511
27	0x3c8dda2a	0.017315943
28	0x3cab422a	0.020905573
29	0x3cc519fc	0.024060242
30	0x3cd71332	0.02625427
31	0x3cc6d99f	0.024273692
32	0x3b182bf7	0.0023219564
33	0xbbaf11d4	-0.0053427014
34	0xbb890846	-0.0041818945
35	0x3c87b208	0.016564384
36	0x3c7eecce	0.015559388
37	0x3c2a9126	0.010410583
38	0x3c7a68b7	0.015283755
39	0x3c19aa3d	0.009378967
40	0x3c378635	0.011201431
41	0x3c65fc31	0.014037178
42	0x3c3d47f8	0.011552803
43	0x3c675f3c	0.014121827
44	0x3c82bd3c	0.015959375
45	0x3c8c59a8	0.017132595
46	0x3c954455	0.01822106
47	0x3c735c68	0.014853574
48	0xbcbf47bd	-0.023349637
49	0x3bcccdb3	0.006250107
50	0x3cb64383	0.022248989
51	0x3bdfd682	0.0068309912
52	0x3b323a94	0.002719556
53	0x3c9f7e76	0.019469481
54	0x3c8290ad	0.015938127
55	0x3c1db73b	0.009626205
56	0x3c81de97	0.01585321
57	0x3c0c513b	0.008564289
58	0x3c187146	0.00930435
59	0x3c6012ad	0.013676328
60	0x3c4d8287	0.012543327
61	0x3c88efe0	0.016715944
62	0x3ca42bf2	0.020040486
63	0x3cc2bcce	0.02377167
64	0x3cc71191	0.024300369
65	0x3cc6c7d1	0.024265202
66	0x3c930a08	0.01794912
67	0x3ba1e396	0.0049404604
68	0x3a91e6a3	0.0011131357
69	0x3ca61484	0.020273454
70	0x3c676b6c	0.014124732
71	0x3c17733d	0.009243784
72	0x3c61d3b2	0.013783382
73	0x3c025e4a	0.007957051
74	0x3c3de0fe	0.011589287
75	0x3c792f39	0.015209013
76	0x3c425195	0.011860271
77	0x3c8efaac	0.017453514
78	0x3ca7bed6	0.02047674
79	0x3cc2b915	0.023769895
80	0x3cbb26af	0.022845594
81	0x3cc2fe90	0.023803025
82	0x3a112c53	0.0005537916
83	0xbbcfa47e	-0.0063367477
84	0xbbcc0d41	-0.006227166
85	0x3c7aac8c	0.015299927
86	0x3c786e97	0.015163085
87	0x3c1c4851	0.009538726
88	0x3c6e6c3d	0.014552173
89	0x3c0addfb	0.008475776
90	0x3c1b9bd5	0.0094976025
91	0x3c5bfccc	0.013426971
92	0x3c1cbe58	0.009566866
93	0x3c5fd713	0.0136621175
94	0x3c785406	0.0151567515
95	0x3c88e62e	0.01671132
96	0x3c6d96cd	0.014501286
97	0x3c40b5bd	0.01176208
98	0xbcbeefa0	-0.023307621
99	0x3ba6a054	0.0050850306
100	0xbbe524a9	-0.0069928956
101	0x3b90cfde	0.004419311
102	0x3c50a012	0.012733476
103	0xbc0c9caf	-0.008582278
104	0xbca36b67	-0.019948674
105	0xbc8cd5ef	-0.017191855
106	0xbc82d433	-0.015970325
107	0xbc87d027	-0.016578747
108	0xbc89c209	-0.016816156
109	0xbc7e0e89	-0.015506395
110	0xbc7c9e02	-0.015418531
111	0xbc8e20bb	-0.017349591
112	0xbc9314ba	-0.01795422
113	0xbc9461a3	-0.018112963
114	0xbc9ed4d6	-0.019388597
115	0xbc9e58b9	-0.019329416
116	0xbb459cb8	-0.0030153226
117	0x3c1a8679	0.009431475
118	0x3c765291	0.015034334
119	0xbc0d20ca	-0.008613775
120	0xbc96332a	-0.018334944
121	0xbc8017ec	-0.015636407
122	0xbc802883	-0.015644317
123	0xbc7e2b10	-0.015513197
124	0xbc70b37a	-0.014691228
125	0xbc809ddc	-0.015700273
126	0xbc740a19	-0.014894986
127	0xbc8748ec	-0.016514264
128	0xbc889658	-0.016673252
129	0xbc893788	-0.016750112
130	0xbca1ee31	-0.019766899
131	0xbc94cdf7	-0.018164618
132	0x3cc47997	0.02398376
133	0x3d03a92e	0.032143764
134	0x3cff2868	0.031147197
135	0xb9ce8bf9	-0.0003939567
136	0xbc508d28	-0.012728967
137	0xbb9b0902	-0.0047312984
138	0xbb902042	-0.0043983767
139	0xbb9af91a	-0.0047294023
140	0xbb97d673	-0.0046337186
141	0xbb71015c	-0.0036774492
142	0xbb8a7b31	-0.0042261113
143	0xbb7c207f	-0.0038471518
144	0xbbdcb3af	-0.006735287
145	0xbbe20cde	-0.0068985065
146	0xbbb625cf	-0.0055587064
147	0xbb81a288	-0.003956143
148	0x3ceacd6e	0.02866241
149	0xbc1e7573	-0.009671557
150	0x3cc218ec	0.023693524
151	0x3c22b573	0.009930956
152	0x3bafe98a	0.005368416
153	0x3cb20d2a	0.021734793
154	0x3c926ab9	0.017873155
155	0x3c294b51	0.010332898
156	0x3c7b9475	0.015355219
157	0x3c210a20	0.009829074
158	0x3c49e788	0.012323268
159	0x3c6c1e05	0.014411454
160	0x3c6ab6f4	0.014325846
161	0x3c8e9a0e	0.017407443
162	0x3cab3b2e	0.020902243
163	0x3cc439f0	0.023953408
164	0x3cc9e8c9	0.024647133
165	0x3cceac97	0.025228782
166	0x3ca7b51f	0.020472107
167	0x3bee433e	0.0072711995
168	0x3b9827fa	0.0046434375
169	0x3ca7ec4b	0.020498415
170	0x3c8aa59a	0.016924668
171	0x3c2cd324	0.010548387
172	0x3c72af75	0.01481234
173	0x3c343ee2	0.011001321
174	0x3c3e810f	0.01162745
175	0x3c8100d5	0.015747467
176	0x3c513e11	0.012771145
177	0x3c947c35	0.018125633
178	0x3caaebaa	0.020864327
179	0x3cbe1502	0.023203377
180	0x3cce6752	0.025195751
181	0x3cc937ba	0.024562705
182	0x3b065b01	0.002050102
183	0xbb6e0a93	-0.003632222
184	0xbba4f169	-0.005033661
185	0x3c8a0afd	0.016850943
186	0x3c84b813	0.016201055
187	0x3c343a74	0.011000264
188	0x3c73617c	0.014854785
189	0x3c2e3417	0.010632536
190	0x3c4d972f	0.012548252
191	0x3c690bc8	0.014224
192	0x3c29acaf	0.010356112
193	0x3c540383	0.01294029
194	0x3c82c7cf	0.015964417
195	0x3c906405	0.017625818
196	0x3c8ed9f6	0.017437916
197	0x3c7493d0	0.014927819
198	0xbcbab8ae	-0.02279314
199	0x3bc8d60b	0.0061290315
200	0x3cc4b2ea	0.024011094
201	0x3c15e96a	0.0091498885
202	0x3bb50893	0.0055247038
203	0x3cb07f58	0.021545097
204	0x3c8edff5	0.017440775
205	0x3c32b82f	0.010908171
206	0x3c92b471	0.017908307
207	0x3c3d31e7	0.011547542
208	0x3c45a06b	0.012062172
209	0x3c60c5c1	0.013719023
210	0x3c6135b1	0.013745711
211	0x3c8b8247	0.017029895
212	0x3ca09d9f	0.01960641
213	0x3cb67ed3	0.022277271
214	0x3cc99f27	0.024612023
215	0x3cd3f3f5	0.025873164
216	0x3ca955a6	0.020670723
217	0x3be420da	0.006961924
218	0x3b90e023	0.0044212504
219	0x3caaf13d	0.020866985
220	0x3c92a6b9	0.017901765
221	0x3c21c014	0.009872455
222	0x3c7af930	0.0153182
223	0x3c32ebd4	0.010920484
224	0x3c44d53f	0.012013732
225	0x3c71b621	0.014752896
226	0x3c4aab87	0.012369997
227	0x3c90b4b5	0.017664293
228	0x3cad370a	0.021144409
229	0x3cbfde38	0.023421392
230	0x3cc72db2	0.024313781
231	0x3cc29e06	0.023756992
232	0x3b3f3b0c	0.0029179482
233	0xbb4eb4a5	-0.0031540778
234	0xbb14d863	-0.0022711984
235	0x3c8d99c2	0.017285232
236	0x3c879d16	0.016554397
237	0x3c3745ef	0.011186107
238	0x3c92c88e	0.017917898
239	0x3c3b88ea	0.011446217
240	0x3c4372d0	0.011929229
241	0x3c68531f	0.014179974
242	0x3c430ab9	0.011904412
243	0x3c5a6113	0.013328808
244	0x3c850148	0.016235963
245	0x3c92d1c7	0.017922295
246	0x3c8c6a27	0.017140461
247	0x3c7f4bb0	0.01558201
248	0xbcb7490c	-0.022373699
249	0x3bcfe8ab	0.006344875
250	0xbbcc7d2c	-0.0062405076
251	0x3b3e83fa	0.0029070363
252	0x3c2a911a	0.0104105715
253	0xbc18dd6b	-0.009330134
254	0xbc9912c1	-0.0186857
255	0xbc801f8a	-0.015640039

shared_fc1.bias f4 [256]
0	0x3b9ae2a4	0.0047267247
1	0x3b2e6ac0	0.002661392
2	0x3cbda6d0	0.023150831
3	0x3baf8884	0.00535685
4	0x3bc31550	0.0059534684
5	0x3cb69645	0.022288451
6	0xbb2a7f5e	-0.0026015858
7	0x3b8a0023	0.004211442
8	0x3bbd7e89	0.0057829064
9	0xbb2792a2	-0.0025569578
10	0x3baf2034	0.005344415
11	0x3cbd5846	0.023113381
12	0xb9730717	-0.00023176927
13	0x3cc2a366	0.023759555
14	0x3bbac97d	0.005700289
15	0x3bb33835	0.005469347
16	0xb9595226	-0.00020725335
17	0x3ba11868	0.0049162395
18	0x3baeddc3	0.0053364947
19	0xb99c433b	-0.0002980473
20	0x3bb3b1c7	0.005483839
21	0x3bbeab09	0.005818729
22	0x3bc14b94	0.005898902
23	0x3b9a9986	0.0047180085
24	0x3b93a6cb	0.0045059673
25	0x3bb8b586	0.0056368737
26	0x3ca80292	0.020509038
27	0x3bbdc0f5	0.0057908245
28	0xb92930d7	-0.0001613529
29	0x3bab74d2	0.005232432
30	0x3b59ea7c	0.0033251336
31	0x3bc0bced	0.0058818967
32	0x3b8b1ce1	0.004245386
33	0x3b81bcfa	0.0039592953
34	0x3cb41fd2	0.02198783
35	0x3bb9292c	0.00565066
36	0x3baa7758	0.005202215
37	0x3bbadbee	0.005702487
38	0x3bbb7ad2	0.0057214284
39	0x3bc23437	0.0059266347
40	0x3ba234bf	0.0049501355
41	0x3bb1c0ad	0.00542458
42	0x3baf11b9	0.005342689
43	0xbb552d64	-0.0032528276
44	0x3bbeed74	0.0058266465
45	0x3bba6b20	0.00568904
46	0x3bbf4a1e	0.005837693
47	0x3bbe7ab8	0.005812969
48	0x3bbe41f9	0.0058062044
49	0x3b9665f2	0.0045897895
50	0x3bb5a784	0.005543651
51	0x3bbed18c	0.00582332
52	0x3bbc82f1	0.005752914
53	0x3b816cb9	0.0039497283
54	0x3bbe8740	0.005814463
55	0x3bbaf316	0.0057052476
56	0x3b8c19ee	0.004275552
57	0x3bae2aa1	0.0053151404
58	0x3ba7ac08	0.0051169433
59	0x3cc41a24	0.023938246
60	0xb83c5057	-4.4897515e-05
61	0x3b13cdf6	0.0022553182
62	0x3bbc57f8	0.0057477914
63	0x3bbc3c10	0.0057444647
64	0x3b5caa5b	0.0033670876
65	0x3b96b408	0.004599098
66	0x3bb519a2	0.0055267373
67	0x3bc2ee2a	0.0059488015
68	0x3ca1da24	0.019757338
69	0x3bbe4d1e	0.005807533
70	0x3cb56c7d	0.022146458
71	0xbb5d0d4d	-0.0033729852
72	0x3bb2c433	0.0054555177
73	0x3b56fe80	0.0032805502
74	0x3bb2b47d	0.005453645
75	0x3ba58604	0.0050513763
76	0x3ca8f258	0.020623371
77	0xb5ca3420	-1.5065343e-06
78	0x3b7c78a6	0.003852406
79	0x3bc111da	0.0058920207
80	0x3c913bc1	0.017728688
81	0x3cb562c2	0.022141818
82	0x3bc1db97	0.0059160697
83	0x3b84762f	0.004042409
84	0x3bb5cb37	0.0055479067
85	0x3bb32c44	0.0054679234
86	0x3baeb69c	0.0053318273
87	0x3b3ac8a9	0.002850095
88	0x3bb673d3	0.0055680065
89	0x3b82764c	0.0039813872
90	0x3cbbe072	0.022934172
91	0x3ba1e9e3	0.0049412115
92	0x3b6cc700	0.0036129355
93	0x3bc26658	0.0059326105
94	0x3c36de76	0.011161437
95	0x3ba2b830	0.0049658045
96	0x3b898885	0.0041971826
97	0x3bb6d3dd	0.0055794553
98	0xba7fb8dd	-0.0009755025
99	0x3bbf72d7	0.0058425474
100	0x3ba319ae	0.0049774265
101	0x3bbe383e	0.0058050444
102	0x3cb15906	0.021648895
103	0xb92151d4	-0.0001538464
104	0x3ca62cda	0.020285059
105	0x3bab32f4	0.00522458
106	0x3cc01f45	0.02345241
107	0x3bbac269	0.005699445
108	0x3bb12548	0.0054060556
109	0x3b930113	0.004486212
110	0x3bb45814	0.005503664
111	0x3bb530f3	0.005529517
112	0x3b12e3a9	0.0022413528
113	0x3b6ad034	0.0035829665
114	0x3ba85331	0.0051368703
115	0x3bb76e9b	0.005597902
116	0x3b687085	0.0035467457
117	0x3bbac9b3	0.005700314
118	0x3bb5b489	0.005545203
119	0x3b3804c0	0.0028079003
120	0x3bab8e12	0.005235442
121	0x389ea7df	7.5652955e-05
122	0x3bc8c7dc	0.0061273407
123	0x3bbc6f41	0.005750567
124	0x3c95ae75	0.018271664
125	0x3bbbd1a6	0.005731779
126	0x3bb97dc0	0.0056607425
127	0x3b93cc0a	0.0045104073
128	0x3ba4a951	0.005025067
129	0x00000000	0.0
130	0x3c9ae6f5	0.018908957
131	0x3bb051a9	0.0053808284
132	0xb7ee6708	-2.8419789e-05
133	0x3bb6f39f	0.005583241
134	0x3cbc56e7	0.022990657
135	0x3bbef755	0.005827824
136	0x3b9cd221	0.0047857915
137	0x3b8255b9	0.003977504
138	0x3b9c60a3	0.004772262
139	0x3bb6d273	0.0055792867
140	0x3cbb237f	0.022844074
141	0x3bb222df	0.005436286
142	0x3bc17d70	0.005904846
143	0x3bb49bfd	0.0055117593
144	0x3b9cb762	0.004782603
145	0x3bb4d163	0.005518125
146	0x3bb86120	0.0056268126
147	0x00000000	0.0
148	0x3c55f20c	0.013058197
149	0x3cb16e28	0.021658972
150	0x3ba03746	0.0048894016
151	0x3b892443	0.004185231
152	0x37af6f50	2.091346e-05
153	0x3c971139	0.01844083
154	0x3cc35c07	0.023847593
155	0xba0ad85a	-0.0005296521
156	0x3bc0f2f8	0.005888339
157	0x3b92a514	0.0044752453
158	0x3bc1ceff	0.0059145684
159	0x3cc13486	0.023584615
160	0x3bb5428b	0.005531614
161	0x3b9d53a4	0.0048012305
162	0x3bae037c	0.005310474
163	0x3cb5fe01	0.022215845
164	0xba9ae9e1	-0.0011818969
165	0x3baf7f55	0.0053557553
166	0xb915fa6f	-0.00014303041
167	0x3cbcb003	0.023033148
168	0x3a8d400c	0.0010776534
169	0x3b5da701	0.0033821466
170	0xb8437095	-4.6596473e-05
171	0x3bb9632f	0.0056575756
172	0x3ba06b58	0.004895609
173	0x3b9dbb35	0.0048135766
174	0x3aff633d	0.0019484531
175	0x3ba64c67	0.005075026
176	0x3bb498ae	0.005511365
177	0xba074bf3	-0.00051611586
178	0x3bc395da	0.0059687914
179	0x3ba24caa	0.0049529867
180	0x3bb7b7d6	0.0056066317
181	0x3605af00	1.9920408e-06
182	0x3c47f43b	0.012204225
183	0x3bb87cf8	0.005630132
184	0x3bbfc014	0.005851755
185	0x3bba5bfa	0.005687234
186	0x3bb46c8a	0.005506103
187	0x3bbc13ec	0.0057396796
188	0x3ba2e52c	0.004971167
189	0x3caf1a4c	0.021374844
190	0x3b48fded	0.003066893
191	0x3bb27046	0.005445513
192	0x3bb9e879	0.005673465
193	0x3b95c6bd	0.0045708106
194	0x3bb2b759	0.0054539857
195	0x3cc0117f	0.023445843
196	0x3c9fbd73	0.019499516
197	0x3cbb1d51	0.022841128
198	0x3c5d4f98	0.013507746
199	0x3bbc2814	0.0057420824
200	0x3ba36c87	0.0049873027
201	0x3b9288ca	0.004471873
202	0x3b89b60a	0.004202609
203	0x3b926b85	0.0044683837
204	0x3b949a54	0.004534999
205	0x3ba9215a	0.0051614465
206	0x3b1e61d2	0.0024167192
207	0x3bba973b	0.0056942976
208	0x3ba6b561	0.00508754
209	0x3bb7f19a	0.005613518
210	0xba101093	-0.0005495634
211	0x3bbd8b5e	0.005784436
212	0x3bbf4bfa	0.0058379145
213	0x37af07e5	2.0865302e-05
214	0x3bc00b14	0.0058606956
215	0x3bb82647	0.0056197974
216	0x3b60e855	0.0034318168
217	0x3bc3c15a	0.005973977
218	0xb9845b6d	-0.0002524512
219	0x3cc00e5a	0.023444343
220	0x3bb39373	0.005480224
221	0x3cba0b5f	0.0227105
222	0x3bb85470	0.0056253
223	0x3b60b6eb	0.0034288715
224	0x3badc8c0	0.0053034723
225	0x3b902bdc	0.0043997597
226	0x3bb93b11	0.005652793
227	0x3bb37698	0.005476784
228	0x3bb8ef87	0.0056437883
229	0x3cae0e6c	0.021247111
230	0x3b6c96f2	0.0036100713
231	0x3baea3e9	0.005329598
232	0x3bbee997	0.005826186
233	0x3c9464d9	0.018114494
234	0x3bb53860	0.005530402
235	0xb9477996	-0.00019023413
236	0x3ba5112f	0.005037449
237	0x3bb8780a	0.005629544
238	0x3ba7f92d	0.0051261396
239	0x3bb50136	0.005523826
240	0x3bb598b2	0.0055418843
241	0x3bf6f2de	0.0075362762
242	0x3b917af4	0.004439706
243	0x3baa111f	0.0051900293
244	0xbb763805	-0.0037570011
245	0x3bb08200	0.005386591
246	0x3b41a3d6	0.0029547117
247	0x3ac60cb9	0.0015109993
248	0x3bbbd63f	0.0057323272
249	0x3c886812	0.016651187
250	0xbb5b3967	-0.0033450963
251	0x3ba9a974	0.005177671
252	0x00000000	0.0
253	0x3cc41267	0.023934556
254	0x00000000	0.0
255	0x3cc0b22e	0.023522463

shared_fc2.weight f4 [256, 256]
0	0xba39208f	-0.00070620415
1	0xba6e8497	-0.0009098737
2	0xb8d06030	-9.936129e-05
3	0xba255485	-0.0006306845
4	0x3a360d9e	0.0006944778
5	0xb98cdad7	-0.0002686593
6	0x3a3b1070	0.0007135933
7	0x39d27bd4	0.0004014658
8	0xb99a22d9	-0.00029399132
9	0xb854bfdc	-5.072342e-05
10	0xba5f85ab	-0.0008526693
11	0xba469f0f	-0.0007576802
12	0xb9fcb174	-0.00048197398
13	0xba2d5d1e	-0.0006613302
14	0x373dd0cd	1.1313893e-05
15	0x3a5120cf	0.0007977606
16	0x3a4fb117	0.0007922812
17	0xb9c01d99	-0.00036643146
18	0x39bd41e0	0.0003609797
19	0xb899ad66	-7.3279065e-05
20	0xb9867dde	-0.0002565225
21	0xb6827e66	-3.8890166e-06
22	0x39ce9973	0.0003940571
23	0x398e51ab	0.00027145198
24	0xb9ab5286	-0.00032677146
25	0xb7cc0400	-2.4320558e-05
26	0xb997ac80	-0.00028929487
27	0xba54e38a	-0.0008121064
28	0x39471b24	0.0001898823
29	0x388ea5f6	6.802e-05
30	0xba6e7f3c	-0.0009097939
31	0x38af3f19	8.356403e-05
32	0xba4621d8	-0.00075581437
33	0xbaa936bb	-0.0012909988
34	0xba69203b	-0.00088930473
35	0xba4c1c57	-0.00077862054
36	0x3a416ac5	0.00073782756
37	0xba3afc21	-0.0007132907
38	0x37e1e90f	2.6930617e-05
39	0xba2940eb	-0.0006456512
40	0x39b6f7d2	0.00034898386
41	0x3a9aa802	0.0011799338
42	0x3a9555c2	0.0011393356
43	0xb75c9b15	-1.314913e-05
44	0xb9ea4682	-0.0004468449
45	0xba1be16d	-0.0005946372
46	0xba175bc5	-0.00057738676
47	0x3a047516	0.00050528476
48	0x398ed494	0.00027242734
49	0xb98dc440	-0.00027039833
50	0xba93b574	-0.0011269287
51	0x39980eb5	0.00029002657
52	0xb8a1ca8f	-7.714808e-05
53	0xba754754	-0.0009356637
54	0xba28853d	-0.00064285455
55	0xba2a7919	-0.00065030303
56	0x3a021877	0.0004962752
57	0x39d7e5d9	0.00041179245
58	0x3a4c9bef	0.00078052183
59	0xb921cc19	-0.00015430189
60	0xb985f76d	-0.00025552083
61	0xb9b687c7	-0.00034814907
62	0xb984879d	-0.00025278042
63	0x3901822b	0.0001235089
64	0xb8e55c55	-0.00010936769
65	0x3986247d	0.00025585658
66	0xb968e3ea	-0.00022210149
67	0xba8d1d6f	-0.0010766218
68	0x3a56fb0a	0.000820086
69	0x393ed147	0.00018197774
70	0x392d23d6	0.00016511916
71	0xba854a55	-0.0010169247
72	0x39334cd5	0.00017099392
73	0x3a51aebd	0.00079987553
74	0x3949c4eb	0.00019242211
75	0x3aa41c36	0.0012520615
76	0xba6f76ca	-0.00091348274
77	0x38fdd232	0.00012103132
78	0xb6c4c429	-5.8640912e-06
79	0xb9a0514b	-0.00030578146
80	0x37d28d0f	2.5099636e-05
81	0xb941f487	-0.00018497008
82	0xba101293	-0.0005495932
83	0xb8b04294	-8.404735e-05
84	0xb9252da6	-0.00015752632
85	0x398d00db	0.00026894253
86	0x39aedabc	0.00033350836
87	0x39a1715e	0.00030792778
88	0xba521b2f	-0.0008014915
89	0x3970dcb0	0.00022970396
90	0x39da2baa	0.00041612732
91	0x3a604c20	0.00085562654
92	0xbad0b585	-0.0015923238
93	0x39e0144f	0.0004273974
94	0xb9cf5379	-0.0003954431
95	0xb8401300	-4.5794062e-05
96	0x3a57078c	0.00082027237
97	0xb950df65	-0.00019919647
98	0x3a4dfa0c	0.0007857389
99	0x3a9cdddd	0.0011967976
100	0xba0357d0	-0.00050103385
101	0x3a836ac0	0.0010026321
102	0x3a3f2c8a	0.00072927086
103	0x380b8750	3.3266202e-05
104	0xba2d312b	-0.0006606753
105	0xba1535b0	-0.0005691899
106	0x37e00d80	2.6709167e-05
107	0x398646b2	0.00025611144
108	0x38e7faee	0.00011061678
109	0x3ad8cea0	0.0016541071
110	0xba232ab9	-0.0006224323
111	0x3994fb1d	0.00028415854
112	0xb8933478	-7.019279e-05
113	0x3a5fc821	0.00085365964
114	0x3a16fb97	0.00057595357
115	0xba607910	-0.00085629616
116	0xba0956f9	-0.0005239095
117	0x39277f4f	0.00015973787
118	0xb9c4c282	-0.00037528953
119	0xba972d70	-0.0011533927
120	0xba411b85	-0.00073664665
121	0xb9665c00	-0.00021968782
122	0xba3a962b	-0.00071177137
123	0xb9b1bfa1	-0.00033902845
124	0xb93273fe	-0.00017018613
125	0x3a22c72e	0.00062094897
126	0x39aa14e9	0.00032440506
127	0xba2ac625	-0.0006514511
128	0x39d3c969	0.00040395118
129	0x39d687d2	0.00040918455
130	0x3989bb23	0.00026270104
131	0xb930f969	-0.0001687758
132	0xba323950	-0.00067987014
133	0xba58d4fe	-0.00082714844
134	0xb9d481bb	-0.00040532448
135	0xba36eba7	-0.0006977864
136	0x39b02dbd	0.00033603414
137	0xba331802	-0.00068318855
138	0xb9dacaaf	-0.0004173121
139	0x3975a793	0.00023427447
140	0x3a86fc33	0.001029855
141	0x3a0fa311	0.0005479316
142	0xba07f02e	-0.0005185631
143	0x3a2bbebe	0.0006551555
144	0x3a01597f	0.00049342954
145	0x391f164a	0.00015171725
146	0x38b904b8	8.822366e-05
147	0xba686f4c	-0.0008866682
148	0x3a019389	0.0004942944
149	0xba2c67ab	-0.0006576727
150	0x396e2105	0.0002270975
151	0xb9ebf39e	-0.00045004202
152	0x3a92c18f	0.0011196601
153	0x3a0e9b8e	0.00054400496
154	0xb9762001	-0.0002347231
155	0xb9d6baec	-0.00040956528
156	0x3a4540ae	0.00075245916
157	0x39d2f920	0.00040239934
158	0x39ce4687	0.0003934393
159	0x39d99700	0.0004150197
160	0xb99725ae	-0.00028829038
161	0xba7a3bb5	-0.000954564
162	0x39c2beb0	0.00037144637
163	0x39ced8d7	0.0003945294
164	0x39d82f42	0.0004123394
165	0x389ec717	7.5711105e-05
166	0x3a610beb	0.0008584845
167	0x38c5daab	9.434422e-05
168	0xbac740d8	-0.001520182
169	0xba98c8d6	-0.0011656533
170	0x38d7a7b0	0.00010283233
171	0x39ea5849	0.00044697736
172	0xb98991db	-0.00026239347
173	0xbac724d3	-0.001519347
174	0x38d57eeb	0.00010180272
175	0x3a218a15	0.00061622384
176	0xb9e81dfd	-0.0004427283
177	0xb711e629	-8.696262e-06
178	0xba05c8bb	-0.00051034585
179	0x389d865c	7.51137e-05
180	0xb9b6a2aa	-0.0003483494
181	0x396a05f0	0.00022318191
182	0xb9ef1eac	-0.00045608485
183	0x35487147	7.4670646e-07
184	0xb86444b3	-5.4423417e-05
185	0xba1d06fb	-0.0005990115
186	0x3a000c91	0.0004884685
187	0xb8b15d92	-8.4574465e-05
188	0xba409ea4	-0.0007347858
189	0xba9d61bb	-0.0012007275
190	0x3a75e045	0.0009379427
191	0x39e2d358	0.00043263542
192	0xb9f96b5d	-0.00047572973
193	0x3a3aa07d	0.00071192515
194	0x3986db98	0.00025722082
195	0xb90ced01	-0.00013439731
196	0xb7a83f45	-2.0056623e-05
197	0x3acbb58a	0.0015541774
198	0xb9828753	-0.00024896357
199	0x3876181e	5.867343e-05
200	0x3ab2149c	0.0013586464
201	0x3ab25e81	0.0013608487
202	0x3ac7b98f	0.0015237796
203	0xb9bc38f7	-0.00035900596
204	0xb58ca6e1	-1.0479381e-06
205	0x38d25f19	0.00010031294
206	0x3a1d2bbd	0.0005995592
207	0x3a6c32e2	0.00090102677
208	0x39eef41c	0.00045576773
209	0xb9ba401b	-0.00035524447
210	0x3960c157	0.0002143433
211	0xba99d1f0	-0.001173554
212	0x3a0b1e76	0.0005306968
213	0xba5375e5	-0.0008066579
214	0xb95fcd25	-0.0002134336
215	0xb9836032	-0.00025057938
216	0xb997ac4b	-0.00028929333
217	0x3a89bc8f	0.0010508465
218	0x39eb5a5b	0.00044890013
219	0xb9c829f2	-0.00038178224
220	0x3a63c2b8	0.0008688378
221	0xba465027	-0.0007565044
222	0xb8f52039	-0.00011688512
223	0x398a4d7b	0.0002637914
224	0x3a277847	0.0006388467
225	0x385b6002	5.2303083e-05
226	0x3a5ca135	0.00084163557
227	0xb9339357	-0.00017125659
228	0xba038d80	-0.00050183386
229	0x3a900cd0	0.0010990147
230	0x3ad25872	0.0016048087
231	0x39f43c7e	0.00046584377
232	0x39d3ec09	0.00040420916
233	0x3998cf50	0.0002914616
234	0x39e682be	0.0004396643
235	0x3928e0ab	0.00016105424
236	0x373150a4	1.0568798e-05
237	0x3a1cb46b	0.0005977812
238	0xb9e6c56e	-0.00044016115
239	0xba7e1800	-0.00096929073
240	0xba35fab9	-0.00069419626
241	0xb93ac537	-0.0001781181
242	0x39d498e9	0.00040549718
243	0xb9cd5e5c	-0.0003917095
244	0xb9b1ef7c	-0.000339385
245	0xba8c6188	-0.0010710219
246	0xb927aac1	-0.00015989972
247	0x39d8b052	0.000413301
248	0x3887efc7	6.481964e-05
249	0x388f0361	6.819401e-05
250	0x3ab4dbc5	0.0013798407
251	0xb980b168	-0.0002454624
252	0xba52137d	-0.0008013768
253	0x38f98017	0.00011897104
254	0xb9e31edc	-0.00043319806
255	0xb8ed9935	-0.00011329578

shared_fc2.bias f4 [256]
0	0x00000000	0.0
1	0xb9869a3f	-0.00025673394
2	0x00000000	0.0
3	0xb9f8cade	-0.00047453394
4	0x3bdb5c53	0.0066943555
5	0x3bd527be	0.006504982
6	0xba128906	-0.0005589876
7	0xba20ce3b	-0.00061342464
8	0x3bd1ad8a	0.0063988613
9	0x3bccb146	0.0062467186
10	0x3cbe2872	0.023212645
11	0x3bd23fe1	0.0064163064
12	0x00000000	0.0
13	0x3bd4bf88	0.006492559
14	0xb7c79c90	-2.3795554e-05
15	0x3bd92d07	0.006627682
16	0xba0fc8b0	-0.0005484922
17	0xba180061	-0.00057983963
18	0xba14e02e	-0.00056791573
19	0x3bcf0bfd	0.006318568
20	0x3bc7746a	0.0060868757
21	0x00000000	0.0
22	0x3bd46c38	0.0064826272
23	0x3bd99271	0.0066397716
24	0x00000000	0.0
25	0x00000000	0.0
26	0x3bdd266b	0.0067489645
27	0xba2e304b	-0.00066447695
28	0x3bd938b5	0.0066290745
29	0xb9981a4c	-0.00029011292
30	0x3bd85154	0.006601492
31	0xba04dd13	-0.0005068343
32	0x3bae0a15	0.0053112605
33	0x3bcd8c7e	0.0062728515
34	0xb895dae8	-7.145648e-05
35	0x00000000	0.0
36	0xb8b3457e	-8.548329e-05
37	0x3cfbe04b	0.0307466
38	0x3bd86f42	0.00660506
39	0xba93e773	-0.0011284187
40	0x3bd49a52	0.006488123
41	0x3bcdddde	0.006282552
42	0xba8864fc	-0.0010406072
43	0xb915b43d	-0.00014276891
44	0x3bd1a55d	0.0063978867
45	0x3bd6bf3c	0.0065535586
46	0x3bd98bb9	0.0066389707
47	0x3cc6f916	0.024288695
48	0x3bd6f737	0.006560232
49	0x3bcd55bc	0.006266324
50	0x3bd8df63	0.0066184266
51	0x3bd76aff	0.006574034
52	0xb81b2573	-3.6989757e-05
53	0xb97b6ee0	-0.0002397853
54	0x3cc4f6c7	0.024043454
55	0x3bde41a2	0.0067827264
56	0x3bda4902	0.0066615352
57	0xba80ab1c	-0.000981662
58	0x3bb840c2	0.005622954
59	0x3bd6d11c	0.0065556895
60	0xba11fb2b	-0.0005568738
61	0x3bd5f642	0.0065296004
62	0xba109d49	-0.00055166014
63	0x3bceb471	0.0063081314
64	0xba048413	-0.0005055081
65	0x00000000	0.0
66	0xba22702c	-0.00061965245
67	0x3bd569bd	0.006512849
68	0xb9f9677d	-0.00047570086
69	0x3bd6cb69	0.00655501
70	0x3bd1f4c2	0.0064073512
71	0x00000000	0.0
72	0x3cee560c	0.029093765
73	0xb9db23d9	-0.00041797644
74	0xba0f46e4	-0.00054655806
75	0xba03f7f9	-0.0005034204
76	0x3bb35971	0.0054733087
77	0x3bd771e0	0.0065748543
78	0x3bd4721e	0.0064833304
79	0x3bd4dbe6	0.0064959405
80	0xb95c3eb9	-0.00021004201
81	0x3bc9c33d	0.0061573074
82	0xba5253c0	-0.0008023344
83	0xba264f60	-0.0006344225
84	0x3bcf7384	0.006330909
85	0x3bc81046	0.0061054556
86	0x3bd52945	0.006505164
87	0x3cd35634	0.02579794
88	0x3bce00f4	0.0062867347
89	0x3bdeef6b	0.006803443
90	0x3bc85599	0.0061137197
91	0x3bdb72f8	0.006697055
92	0x3bd155a9	0.0063883853
93	0x3cb3f336	0.021966558
94	0x3bd379b3	0.0064537167
95	0x00000000	0.0
96	0x3bdcb604	0.006735565
97	0xb9de34d7	-0.00042382508
98	0x3d077030	0.033065975
99	0x00000000	0.0
100	0x3bd5b3a0	0.006521657
101	0xba14a969	-0.0005670996
102	0x3bd99852	0.0066404724
103	0xba510b29	-0.000797438
104	0x3bd1db3d	0.006404309
105	0xb9cf2bc8	-0.00039514736
106	0xba115ae2	-0.00055448536
107	0x3cd5e36c	0.02610942
108	0x3bc06a68	0.0058720596
109	0xb8a03b82	-7.640479e-05
110	0xb9c578e1	-0.0003766483
111	0xb9ac1308	-0.00032820576
112	0x3cbb2189	0.02284314
113	0xb98ba7a5	-0.0002663705
114	0x00000000	0.0
115	0x3bd149d5	0.0063869753
116	0x00000000	0.0
117	0x3cb051f0	0.021523446
118	0xb703dd78	-7.859773e-06
119	0x00000000	0.0
120	0xba142ec0	-0.0005652718
121	0x3bdb9a1b	0.0067017204
122	0xb9c6da65	-0.0003792822
123	0x00000000	0.0
124	0x3b9c1955	0.004763762
125	0x3bdd8c12	0.0067610824
126	0x3bd87422	0.006605641
127	0x37c48ef4	2.3431588e-05
128	0x3c9b8734	0.018985368
129	0x3bcdd2bc	0.006281225
130	0x00000000	0.0
131	0xba41ece8	-0.00073976675
132	0x3bdeb27e	0.0067961803
133	0x3bcd01a0	0.006256297
134	0x3bcb9e11	0.0062139113
135	0x3ccd912a	0.025093634
136	0xba28bf33	-0.00064371823
137	0xba40e905	-0.00073589414
138	0x00000000	0.0
139	0x3bd1b848	0.006400142
140	0x00000000	0.0
141	0x3bc18062	0.005905197
142	0xbaafe627	-0.0013420031
143	0x3bcfe9b4	0.0063449983
144	0x3bd4461f	0.0064780856
145	0x3bb2b26e	0.0054533994
146	0x3bd124bc	0.006382553
147	0x3bd1a398	0.0063976757
148	0x3bd8392f	0.0065986137
149	0x3bd7ebfc	0.006589411
150	0x3bcddfd0	0.006282784
151	0xba1adf8b	-0.0005907944
152	0xb9d35bf7	-0.00040313575
153	0x3bcce39d	0.0062527196
154	0xb9c9da46	-0.00038500334
155	0x3b8c15e1	0.004275069
156	0x00000000	0.0
157	0x3a54c827	0.0008116983
158	0x3bd3335b	0.006445331
159	0x3bcd7e05	0.006271126
160	0xb8eea957	-0.000113802664
161	0x3bdc94f7	0.006731625
162	0xba0dc2cd	-0.0005407751
163	0xba07f19a	-0.0005185843
164	0x3bccf959	0.0062553105
165	0x3bd9cba5	0.006646591
166	0x3bd0ff5a	0.0063780965
167	0x00000000	0.0
168	0xba144b6f	-0.00056569924
169	0xb94253db	-0.0001853252
170	0x3bd3f9a1	0.006468967
171	0xb872f3f2	-5.7924488e-05
172	0x3bdbf11d	0.0067120926
173	0xb8fe25c6	-0.000121187
174	0xba104f12	-0.00055049465
175	0x3bd1c2f9	0.0064014164
176	0x3bc94dbd	0.0061433003
177	0x3cf99730	0.0304676
178	0xba462ab1	-0.0007559462
179	0xba0ed0dc	-0.00054479926
180	0x3baa6103	0.005199553
181	0xb9824435	-0.0002484635
182	0xb95fd95a	-0.00021347907
183	0x3b9874b3	0.0046525835
184	0x00000000	0.0
185	0x3cd09404	0.025461204
186	0x3bb265c3	0.00544426
187	0x3bd580ec	0.006515613
188	0xb98f214c	-0.00027299894
189	0xba00044c	-0.0004883453
190	0x3cc1b504	0.023645885
191	0x3bd23524	0.0064150263
192	0xb9c1e5dc	-0.00036983087
193	0x3cede00a	0.029037494
194	0xba1e736c	-0.0006044421
195	0x00000000	0.0
196	0x00000000	0.0
197	0x00000000	0.0
198	0x3bd41a67	0.006472874
199	0x00000000	0.0
200	0x3cba9600	0.022776604
201	0xb9ea9d83	-0.00044749313
202	0x3bd6281b	0.0065355427
203	0x3bd1e2e0	0.0064052194
204	0x3bd9fe66	0.006652641
205	0x3bcdaa69	0.006276418
206	0x3baef67f	0.005339443
207	0xb89c8d24	-7.464949e-05
208	0x38d054da	9.934018e-05
209	0x3ba6077e	0.005066811
210	0xba0edf13	-0.0005450111
211	0xba29d268	-0.00064781914
212	0xba0f68d8	-0.000547064
213	0x3cd52471	0.026018353
214	0x00000000	0.0
215	0x3bd6fd6b	0.0065609715
216	0x3bd5ead8	0.0065282397
217	0xba13646a	-0.0005622568
218	0x3be0dddf	0.0068623866
219	0x3bd27fa4	0.0064239074
220	0x3bd02ed6	0.0063532395
221	0x00000000	0.0
222	0x369ddb78	4.704514e-06
223	0xb8b8d860	-8.814107e-05
224	0xba0ddc40	-0.0005411543
225	0x3baa012f	0.0051881294
226	0xba104b74	-0.00055044075
227	0xb9e4d1aa	-0.0004364376
228	0x3cd47b25	0.025937626
229	0x3cd700ae	0.026245441
230	0x3bb6eb3a	0.0055822404
231	0x3bd250d0	0.006418325
232	0x3bd03b12	0.006354698
233	0x3bd92eae	0.006627879
234	0x3bd50f8d	0.006502098
235	0x3bc5e510	0.0060392693
236	0x3bdaf105	0.006681564
237	0xba168e5c	-0.0005743259
238	0x3ccf61e0	0.025315225
239	0x00000000	0.0
240	0x00000000	0.0
241	0x3bb6f645	0.005583557
242	0x3bd55ac4	0.0065110642
243	0x3bcb59ed	0.0062057883
244	0xba29ba0d	-0.0006474562
245	0x00000000	0.0
246	0x00000000	0.0
247	0xba131cd3	-0.00056119
248	0x3c97aa3f	0.018513797
249	0x3bd5ec0a	0.006528382
250	0x3bcf7f39	0.006332305
251	0x3cb4e4e7	0.022081805
252	0x00000000	0.0
253	0x3cdc3d60	0.026884735
254	0xba28639b	-0.0006423534
255	0x3bdf63ad	0.006817302

actor_mean.weight f4 [2, 256]
0	0x39c2468f	0.00037055134
1	0xba9d3cdd	-0.0011996288
2	0x395ab11e	0.00020856081
3	0x39c68029	0.0003786099
4	0x3a452fce	0.0007522077
5	0x3a46d328	0.00075845653
6	0xb9f45f08	-0.0004661011
7	0x3a19401a	0.00058460387
8	0x3a83649c	0.0010024491
9	0x3aa32e9f	0.0012449807
10	0xbbecbd83	-0.00722474
11	0x3aca270b	0.0015423013
12	0x39e3ef66	0.0004347518
13	0x3ad924d0	0.0016566757
14	0x39129171	0.00013977826
15	0x3a4195cc	0.0007384687
16	0x37a7462c	1.9940628e-05
17	0x3a48ff27	0.0007667415
18	0x38bdbadb	9.047027e-05
19	0x3a26e220	0.0006366093
20	0x3b27e537	0.00256188
21	0xba57374f	-0.0008209841
22	0x3a8a34c0	0.0010544285
23	0x39e23f0d	0.00043153056
24	0xb9170a70	-0.0001440437
25	0x3a85cbb0	0.0010207798
26	0x395c69a8	0.00021020195
27	0x39927b55	0.0002793918
28	0x39aa7b46	0.00032516773
29	0xba10e092	-0.00055266276
30	0x3987e267	0.0002591789
31	0x3a1df432	0.00060254626
32	0xb9635f9d	-0.00021684026
33	0x3a934cd4	0.0011238107
34	0xb950aa1a	-0.00019899794
35	0xb9b73b6d	-0.00034948756
36	0xb81788fb	-3.612878e-05
37	0xbbc0701d	-0.00587274
38	0x397d875b	0.00024178384
39	0xb997bdcc	-0.00028942374
40	0x3a3bc7f4	0.0007163279
41	0x3ab69a4e	0.0013931484
42	0xb9ec32f7	-0.000450514
43	0x39ad16de	0.0003301417
44	0x3a551ae2	0.0008129311
45	0x39dcfccd	0.0004215002
46	0x39ff532b	0.00048699355
47	0xbbe10eaf	-0.0068682055
48	0x3a56b8cb	0.00081909884
49	0x3a7967bd	0.00095140544
50	0x3a21496f	0.0006152605
51	0x3a607027	0.0008561634
52	0xb9ac2504	-0.00032833975
53	0xb8ca2d76	-9.640578e-05
54	0xbbaeb744	-0.0053319056
55	0x39380542	0.00017549566
56	0x3a401336	0.00073270814
57	0xb948d553	-0.00019152956
58	0xba681fdc	-0.0008854845
59	0x3a82c80c	0.0009977832
60	0xba19348d	-0.00058443175
61	0x3a82ef4d	0.000998953
62	0x39538360	0.00020171469
63	0x3b08eb3c	0.0020892164
64	0x3a439f7a	0.00074624235
65	0x391bf390	0.00014872686
66	0xbab3a0d5	-0.0013704548
67	0x3a6b57db	0.000897763
68	0xb8fffdd7	-0.00012206629
69	0x39d75c26	0.00041076652
70	0x3ab6d1e7	0.0013948054
71	0x3a8e4e75	0.0010857122
72	0xbc0188fb	-0.007906194
73	0x3919b2a5	0.00014657767
74	0x39b84d95	0.00035153018
75	0x388ebfcb	6.806812e-05
76	0xbb36f671	-0.0027917887
77	0x3a82edcf	0.0009989085
78	0x3a47e75b	0.0007625722
79	0x39f40d6f	0.00046549315
80	0xb8b5fd12	-8.6778906e-05
81	0x3af70adf	0.0018847844
82	0xb62f3fe3	-2.611422e-06
83	0x3a3da910	0.000723497
84	0x3abe9eac	0.0014543138
85	0x3aa99f68	0.0012941184
86	0x3a85af64	0.0010199365
87	0xbc2f344f	-0.010693624
88	0x3b069074	0.0020532878
89	0xb9bcdbe2	-0.0003602198
90	0x39e9958f	0.00044552653
91	0x397b54a7	0.00023968761
92	0x3ac1bdcf	0.0014781299
93	0xbbfb8d98	-0.0076767914
94	0x3aa21587	0.0012366035
95	0x3969f50b	0.00022311897
96	0x39820152	0.00024796516
97	0x3ac06b98	0.0014680503
98	0xbc1f9bbc	-0.00974172
99	0x39b2233b	0.00033977054
100	0x39cc5a44	0.00038977165
101	0xb881a9b7	-6.182811e-05
102	0x39873807	0.0002579095
103	0x3a6d5e99	0.00090549287
104	0x3aa3ca7d	0.0012496259
105	0xb931b2fd	-0.00016946714
106	0xba9e4216	-0.0012074139
107	0xbb8381cd	-0.004013276
108	0xba09b14c	-0.00052525545
109	0x3738247c	1.0975749e-05
110	0x3a8516d6	0.00101539
111	0x3a624d84	0.00086327665
112	0xbb76fc54	-0.003768702
113	0x3adeb39c	0.0016990784
114	0x395c3d89	0.00021003759
115	0x3a9d7583	0.0012013171
116	0xba29d00d	-0.00064778404
117	0xbc01dbcd	-0.00792594
118	0x36f42ec0	7.277209e-06
119	0xb940b205	-0.00018376864
120	0x3a9c4443	0.0011922199
121	0xb7ab96e2	-2.0455049e-05
122	0x3a2a9ce3	0.00065083633
123	0xb955962e	-0.00020369209
124	0xbb1f44e9	-0.0024302548
125	0xba79fb73	-0.0009536065
126	0x3a632c92	0.0008666004
127	0x3a60632e	0.0008559701
128	0xbbac9b45	-0.005267533
129	0x3af27fc5	0.0018501213
130	0x3a2bf579	0.00065597106
131	0x3a58cd13	0.00082703045
132	0x39252f5c	0.00015753269
133	0x3a92b326	0.0011192306
134	0x3b19a0d6	0.0023441813
135	0xbc111e24	-0.008857284
136	0xbad3beeb	-0.001615492
137	0x3a9de607	0.0012046703
138	0x3769a480	1.3926183e-05
139	0xba1a542b	-0.0005887176
140	0xb99c18b8	-0.00029773056
141	0x3b17d394	0.0023166882
142	0xba449826	-0.00074994785
143	0x396a6a2e	0.00022355534
144	0x38eb03fd	0.00011206416
145	0xbb606075	-0.003423718
146	0x3a99e1a1	0.0011740216
147	0x3abdf84f	0.0014493557
148	0x3a1d556e	0.0006001805
149	0x3a55c085	0.0008153993
150	0x39d20059	0.0004005458
151	0xba0498dd	-0.0005058179
152	0x38d4e7a7	0.000101520964
153	0x39ec7f5e	0.00045108324
154	0x3add9c18	0.0016907481
155	0xbb5f9010	-0.0034112968
156	0x3a0caad0	0.0005366029
157	0xba78511c	-0.00094725355
158	0x3a648ecc	0.0008718788
159	0x3ac6055d	0.00151078
160	0x39230d40	0.00015549827
161	0x399e3bd3	0.0003018068
162	0xba0111c5	-0.00049236073
163	0xba7c79bc	-0.0009631177
164	0x3ab9debf	0.0014180763
165	0x3a3aa7c8	0.0007120338
166	0x3ab220d5	0.0013590107
167	0xba7f8007	-0.00097465556
168	0x3a728376	0.00092511566
169	0xb9b32421	-0.0003416846
170	0x3a61c810	0.00086128805
171	0x37c3b0d5	2.3328155e-05
172	0x3994a503	0.00028351703
173	0xb9e86726	-0.0004432734
174	0xba9296c8	-0.0011183852
175	0x3afdeb7e	0.001937255
176	0x3b030563	0.0019992224
177	0xbbff9ba6	-0.007800537
178	0xb99f1674	-0.00030343572
179	0x36df3d22	6.6530347e-06
180	0xbac01dfb	-0.0014657372
181	0x397f78cb	0.00024363694
182	0xb81a9018	-3.685066e-05
183	0xbb1f1d82	-0.0024279063
184	0x3a2f7e04	0.0006694498
185	0xbc15578b	-0.00911511
186	0xbb5d27a5	-0.0033745554
187	0x3a710485	0.0009194094
188	0x392f1d6d	0.00016700262
189	0xbab225ae	-0.0013591552
190	0xbbea4b23	-0.0071500703
191	0x3a2d610f	0.0006613889
192	0xba40dd68	-0.0007357211
193	0xbbecd9e1	-0.0072281216
194	0x3a253527	0.0006302171
195	0xb8f7c2c1	-0.000118141535
196	0x394982e5	0.00019217616
197	0x3aa8c792	0.0012876859
198	0x3a40859a	0.0007344127
199	0x3a2363f9	0.00062328536
200	0xbbf915e4	-0.0076014865
201	0xb9c20718	-0.0003700785
202	0x3a7530a6	0.00093532575
203	0x3aa71d0d	0.0012749747
204	0x3a5ec085	0.00084973156
205	0x3aeca509	0.0018054555
206	0xbaf21718	-0.0018470017
207	0xba0db78a	-0.00054060726
208	0x3a96791c	0.0011480185
209	0xbb12ef8c	-0.0022420613
210	0xb874049f	-5.8178437e-05
211	0x38fff3cb	0.000122047575
212	0x39b4d21b	0.00034488816
213	0xbb6a5566	-0.0035756468
214	0xb9f0d8e9	-0.00045937978
215	0x3a35234c	0.00069098617
216	0x3a8a9c55	0.0010575155
217	0xb7bd7f52	-2.2589844e-05
218	0xb8cc5d7a	-9.7448894e-05
219	0x3ac524a2	0.0015040825
220	0x3ab94ccc	0.0014137267
221	0xb98c4202	-0.0002675206
222	0x39512ef9	0.00019949292
223	0x39808469	0.00024512716
224	0x39c057dc	0.00036686554
225	0xb912138e	-0.0001393093
226	0x3ab4ca61	0.0013793224
227	0xb86067f1	-5.3502565e-05
228	0xbbc8002d	-0.0061035366
229	0xbb49c69f	-0.0030788553
230	0xbaa45a2e	-0.0012539083
231	0x3adb401c	0.001672748
232	0x3a9b2a88	0.0011838237
233	0x3a1008a9	0.00054944545
234	0x3a8bd785	0.0010669088
235	0x3aff5d4b	0.001948276
236	0x37a4565a	1.9590534e-05
237	0x38a1e9b5	7.7206096e-05
238	0xbbe5aa0f	-0.007008798
239	0x3a1d9ad7	0.00060121476
240	0x39e7eed7	0.00044237703
241	0xbab75d88	-0.0013989666
242	0x3a7b6b74	0.0009590902
243	0x3a309387	0.00067358505
244	0x37fd1377	3.0169014e-05
245	0x3a0a8a1f	0.0005284864
246	0x3916e32e	0.00014389746
247	0x39c357e5	0.00037258785
248	0xbba361a4	-0.004986005
249	0xba343d2a	-0.0006875569
250	0xb94b29ff	-0.00019375233
251	0xbb6601df	-0.003509633
252	0x399fdcc6	0.00030491332
253	0xbbe6429f	-0.007026985
254	0xba81f0cd	-0.0009913683
255	0xb6199048	-2.288276e-06

actor_mean.bias f4 [2]
0	0x3b0f8b51	0.0021903107
1	0x3ae45ad0	0.0017422084

critic_value.weight f4 [1, 256]
0	0x3a46d666	0.00075850484
1	0x3a109966	0.0005516022
2	0xb9b84575	-0.00035146964
3	0x3972fb59	0.00023172553
4	0x3c8b264e	0.016986039
5	0x3c8b1397	0.016977115
6	0xba0a7785	-0.0005282092
7	0xb8fb6f5e	-0.000119893564
8	0x3c9042b2	0.017609928
9	0x3c878f33	0.016547775
10	0xbcec21ea	-0.028824765
11	0x3c8d31e6	0.017235707
12	0xba9fbd83	-0.0012187216
13	0x3c8c34ce	0.017115023
14	0x3a329c3e	0.0006813443
15	0x3c8cf8d3	0.017208492
16	0xba2d83e8	-0.0006619082
17	0xbaa515b2	-0.0012594967
18	0xba640c75	-0.0008699366
19	0x3c885a6c	0.016644679
20	0x3c903244	0.017602094
21	0x3a762fea	0.0009391295
22	0x3c8d45b2	0.017245147
23	0x3c8c40ca	0.017120738
24	0x3a36ce67	0.00069735054
25	0xb97579b2	-0.00023410356
26	0x3c8a20c5	0.016861329
27	0xb9070891	-0.00012877795
28	0x3c88e17a	0.016709078
29	0x39456dc2	0.00018828272
30	0x3c8d67fa	0.017261494
31	0xb9eff764	-0.00045769953
32	0x3c7f9703	0.015599969
33	0x3c88039a	0.01660328
34	0x39fa1e8d	0.00047706478
35	0x3a83d231	0.0010057149
36	0x39973ff4	0.00028848613
37	0xbd292eb5	-0.04130431
38	0x3c904d09	0.017614858
39	0x390875b9	0.00013013826
40	0x3c901c5f	0.017591653
41	0x3c8d5f34	0.01725731
42	0xba0b73b3	-0.000531967
43	0x3a17fa10	0.0005797455
44	0x3c885e23	0.01664645
45	0x3c8894a9	0.01667245
46	0x3c8fb56e	0.017542567
47	0xbcf6ff8f	-0.030151157
48	0x3c8c9afd	0.017163748
49	0x3c881e3e	0.016615983
50	0x3c8baae1	0.017049255
51	0x3c89bed2	0.016814623
52	0x39906e7c	0.00027548138
53	0xba0eb0e3	-0.00054432283
54	0xbceda50b	-0.029009363
55	0x3c8b8a1f	0.017033635
56	0x3c8a1f36	0.016860586
57	0xb95f6bde	-0.00021307121
58	0x3c7b371d	0.015332964
59	0x3c89aaa7	0.016805006
60	0xb9afbac9	-0.00033517767
61	0x3c89515c	0.016762428
62	0xba304103	-0.00067235547
63	0x3c8a83c4	0.016908534
64	0x38c03cb2	9.166579e-05
65	0xb82a8294	-4.065277e-05
66	0xb9f640ab	-0.00046968958
67	0x3c894a4b	0.016759058
68	0xba24e7bf	-0.00062906364
69	0x3c927a24	0.017880507
70	0x3c8a8344	0.016908295
71	0x39e9b9e0	0.0004457971
72	0xbd02c83d	-0.031929243
73	0x38cc944d	9.755101e-05
74	0xb91c0420	-0.00014878856
75	0xb9a632c0	-0.000316998
76	0x3c707e64	0.014678571
77	0x3c8a1adc	0.01685851
78	0x3c87efbe	0.01659381
79	0x3c883ad1	0.016629608
80	0xb9296d82	-0.00016157891
81	0x3c896b79	0.01677488
82	0xb960a99d	-0.0002142549
83	0xb9cb3600	-0.0003875941
84	0x3c8e80b9	0.017395364
85	0x3c872f9c	0.016502194
86	0x3c8eca02	0.01743031
87	0xbcfce1ea	-0.030869443
88	0x3c895064	0.016761966
89	0x3c8d71c2	0.017266158
90	0x3c85ffd5	0.016357342
91	0x3c8a9599	0.016917037
92	0x3c907dfd	0.0176382
93	0xbce1f941	-0.027584674
94	0x3c88c633	0.016696071
95	0x3a3c578d	0.0007184677
96	0x3c91595c	0.017742805
97	0xbad24ef8	-0.0016045263
98	0xbd1106d0	-0.035406888
99	0x39906950	0.00027544284
100	0x3c8bd4d8	0.017069265
101	0xba47a246	-0.0007615428
102	0x3c8ed933	0.017437553
103	0xb9560818	-0.00020411646
104	0x3c8ff1a4	0.017571278
105	0xb8f90ef9	-0.00011876034
106	0xb967c8c7	-0.00022104672
107	0xbd0c3750	-0.034232438
108	0xbc06e2a1	-0.0082327435
109	0xba4e6ccd	-0.0007874489
110	0xb8354339	-4.321637e-05
111	0xb81e9a7a	-3.7814003e-05
112	0xbcf42252	-0.029801521
113	0xb8f54ec9	-0.00011697185
114	0xb99d92f7	-0.0003005487
115	0x3c8deae8	0.017323926
116	0x3971fc74	0.00023077597
117	0xbcea1536	-0.028574567
118	0xba80f35d	-0.0009838153
119	0xba9098f6	-0.0011031914
120	0xb75b8bce	-1.3085968e-05
121	0x3c8d4675	0.01724551
122	0xb97bab92	-0.0002400114
123	0xbab864db	-0.0014068143
124	0x3c6c2ec3	0.014415446
125	0x3c888245	0.01666368
126	0x3c8ac281	0.01693845
127	0xba334b02	-0.0006839485
128	0xbcca2db5	-0.024679998
129	0x3c8834b7	0.016626699
130	0xb9293007	-0.00016134988
131	0xb8e5544f	-0.000109352746
132	0x3c8b2d52	0.016989384
133	0x3c87d8b5	0.016582826
134	0x3c8a9874	0.016918398
135	0xbcecb402	-0.028894428
136	0xb8d079a0	-9.940867e-05
137	0xb985c580	-0.00025514886
138	0xbab2b5f5	-0.001363455
139	0x3c86ca4c	0.016453885
140	0xba6fcd6b	-0.0009147736
141	0x3c876ca3	0.016531294
142	0x3a44dfb7	0.0007510143
143	0x3c868585	0.016421089
144	0x3c873d77	0.0165088
145	0x3c6abec1	0.014327706
146	0x3c8aa953	0.016926443
147	0x3c8c221b	0.017106107
148	0x3c8a50e8	0.016884282
149	0x3c8dd925	0.017315457
150	0x3c85d83a	0.016338456
151	0xb97d81ef	-0.00024176364
152	0xb64eba77	-3.080493e-06
153	0x3c869f22	0.016433302
154	0x39df2e82	0.00042568526
155	0x3c544996	0.012956997
156	0x383801c7	4.3870674e-05
157	0xbb1c19e6	-0.0023819148
158	0x3c8ba944	0.017048486
159	0x3c889048	0.016670361
160	0xb9a3cabf	-0.0003124084
161	0x3c8db7c3	0.017299538
162	0xba811d4b	-0.0009850649
163	0x383f6d7c	4.5639914e-05
164	0x3c88cd52	0.016699467
165	0x3c8cca1c	0.017186217
166	0x3c8c193e	0.01710188
167	0xba40e2c0	-0.0007358007
168	0xb9cc28cb	-0.00038940305
169	0xb98f6a8e	-0.00027354475
170	0x3c883b5d	0.01662987
171	0xb9b18e71	-0.00033866198
172	0x3c89d605	0.016825685
173	0xba678127	-0.0008831196
174	0xba0cf1d6	-0.00053766125
175	0x3c8b38bd	0.016994828
176	0x3c89aca5	0.016805956
177	0xbd0ac482	-0.03387881
178	0xb8edd677	-0.00011340988
179	0xba34bd7e	-0.00068946916
180	0x3c763c58	0.0150290355
181	0xb9e0455b	-0.00042776283
182	0x3a4dcde4	0.00078508095
183	0x3c70ca6c	0.014696699
184	0x3998233d	0.00029017954
185	0xbcf5f269	-0.030022817
186	0x3c70de99	0.014701509
187	0x3c88f04e	0.016716149
188	0x3911fe2d	0.00013922965
189	0xb923de17	-0.00015627626
190	0xbce37d85	-0.027769813
191	0x3c87aa13	0.01656059
192	0x3a54dfd5	0.0008120512
193	0xbd05369b	-0.03252278
194	0xba2c09ac	-0.00065627205
195	0xba312b82	-0.00067584973
196	0x3a36bce4	0.0006970896
197	0xb9c172d9	-0.00036897397
198	0x3c8883f4	0.016664483
199	0xb8f068b5	-0.00011463595
200	0xbcfcb782	-0.030849222
201	0x390a4ab7	0.00013188539
202	0x3c8c3e8e	0.017119672
203	0x3c8955af	0.01676449
204	0x3c8b795e	0.017025646
205	0x3c89cbfe	0.016820904
206	0x3c7a711d	0.015285757
207	0x39edb3cd	0.00045338125
208	0x39507958	0.0001988163
209	0x3c73bcab	0.014876525
210	0xb9270663	-0.0001592874
211	0x38bbdff6	8.958571e-05
212	0xb9881b6a	-0.00025960366
213	0xbce6b0db	-0.028160503
214	0x39c9b36e	0.00038471393
215	0x3c8e819b	0.017395785
216	0x3c8b3475	0.016992787
217	0xba0a80a3	-0.00052834506
218	0x3c8a8e7c	0.016913645
219	0x3c8d1df6	0.0172262
220	0x3c90d209	0.017678278
221	0x37375d3b	1.0929357e-05
222	0x38577660	5.137024e-05
223	0xb79feaa6	-1.9063544e-05
224	0xba055805	-0.00050866633
225	0x3c7cabf8	0.01542186
226	0xb9d4ce7d	-0.00040589637
227	0xb9a6ac3e	-0.00031790318
228	0xbd00aa49	-0.031412397
229	0xbd17baf2	-0.03704352
230	0x3c784b30	0.015154645
231	0x3c89541c	0.01676374
232	0x3c876a7a	0.016530264
233	0x3c8a8dff	0.016913412
234	0x3c8ca971	0.01717064
235	0x3c877446	0.016534936
236	0x3c919874	0.01777289
237	0xba55bdd8	-0.0008153594
238	0xbce7be6d	-0.028289044
239	0xb99fbc56	-0.00030467164
240	0x3aac9afd	0.0013168749
241	0x3c7fdbd1	0.015616373
242	0x3c895cca	0.016767878
243	0x3c87f81a	0.016597796
244	0x3a916f9d	0.0011095885
245	0x397d2922	0.00024143283
246	0x38dcc2b9	0.000105266874
247	0xba534e59	-0.0008060686
248	0xbcb5def7	-0.022201044
249	0x3c88564c	0.016642712
250	0x3c865ecb	0.016402623
251	0xbcdddb8c	-0.027082227
252	0xb8a6519d	-7.9306985e-05
253	0xbcfbdea5	-0.030745814
254	0x39acaae4	0.0003293372
255	0x3c8cbd2c	0.017180048

exp_avg f4 [1, 2]
0	0x3bd7c8da	0.0065852227
1	0xbc3be2d6	-0.011467656

exp_avg_sq f4 [1, 2]
0	0x3a7fef4f	0.0009763138
1	0x3a628eef	0.00086425146

exp_avg f4 [256, 50]
0	0xb99c0597	-0.00029758803
1	0xb9f98a8d	-0.0004759621
2	0xb9cd4abe	-0.00039156334
3	0x393ffa9f	0.00018308543
4	0x39a69bed	0.0003177816
5	0xb894b3b0	-7.090659e-05
6	0xb73c773d	-1.12334355e-05
7	0x39bef8f1	0.000364251
8	0x39780678	0.00023653533
9	0x377960bf	1.4864082e-05
10	0xb760c704	-1.3397777e-05
11	0xb7dd029f	-2.6346474e-05
12	0xb81d58d5	-3.751445e-05
13	0xb84ba9e7	-4.8557205e-05
14	0xb87b4338	-5.9905666e-05
15	0xb8a3cda9	-7.810753e-05
16	0xb952a518	-0.00020088663
17	0xb993faf0	-0.00028224988
18	0xb948f245	-0.00019163739
19	0x38d2c245	0.00010049766
20	0x398a7f39	0.000264162
21	0xb88d4fa7	-6.73824e-05
22	0x38caaa10	9.663787e-05
23	0x39b616e4	0.000347308
24	0x39813c39	0.00024649667
25	0x3784bb66	1.582289e-05
26	0xb740c2e5	-1.1489469e-05
27	0xb7c96728	-2.4009103e-05
28	0xb8120f8a	-3.4823584e-05
29	0xb83e9209	-4.5435536e-05
30	0xb86c50d6	-5.634207e-05
31	0xb899c39c	-7.3320436e-05
32	0xb95135f0	-0.00019951886
33	0xb983faf4	-0.00025173242
34	0xb96925b7	-0.00022234661
35	0xb86fdced	-5.7187794e-05
36	0x3911b59f	0.00013895937
37	0xb8ccba1b	-9.762143e-05
38	0xb6a46b8d	-4.9001014e-06
39	0x39679e6c	0.00022088893
40	0x39399141	0.00017697086
41	0x36f61d52	7.3347846e-06
42	0xb7a45eae	-1.9594412e-05
43	0xb8068cae	-3.2079108e-05
44	0xb8351b47	-4.3179167e-05
45	0xb8643162	-5.4405427e-05
46	0xb88d4d4c	-6.7378016e-05
47	0xb8b561cf	-8.648971e-05
48	0x38f5b709	0.00011716603
49	0xb803b5c1	-3.1402105e-05
50	0xb992362c	-0.0002788765
51	0xb9ea6484	-0.00044706848
52	0xb9bf509a	-0.00036490412
53	0x393c2f4e	0.000179467
54	0x399dba1b	0.00030084033
55	0xb895ed6b	-7.149096e-05
56	0xb74cabe3	-1.2199368e-05
57	0x39b689ba	0.0003481636
58	0x396d4985	0.0002262947
59	0x376f5370	1.4264937e-05
60	0xb7547443	-1.2663254e-05
61	0xb7d195ff	-2.4984589e-05
62	0xb815558d	-3.5604044e-05
63	0xb8416387	-4.6107478e-05
64	0xb86eb215	-5.6909474e-05
65	0xb89b9c23	-7.420059e-05
66	0xb9418ba3	-0.00018457933
67	0xb9878c01	-0.00025853518
68	0xb9312ebb	-0.00016897444
69	0x38d21597	0.00010017602
70	0x3982a135	0.0002491564
71	0xb88d7366	-6.7448986e-05
72	0x38bd7310	9.033654e-05
73	0x39ade0e1	0.0003316468
74	0x3977ad41	0.00023620298
75	0x378063af	1.5305208e-05
76	0xb733e3d2	-1.0722275e-05
77	0xb7bdd4f1	-2.2629714e-05
78	0xb80a01b8	-3.2903365e-05
79	0xb8344bf6	-4.298609e-05
80	0xb85fb896	-5.3339252e-05
81	0xb8919e86	-6.943666e-05
82	0xb906f2c5	-0.00012869675
83	0xb9096781	-0.00013103896
84	0xb8e041cd	-0.00010693409
85	0xb7ed0a16	-2.8257298e-05
86	0x39133fe4	0.00014042814
87	0xb8bb3151	-8.926041e-05
88	0xb5925432	-1.0902352e-06
89	0x3961f21f	0.00021547869
90	0x3936d808	0.0001743735
91	0x3745c343	1.1787578e-05
92	0xb76abe07	-1.3991731e-05
93	0xb7d872d5	-2.580268e-05
94	0xb8176d6c	-3.6103113e-05
95	0xb8427979	-4.6366335e-05
96	0xb871f015	-5.768247e-05
97	0xb89c3b42	-7.449697e-05
98	0x38ed6f56	0.000113217786
99	0xb7f97fc0	-2.9742601e-05
100	0x39a8e8d2	0.00032216922
101	0x3a6dd5ac	0.0009072672
102	0x3a4e6bd3	0.00078743434
103	0x3989a94d	0.00026256815
104	0x399951cb	0.00029243375
105	0x394f5ed3	0.00019776383
106	0x39277d9d	0.00015973156
107	0x391221b1	0.00013936196
108	0x39063969	0.00012800623
109	0x39008b03	0.00012258817
110	0x38ffb0a2	0.00012192248
111	0x3903f51c	0.00012584444
112	0x390dad1d	0.00013511298
113	0x391ccfd6	0.00014954744
114	0x3940d313	0.00018389178
115	0x39760a95	0.0002346433
116	0x38c148f0	9.216543e-05
117	0x39e552ea	0.0004374006
118	0x39a6bf50	0.00031804526
119	0x3a029101	0.0004980714
120	0x398cbb42	0.000268424
121	0x393d84a9	0.00018073864
122	0x3918f526	0.00014587175
123	0x3905a088	0.00012743671
124	0x38f5f621	0.000117283555
125	0x38ec1745	0.00011257691
126	0x38eb6b77	0.0001122569
127	0x38f3bb35	0.00011622013
128	0x3903553b	0.00012524884
129	0x39120c5a	0.00013928246
130	0x39350485	0.00017263189
131	0x3967b9a2	0.0002209903
132	0xba78c400	-0.00094896555
133	0xbac703ac	-0.001518359
134	0xbab2be56	-0.0013637047
135	0x39e14b44	0.00042971421
136	0x391204fc	0.00013925502
137	0x389df80e	7.532547e-05
138	0x38752691	5.844847e-05
139	0x38560661	5.1027517e-05
140	0x3846d30b	4.7403428e-05
141	0x38415712	4.6095876e-05
142	0x3843bd84	4.6668123e-05
143	0x384e3f8d	4.9173414e-05
144	0x38630650	5.4126896e-05
145	0x38817ed3	6.174822e-05
146	0x38a6f8b5	7.961822e-05
147	0x38e0de6c	0.00010722582
148	0xb9ced930	-0.000394532
149	0x382f65e4	4.1818144e-05
150	0xb99afe6f	-0.00029562737
151	0xb9f7c51e	-0.00047258375
152	0xb9cc494a	-0.00038964517
153	0x393cb2d2	0.00017995693
154	0x39a5243b	0.00031498246
155	0xb89188c8	-6.939616e-05
156	0xb73077da	-1.0518323e-05
157	0x39bd308f	0.00036085068
158	0x3975a87f	0.0002342779
159	0x3777572f	1.4742646e-05
160	0xb75e89c8	-1.3264311e-05
161	0xb7daf1b1	-2.6100171e-05
162	0xb81be788	-3.717051e-05
163	0xb849cfbe	-4.811561e-05
164	0xb878f7c3	-5.9358554e-05
165	0xb8a24d59	-7.739169e-05
166	0xb951d91a	-0.0002001267
167	0xb99371e9	-0.00028122895
168	0xb949c9e1	-0.0001924406
169	0x38ce3a96	9.833758e-05
170	0x3989582d	0.00026196372
171	0xb88a5828	-6.596773e-05
172	0x38ca2d54	9.6405536e-05
173	0x39b47084	0.00034416106
174	0x397feeb2	0.00024407616
175	0x37838252	1.5677102e-05
176	0xb73f13ce	-1.1389098e-05
177	0xb7c7a6eb	-2.3800376e-05
178	0xb810cb0c	-3.4521378e-05
179	0xb83ce9fd	-4.504061e-05
180	0xb86a3ec4	-5.5848403e-05
181	0xb89866c8	-7.267069e-05
182	0xb960fd5a	-0.00021456685
183	0xb992ac75	-0.0002797578
184	0xb9831543	-0.00025002108
185	0xb88686ab	-6.414702e-05
186	0x390d5867	0.0001347974
187	0xb8cdc648	-9.8120945e-05
188	0xb6c62d46	-5.9061304e-06
189	0x3964232e	0.0002175688
190	0x39365324	0.00017387845
191	0x36c7ab1a	5.950581e-06
192	0xb7adb293	-2.0706362e-05
193	0xb80ad76c	-3.310239e-05
194	0xb8394b7f	-4.417775e-05
195	0xb86875c3	-5.5422784e-05
196	0xb88fcce6	-6.856937e-05
197	0xb8b85057	-8.788768e-05
198	0x38f293bd	0.000115669776
199	0xb802f5df	-3.12234e-05
200	0xb9981bca	-0.00029012404
201	0xb9f2c3cc	-0.00046303717
202	0xb9c905c2	-0.00038341997
203	0x3935162f	0.00017269769
204	0x39a2058d	0.00030903184
205	0xb8850996	-6.34372e-05
206	0xb701e469	-7.74218e-06
207	0x39b82965	0.00035126056
208	0x396f0e21	0.0002279808
209	0x3775ff32	1.4662555e-05
210	0xb7542518	-1.2644821e-05
211	0xb7d322c3	-2.5169347e-05
212	0xb816d37c	-3.5959747e-05
213	0xb8438205	-4.6612713e-05
214	0xb87143b2	-5.7521924e-05
215	0xb89d637c	-7.504874e-05
216	0xb9505b75	-0.00019870496
217	0xb992a8b1	-0.00027972975
218	0xb94ce463	-0.00019540037
219	0x38c56e68	9.414257e-05
220	0x3987344b	0.00025788168
221	0xb87d6cd7	-6.0421266e-05
222	0x38ca5c08	9.649253e-05
223	0x39afc7b7	0.000335274
224	0x3978d0b0	0.00023728865
225	0x378200e0	1.5497615e-05
226	0xb736c6aa	-1.08943e-05
227	0xb7c1054e	-2.3009863e-05
228	0xb80c5e65	-3.3466513e-05
229	0xb837571f	-4.3711738e-05
230	0xb863643d	-5.421437e-05
231	0xb894041e	-7.057957e-05
232	0xb98922ac	-0.0002615651
233	0xb9c02293	-0.00036646854
234	0xb9aede16	-0.00033353333
235	0xb8ad6d3e	-8.269631e-05
236	0x3902facb	0.00012491194
237	0xb8cd8283	-9.7994714e-05
238	0xb7073210	-8.058283e-06
239	0x395a26de	0.00020804579
240	0x392cefbd	0.00016492508
241	0x3606f10d	2.0107866e-06
242	0xb7c862bf	-2.388784e-05
243	0xb8173253	-3.6048074e-05
244	0xb8456c9e	-4.7069618e-05
245	0xb874e049	-5.8383015e-05
246	0xb8971da6	-7.2057635e-05
247	0xb8c0ffe2	-9.202935e-05
248	0x38e8d530	0.00011102331
249	0xb7fe2db9	-3.030045e-05
250	0x39a67951	0.00031752375
251	0x3a688855	0.0008870413
252	0x3a4e638a	0.0007873109
253	0x3993ab55	0.00028165677
254	0x3998b1d5	0.00029124194
255	0x394e86be	0.00019695886
