controllers/rl_control/checkpoint_episode_1700.pth (torch, 967018 bytes, 24 tensors)

actor_log_std f4 [1, 2]
00000000: 249a 753b 846a 863b
0.0037475908 0.004102053

shared_fc1.weight f4 [256, 50]
00000000: 662e 2639 a50c 92ba c52d c338 2a48 1cba
00000010: 94e6 983a 3067 0bba 14ac 9eb9 a0aa dcb9
00000020: 14db 0138 b892 9eb7 1c1b 2aba 85f9 9639
00000030: 47bc 38b9 736f dcb9 ea9a 70b9 2931 b0b8
00000040: 23d9 9a3a 4507 e438 eb2c 2dba a4e5 92b9
00000050: c09a 53ba 4acb 7aba 2606 793a 6818 033a
00000060: c973 1d39 5c05 11b8 1406 ec38 129f bdb9
00000070: fe8a 26ba 727b c439 1f42 9e38 ee16 67b9
00000080: dcc0 87b9 58d4 9bb8 94bf 0339 b33e 773a
00000090: 0406 9839 14d9 80ba 74d6 b7b9 fd28 e5ba
000000a0: e4a1 a0b9 33ba 50ba 74f1 86b9 9969 8339
000000b0: 4d62 2fb9 bbf2 8739 389d 503a e64f b6b8
000000c0: 179f b9b9 a621 5c36 02a7 c93c c7f8 d73c
000000d0: b883 d53c 35e6 d63c c39e e13c 628f e93c
000000e0: 2d93 f93c df42 ef3c 4cd4 ca3c 03f2 bf3c
000000f0: 4ce6 aa3c e1b6 8c3c 7314 803c 2a10 623c
00000100: 678e 643c 0a2e 673c 0bc6 c93c 341c d33c
00000110: 71a3 cd3c 73f1 da3c 7f02 d63c 595f e83c
00000120: ddc5 f93c bda3 e83c 59f8 bf3c b54a cc3c
00000130: 5b13 a63c dce7 8a3c f4ff 7b3c f44f 573c
00000140: 939f 5d3c 96e4 483c e921 063d 25f5 043d
00000150: 46ef 013d 0978 013d 3616 fb3c fc87 f73c
00000160: 921b f73c a4b6 f63c 3208 dc3c 3426 dd3c
00000170: b35e c83c 0155 b63c 4621 af3c bd65 a43c
00000180: 3c69 bc3c abf8 f03c 2cb6 9f3c 149f b13a
00000190: 034c cf3c 1f01 db3c a0a4 d43c 73fd d33c
000001a0: 9dd4 e03c a8f8 eb3c 4551 f83c b890 e83c
000001b0: cbae c63c 9610 c13c d6d8 a13c 00d6 943c
000001c0: 44d7 633c 48f2 573c ea56 403c 43a1 513c
000001d0: b900 d43c 8d5c ce3c ae38 d33c 3767 d43c
000001e0: fc7b d33c 15e2 e03c 1baa 003d b80b f03c
000001f0: b349 ce3c 7072 bf3c 4264 b03c 6c25 8a3c
00000200: 3902 763c d522 533c ec7e 4b3c 2c2d 603c
00000210: f099 093d 0e20 ff3c 178b 073d fb0f f63c
00000220: 8959 f63c e155 f73c 3f23 fe3c 3992 f53c
00000230: b4ef dc3c c8f4 d73c a822 ca3c 2adf c33c
00000240: 74f1 b33c c666 ab3c 2bfb b93c ed0a f33c
00000250: eb3d a03c 0260 073b f87f cf3c 84b7 d23c
00000260: a052 c93c a0e8 d93c dce7 d83c a8f3 ef3c
00000270: 662c f03c 11ed e63c a781 cf3c 6cf9 c33c
00000280: 73c5 a53c 6eb2 8d3c 3928 7d3c c761 563c
00000290: 74ea 443c e3f6 5c3c 9583 d13c 5edc c83c
000002a0: 877a dc3c 0456 d03c d7ee e03c 9695 e53c
000002b0: 1450 fd3c 5cf8 ec3c fee5 cd3c 3de4 c13c
000002c0: fef2 a83c b798 913c 4191 7c3c 2114 683c
000002d0: 1301 513c db28 5e3c 6981 093d 0f63 023d
000002e0: e37d f63c c901 fb3c 26b3 f73c b98b f73c
000002f0: 10ba f83c 1210 f63c 188d e33c 867e d73c
00000300: 2bb3 c53c a3b3 ba3c 6c81 b03c 5022 a23c
00000310: 0a20 bc3c d50c f83c e3f8 9c3c 217a 653a
00000320: ddb6 dc3c 3cf6 d53c 16c8 dd3c 6365 e73c
00000330: 32f4 e53c 6e75 fa3c 85bf 013d 34bc f63c
00000340: 6abf d63c 84f5 d33c de24 a03c 5e1c 8b3c
00000350: dda4 613c 55b4 533c 000a 4c3c 7d64 4b3c
00000360: 055b cf3c d327 da3c 272e db3c e8b7 e23c
00000370: 1b41 ea3c 01a6 fc3c c773 033d a471 fa3c
00000380: 64d3 db3c 8134 d03c e628 b23c 7f41 893c
00000390: 030a 833c 54ad 583c 41af 443c f50d 443c
000003a0: 236f 0b3d 031e 093d 81c0 093d aba7 073d
000003b0: 230a 053d 5365 043d 9807 0b3d 0eb7 013d
000003c0: dabb eb3c bc49 e63c f680 d03c 1be3 b63c
000003d0: a147 a93c de0c 9a3c c33a be3c 63b7 fb3c
000003e0: 4d59 a13c 43dc 423a e63b cb3c 43d6 d03c
000003f0: 2ef1 d53c 83a4 d73c 35a6 d63c 73d0 e23c
0.00015848278 -0.0011142684 9.30685e-05 -0.0005961681 0.0011665397 -0.00053178053 -0.00030264317 -0.00042088795
3.096003e-05 -1.8903389e-05 -0.0006489025 0.00028796136 -0.00017617746 -0.00042044706 -0.00022945894 -8.401491e-05
0.0011813979 0.00010873241 -0.00066061196 -0.00028018386 -0.0008072071 -0.00095670356 0.00094995124 0.000500089
0.0001501582 -3.4575685e-05 0.00011254489 -0.00036167406 -0.0006353109 0.00037476007 7.546343e-05 -0.00022038419
-0.00025892898 -7.430528e-05 0.00012564502 0.0009431645 0.0002899618 -0.0009830319 -0.0003506426 -0.0017483529
-0.00030638196 -0.0007962316 -0.00025738368 0.00025064943 -0.0001672592 0.00025930055 0.0007957998 -8.6933185e-05
-0.0003540448 3.280214e-06 0.024615768 0.026363743 0.026063785 0.026232818 0.027541524 0.028510753
0.030465687 0.029206691 0.024759434 0.02343083 0.020861767 0.017177047 0.015634751 0.013797799
0.013949967 0.014110098 0.024630567 0.025770284 0.025102349 0.02672646 0.026124237 0.028365778
0.030489856 0.028398389 0.023433851 0.024937967 0.020272901 0.016956262 0.015380848 0.013141621
0.013526815 0.01226153 0.032747183 0.03246035 0.03172233 0.031608615 0.03065024 0.03021621
0.030164514 0.030116387 0.026859377 0.026995756 0.024459219 0.02225733 0.02137817 0.020068044
0.022999398 0.02941545 0.019496046 0.0013551437 0.0253048 0.026733933 0.025957406 0.02587769
0.027445132 0.028805092 0.03031219 0.02838932 0.02425327 0.02356748 0.019756716 0.01816845
0.013906304 0.013180323 0.011739472 0.012794795 0.02587925 0.025190616 0.025783863 0.025928123
0.025815956 0.027451554 0.031412225 0.029302463 0.025181627 0.023369998 0.021532182 0.016863547
0.015015178 0.012886723 0.012420397 0.013682645 0.033594072 0.031143215 0.03309163 0.030036917
0.03007199 0.030192317 0.031022666 0.029976951 0.026969768 0.026361838 0.024674729 0.023910124
0.02196572 0.02092303 0.022702774 0.029668296 0.019560775 0.002065659 0.025329575 0.025722273
0.024575531 0.026600182 0.026477747 0.029290989 0.029318046 0.028189214 0.025330378 0.023922645
0.020235753 0.017296996 0.015451484 0.013084835 0.012018789 0.013486597 0.025575439 0.024519142
0.026913894 0.02543164 0.027457638 0.02802543 0.030921973 0.02892702 0.025134083 0.023668403
0.02062368 0.017773015 0.015415491 0.014164955 0.012756604 0.013559545 0.03357068 0.03183275
0.030089324 0.0306405 0.030236792 0.030217992 0.030362159 0.03003696 0.02777724 0.026305448
0.024133286 0.022790736 0.021546088 0.019791752 0.022964496 0.030279556 0.019161647 0.00087538554
0.026942665 0.02611839 0.027072947 0.028246587 0.028070543 0.030573573 0.031676788 0.03011904
0.02621432 0.025873907 0.01954883 0.0169813 0.013772217 0.0129214125 0.012453556 0.012414095
0.025311956 0.026630318 0.026755406 0.027675584 0.028595498 0.030840876 0.032092836 0.030571766
0.026834197 0.02541566 0.021748018 0.016754864 0.015995985 0.013224918 0.012004674 0.011966218
0.034041535 0.033475887 0.03363085 0.033118885 0.03248037 0.032323193 0.03394279 0.031668715
0.028776098 0.028111331 0.025452118 0.02232509 0.020664038 0.018804964 0.02322138 0.030727094
0.019695902 0.0007433334 0.024808835 0.025492793 0.02611598 0.026323562 0.0262023 0.027687287

shared_fc1.bias f4 [256]
00000000: 0000 0000 c574 083d d8f4 083d 4fb5 073d
00000010: 811e 0d3d 4b3f 083d c166 083d 0000 0000
00000020: 70cb 083d 5e76 083d 2ac5 073d 0000 0000
00000030: e038 083d f583 073d 2fa7 093d 5ec7 083d
00000040: e6ad 083d 9044 0b37 fa98 0b3d 30b9 073d
00000050: a393 083d 12af 093d e532 0a3d 0000 0000
00000060: 5043 083d 6aa2 083d 9c07 073d acc5 083d
00000070: 07a1 083d 18b2 f6b8 0000 0000 fd68 083d
00000080: 1f95 0a3d 8866 56b8 c848 083d ec69 f63c
00000090: 3782 0c3d a8c5 073d 0000 0000 275f 083d
000000a0: 4997 0e3d c847 7eb8 916c 6cb5 440d 103d
000000b0: 7748 c3b9 9652 083d b212 073d 56dd e3b6
000000c0: df99 3bb9 1a91 083d e73c 0b3d 6094 083d
000000d0: bf2b 97b8 9b45 adb8 ff49 083d 15b7 8738
000000e0: d1d6 073d 275b 85b7 65bc 073d 0000 0000
000000f0: 30c0 073d cb26 083d ad09 b236 19f8 073d
00000100: e021 083d 9e52 123d 0000 0000 769b 073d
00000110: 5767 083d 3267 083d e3d1 073d cbe4 073d
00000120: 038b 083d 7d0f 0a3d 3e49 0e3d 232a 083d
00000130: dbc3 86b7 0993 0b3d efc5 27b8 9190 083d
00000140: 996b 083d c8d9 0d3d 387b 09b9 bf37 083d
00000150: 0000 0000 2b3b 10b9 9002 fab8 3bc4 083d
00000160: 4310 093d 2474 083d 8540 83b6 a665 8eb9
00000170: ceda 073d 135e adb9 4b54 073d 95b3 083d
00000180: ee5c 80b8 31f6 073d 3173 7bb9 0000 0000
00000190: 1636 083d 3033 083d 0bae 0a3d 0000 0000
000001a0: b683 093d 398b adb9 d71d 093d 2885 0a3d
000001b0: bc41 083d 2677 0c3d 4fb4 a5b7 af6d 083d
000001c0: 0032 d8b8 22f6 0d3d 4d4b 17ba de63 4bb7
000001d0: 79bb 073d d04a 083d e32c 083d 5358 0c3d
000001e0: 977a 073d fe9d 073d d03a 103d 19a9 073d
000001f0: f162 73b8 2710 0b3d f8a5 093d 5c68 5b36
00000200: 12ed 073d 2e07 083d bd3c 083d 58d1 0b3d
00000210: d152 87b8 abae 083d 449a b6b9 0b23 073d
00000220: 0000 0000 a51c 0e3d 98ed 073d 3da3 073d
00000230: 7f03 093d da1b b9b9 39d4 0a3d 611e 0a3d
00000240: e213 083d 671f acb8 3e88 103d ab25 083d
00000250: d487 093d 8d9f 083d 0752 53b9 5acd 9cb9
00000260: 0345 0d3d 1f3a cab8 4d48 eb3c c700 053d
00000270: 0795 bdb8 11ce 0a3d a22c 073d 4162 083d
00000280: 0000 0000 c4b9 0c3d 5eea 073d b7c4 0c3d
00000290: 398f 41b6 0000 0000 4837 083d f227 0d3d
000002a0: f8d1 f7b8 1aac 093d e052 b6b7 872e 0d3d
000002b0: b3a2 b8b9 c038 02b9 9039 0f3d 0d76 083d
000002c0: b7c4 073d 4e5d 083d 7f60 083d 3afe 0b3d
000002d0: 216b 083d 4f78 0a3d cbaa 083d 3445 083d
000002e0: 7be6 0a3d 2112 0d3d 0000 0000 572d 0e3d
000002f0: 3d1c 0c3d 17c0 073d b3be 083d 6902 0b3d
00000300: d9dc 083d f676 073d e3c9 093d 855d 083d
00000310: a65d 083d 0000 0000 dfe8 073d 9381 33b8
00000320: 77a7 0f3d d76f 0a3d 64f4 0f3d 538c 073d
00000330: 813e 083d 10cb 043d acd6 073d 6589 0a3d
00000340: b207 e63c af37 083d 1153 3bb8 fde7 0c3d
00000350: cd38 083d f464 043d 5f66 083d 0665 093d
00000360: c717 083d 4e31 083d ff8e 083d d105 0b3d
00000370: 53c5 073d 7436 5bb9 3e3e 093d 0000 0000
00000380: 6dfb 083d b170 083d 64b9 073d 123a 25b8
00000390: ad7f 083d c807 083d 469f 073d b785 94b7
000003a0: 4a5b 083d 8672 073d 3710 27ba 5182 15b9
000003b0: 6597 0f3d 1b1d 0f3d f80d 083d badc 32b9
000003c0: 05eb 073d 1be2 073d 1fe4 083d b03f 073d
000003d0: f424 0b3d 33b5 0b3d 2ef1 073d ae1b 083d
000003e0: 5ef8 8a38 b0df 62b4 0000 0000 0000 0000
000003f0: 8f89 0a3d 9589 0b3d 6905 083d c8a9 14b9
0.0 0.033314485 0.033436626 0.033131894 0.03445292 0.033263486 0.03330112 0.0
0.033397138 0.03331601 0.033147015 0.0 0.033257365 0.03308483 0.033606704 0.033393256
0.033368967 8.301009e-06 0.034081437 0.033135593 0.033343922 0.033614226 0.033739943 0.0
0.03326732 0.033358015 0.03296624 0.03339164 0.033356693 -0.00011763367 0.0 0.03330325
0.03383362 -5.1117066e-05 0.033272535 0.030079804 0.03430387 0.033147484 0.0 0.03329387
0.034812246 -6.062517e-05 -8.8074836e-07 0.0351689 -0.0003724729 0.033281885 0.032976814 -6.790894e-06
-0.00017891031 0.033341505 0.033993628 0.033344626 -7.2083894e-05 -8.262248e-05 0.033273693 6.471403e-05
0.03316385 -1.5897282e-05 0.03313865 0.0 0.03314227 0.03324012 5.30594e-06 0.03319559
0.03323543 0.03572332 0.0 0.033107243 0.033301678 0.03330154 0.033159148 0.03317718
0.033335697 0.033706177 0.034737818 0.03324331 -1.6065247e-05 0.03407577 -4.0000243e-05 0.033340994
0.033305738 0.03463152 -0.0001311124 0.03325629 0.0 -0.00013754952 -0.00011921406 0.033390265
0.033462774 0.033313885 -3.9116153e-06 -0.00027160085 0.033167653 -0.00033067222 0.033039372 0.033374388
-6.120825e-05 0.03319377 -0.00023980137 0.0 0.033254705 0.03325194 0.033857387 0.0
0.033572875 -0.0003310086 0.033475723 0.033818394 0.033265814 0.034293316 -1.9753496e-05 0.033307727
-0.00010308996 0.03465856 -0.00057714136 -1.2122995e-05 0.033137772 0.03327447 0.033245932 0.03426392
0.033075895 0.033109657 0.035212338 0.03312025 -5.802786e-05 0.03395095 0.033605546 3.2694288e-06
0.033185072 0.033209972 0.03326105 0.034135193 -6.4527274e-05 0.0333697 -0.00034828682 0.032992404
0.0 0.034695286 0.03318557 0.03311466 0.0334506 -0.000353067 0.033893798 0.033720378
0.033222087 -8.207448e-05 0.03528618 0.033239048 0.0335768 0.033355284 -0.00020153086 -0.00029907638
0.034489643 -9.6429365e-05 0.028721 0.032471444 -9.039981e-05 0.033887926 0.03300155 0.033296827
0.0 0.034356847 0.033182494 0.03436729 -2.8842608e-06 0.0 0.033255845 0.034461923
-0.000118169875 0.033611394 -2.1734682e-05 0.0344682 -0.00035216435 -0.00012418907 0.034967005 0.033315707
0.033146586 0.033292107 0.03329515 0.034177996 0.03330529 0.03380614 0.033366006 0.033269122
0.03391121 0.034441117 0.0 0.03471121 0.034206618 0.033142176 0.03338499 0.033937845
0.03341374 0.033072434 0.0336398 0.033292312 0.033292435 0.0 0.033181068 -4.27976e-05
0.035071816 0.033798065 0.03514518 0.033092808 0.033262733 0.032420218 0.03316371 0.033822436
0.028079841 0.03325623 -4.4661636e-05 0.03440093 0.033257294 0.03232284 0.033300754 0.03354361
0.0332258 0.033250146 0.033339497 0.033941094 0.033147167 -0.00020905753 0.033506624 0.0
0.033442903 0.033310596 0.033135787 -3.9393148e-05 0.033324886 0.033210546 0.03311088 -1.770524e-05
0.033290185 0.033068202 -0.00063729606 -0.00014258294 0.03505649 0.034939867 0.033216447 -0.0001705763
0.033183116 0.033174615 0.03342068 0.03301972 0.033970788 0.034108352 0.03318899 0.033229522
6.626615e-05 -2.1129267e-07 0.0 0.0 0.033822592 0.034066755 0.033208285 -0.00014177628

shared_fc2.weight f4 [256, 256]
00000000: ae2f ccb9 7027 d53c a345 cd3c a6af ce3c
00000010: d751 e33c ae87 d23c 44a5 d83c eb2e 22ba
00000020: d5ce d23c 8b6b d73c 71bb d03c 1934 dcb9
00000030: 812e d53c bc10 d03c 7b99 d73c 9352 d03c
00000040: a060 d83c 28dc b338 8858 db3c 100b d53c
00000050: d44f c83c 3dd3 ca3c 8261 cd3c ae08 2f3a
00000060: 9a56 cf3c 386c c93c 1c97 d63c 06dd c73c
00000070: fe01 dd3c b63d a5ba 5c4c 7339 77e4 d13c
00000080: fdaa d53c 609c 8839 b710 d93c ceb3 be3c
00000090: 9b89 e73c 2f22 d43c b08b 903a 8bd7 d33c
000000a0: 908a da3c 6a84 1f39 04a7 1fb9 d215 da3c
000000b0: 95bf b63a ce00 d33c b611 d13c a038 a3b9
000000c0: 2e4d 50b9 c93d ce3c b25a d93c b29b c83c
000000d0: c400 663a d9ab 30ba 29d5 cd3c f56f 6339
000000e0: a9f3 d43c 7fb6 98b9 bf94 d13c 74ae 7bba
000000f0: 683f d53c a419 d93c 55d4 13ba c4c4 cb3c
00000100: 9c71 da3c 1635 db3c 4086 72b9 4054 d23c
00000110: fa6e d83c 180e ce3c acf8 d43c e92d ce3c
00000120: 6159 d23c cadc d13c a40c dc3c 6734 d33c
00000130: e8eb b736 473f cf3c 3032 663a d242 cf3c
00000140: 4a9d d33c ecf0 dc3c 9080 48ba c13a d43c
00000150: 64e8 4d39 377c ad39 cd7b f4b8 45e5 cf3c
00000160: e2f1 ce3c 4958 ca3c c1aa 5f39 9b6d 94ba
00000170: baf4 d33c 2281 1a3a ccc8 cf3c 1d67 ce3c
00000180: a8e7 3539 b567 cf3c abd0 acb9 5d2f f73a
00000190: 03ce c93c 4c63 cb3c d750 d53c 4626 b0b9
000001a0: 785f d23c b5d0 a3ba d3f8 d63c c0c6 d23c
000001b0: 46ea d23c a322 d73c 8cd8 00b9 cf5d d03c
000001c0: 3b0c 2c3a f0a4 cd3c 66cb 86b9 38f1 3ab9
000001d0: 2138 d63c 786b d73c b8ca d33c 3bea dd3c
000001e0: 6cd8 d03c cd52 cc3c 91ae d63c 632a dc3c
000001f0: 5907 3b3a 9e77 da3c 98a5 e13c 682d 95b9
00000200: 4b0a cc3c acc3 d43c 27b8 d03c d0ea da3c
00000210: 01f0 8e38 ca93 ce3c aeac e7b9 a5e2 d63c
00000220: bbf1 073a d81c db3c 55ac d23c 1cf5 da3c
00000230: 2224 c93c 5378 13b8 b210 d33c 6b6e d63c
00000240: 06d4 d23c 1438 2d39 9c1b db3c d3b7 cc3c
00000250: 3dcd cb3c fe73 d23c 2843 7a3a d22c b9b9
00000260: cbe8 d43c adeb 4dba 48bc a43c ba20 cc3c
00000270: 56e6 19ba 8628 d43c 1e04 ce3c 1532 ce3c
00000280: b706 8bb9 b825 d73c bde2 c53c b76a db3c
00000290: 4b36 3dba 7081 d5b7 5a02 d43c 96dc dd3c
000002a0: 9393 06b8 81cc c33c 4240 5d3a 5e6f cd3c
000002b0: 2ea2 e7b9 e318 3bb9 2f68 da3c a23f d13c
000002c0: 2496 d73c bcc3 d63c f553 cf3c 572a da3c
000002d0: e479 d33c 1818 dd3c f897 ca3c e725 d03c
000002e0: 965d d43c fef1 da3c a31b 903a 4160 dc3c
000002f0: fdb9 d33c 2338 d43c dda5 d13c b61f cd3c
00000300: f46a d83c 7e1c d13c ec1c d73c 5c6a d83c
00000310: 00c9 d03c 8e3a 7db9 16a0 d13c bce8 5b3a
00000320: 53da d53c 3f85 d03c a2f6 d63c 816d d33c
00000330: e50b ce3c 5421 d53c c29d cd3c 0255 ca3c
00000340: aaa0 b73c e691 d73c b60d 6ab9 8a92 ea3c
00000350: 6a69 cd3c 1988 cf3c 275a ca3c 9794 de3c
00000360: 27f4 d03c 00d5 cd3c 009a cb3c 020f d63c
00000370: 0afa c73c 3a1c edb9 120f d13c 1d36 8139
00000380: a797 d33c 5c11 d63c 6659 d23c 2f51 08ba
00000390: 4d09 cd3c 1687 d23c a37a cb3c 076f 073a
000003a0: f205 d23c bb1b d43c 787b 68ba e295 4bb9
000003b0: 8338 dc3c 1b84 e43c 0730 d13c 0784 9ab9
000003c0: 60c6 ce3c 8960 ce3c 6994 d03c aaf7 cd3c
000003d0: dc74 d83c 857a ea3c 4535 cf3c 1f2d d63c
000003e0: 7293 3fba b768 803a 25f7 51ba 34cc e8b9
000003f0: d506 d93c 14d8 ce3c 46da d13c f1a7 583a
-0.00038945436 0.026019782 0.02505762 0.02523024 0.027748985 0.025699463 0.026445992 -0.0006186801
0.02573339 0.026296398 0.025480004 -0.00042000486 0.026023151 0.025398605 0.026318302 0.02543
0.026413262 8.5763924e-05 0.026775613 0.026006252 0.024452128 0.02475893 0.02507091 0.00066770136
0.02530985 0.024587736 0.026195101 0.024397384 0.026978489 -0.0012606892 0.00023202732 0.025621636
0.02608251 0.0002605645 0.026497228 0.023279097 0.028263858 0.025895206 0.0011027958 0.025859615
0.0266774 0.0001521275 -0.0001522564 0.026621733 0.0013942594 0.02575722 0.02552114 -0.00031131972
-0.00019865177 0.025175946 0.026532505 0.024488304 0.0008773918 -0.00067394745 0.025126057 0.00021690114
0.025995092 -0.0002912767 0.025583623 -0.00096008857 0.026031211 0.026501484 -0.0005639245 0.024874099
0.026665501 0.026758712 -0.0002312893 0.02567494 0.026420105 0.025153205 0.025997482 0.025168376
0.025677385 0.025617976 0.026861496 0.025781823 5.481288e-06 0.025298728 0.0008781282 0.025300417
0.025831837 0.02697035 -0.0007648552 0.025906922 0.00019636896 0.0003308968 -0.00011657886 0.025377879
0.025261823 0.0247003 0.00021330548 -0.0011324169 0.02587353 0.0005893876 0.025364302 0.025195653
0.00017347804 0.025318006 -0.00032961866 0.001885872 0.024634367 0.024827622 0.026039524 -0.00033597852
0.025680289 -0.0012498113 0.026241696 0.025729537 0.025746476 0.026261633 -0.00012287701 0.025435356
0.0006563102 0.025103062 -0.00025710015 -0.00017828203 0.026149811 0.026296362 0.0258535 0.027089229
0.025493823 0.024941826 0.026206287 0.02687568 0.0007134579 0.026668366 0.027544782 -0.00028453325
0.024907252 0.02597221 0.025478436 0.026723295 6.815792e-05 0.025216956 -0.0004418841 0.02623112
0.0005185862 0.026747152 0.02571694 0.026728205 0.024553362 -3.515959e-05 0.025764797 0.026175698
0.025735866 0.00016519456 0.026746564 0.024989998 0.024878139 0.025690075 0.000954675 -0.00035319343
0.02598991 -0.0007855248 0.02010931 0.024917949 -0.00058708095 0.02589823 0.025148448 0.025170365
-0.0002651715 0.026263103 0.024155969 0.026784284 -0.0007217868 -2.5451853e-05 0.025880028 0.027082723
-3.208553e-05 0.023901226 0.0008440056 0.025077518 -0.00044180587 -0.00017842981 0.026661007 0.025543038
0.02631671 0.02621638 0.025308589 0.026631517 0.025814958 0.026989028 0.024730667 0.025408698
0.025923532 0.026726719 0.0010994565 0.026901366 0.025845522 0.025905674 0.025591785 0.025039535
0.026418187 0.025526281 0.026258908 0.026417904 0.02548647 -0.00024149774 0.02558903 0.0008388867
0.026105082 0.025454162 0.02624065 0.025809051 0.025152156 0.026016869 0.025099639 0.024698738
0.022415478 0.026314687 -0.00022321087 0.028634328 0.02507468 0.025333451 0.024701191 0.027170463
0.025507046 0.02512598 0.024853706 0.026130203 0.02441122 -0.00045225193 0.025519881 0.00024645115
0.02582915 0.026131324 0.025677394 -0.00052000856 0.025028849 0.02569918 0.024838751 0.00051663857
0.0256376 0.02589213 -0.0008868496 -0.00019415424 0.026882416 0.027895024 0.025535597 -0.00029471537
0.025241077 0.025192516 0.025461392 0.02514251 0.02642291 0.028622875 0.025293956 0.026144562
-0.0007308043 0.0009796832 -0.00080095447 -0.00044402631 0.026492516 0.025249518 0.025616776 0.00082647713

shared_fc2.bias f4 [256]
00000000: 7226 ab3c 7ac1 b33c 38a5 10ba 252a dc3c
00000010: 0000 0000 c65f ab3c 0000 0000 da60 0eba
00000020: 6ce5 75b9 d0fe b43c 84b1 b23c 250c 0aba
00000030: a842 bd3c 778b a4b9 e39f b73c c8b5 7cb8
00000040: ac5a 15ba 8865 0aba 58a9 b53c c0eb b53c
00000050: 039a 14ba 52e4 b33c ae20 23ba 0000 0000
00000060: bcbe ad3c 6426 b33c eb8f b63c 9c5c 07ba
00000070: c29f b33c 8e9e ad3c c649 ac3c a4ad 17ba
00000080: 8c29 33ba 5f33 c93c 4254 b23c 0000 0000
00000090: a848 b53c 0000 0000 364c 0fba a012 37b9
000000a0: 83dd b83c ebe0 0bba c0b9 f1b9 85ca 0cba
000000b0: 34ba 14ba b654 d73c 92a1 fdb9 a880 0bba
000000c0: b71d ae3c 4f33 e43c 0000 0000 e06c 2fba
000000d0: ef33 0cba 8bd2 cd3c 0000 0000 cf65 b23c
000000e0: f07b b2b9 a941 b63c 0000 0000 e735 21ba
000000f0: b7a3 d7b8 2585 d13c f48b a93c 8331 04ba
00000100: ad61 15ba c9ca 0cb5 aea2 0fba 828e d23c
00000110: 0000 0000 0000 0000 315a 12ba 8ce3 00ba
00000120: 17f7 13ba 7afa b43c 0c3a b13c ba1d c9b9
00000130: a4c8 b63c 5e04 b63c 5889 b23c b96b b53c
00000140: 0000 0000 0000 0000 8734 7ab9 687a a93c
00000150: 0000 0000 0000 0000 0611 ae3c 4078 af3c
00000160: 11e7 c73c e60d b03c 499f b63c 0787 28ba
00000170: 0d3a 45b9 a6a5 e2b9 1e8e b13c e461 b13c
00000180: 0fb3 08ba ac77 ae3c 58fc b03c 6379 ea3c
00000190: cb3e 73b7 eaa0 aeb9 0495 e23c f55e 43ba
000001a0: 7ec6 b53c f022 b2b9 26af 0aba 0000 0000
000001b0: 70a4 b63c 08e6 ab3c 464a 27ba 0000 0000
000001c0: b84e b03c c38c 0eba dffa 17ba ac94 05ba
000001d0: 0000 0000 0000 0000 6efd 1aba fb24 b03c
000001e0: 131f 0cba d832 c2b9 c61d b13c 74bb b53c
000001f0: f32c b63c 6259 aa3c b726 14ba 0000 0000
00000200: 0000 0000 b107 0eba 8130 07ba 4b97 e23c
00000210: 919b 10ba 5661 cab9 b3af a6b9 aa0d 97b8
00000220: fef7 af3c 99e5 b13c d380 ac3c 91ee b13c
00000230: 0000 0000 3fad b23c 93fc ac3c 4d7e b53c
00000240: ec85 b13c 4246 b43c 3d18 12ba 5b31 0cba
00000250: 2ca4 b63c e567 15ba 8bab b53c de64 ae3c
00000260: b0ac 14ba 44d4 a6b7 58d8 b63c e91d a93c
00000270: 605e 40ba 0000 0000 ed88 b73c 32e6 15ba
00000280: f50f 93b8 0000 0000 e450 ae3c 3035 96b9
00000290: 24f3 b33c 0000 0000 54e8 b23c 0000 0000
000002a0: 0000 0000 129d b43c de4e b53c d73f b43c
000002b0: 7141 cc3c bba9 e63c 0000 0000 47aa 36b7
000002c0: 8a0b b63c 7b7c 0fba abdd 1aba 8ebd af3c
000002d0: 0000 0000 0000 0000 2346 36ba 7035 14ba
000002e0: cde4 2bba 30ef 12ba b38c af3c 4dd8 af3c
000002f0: 6a46 a93c cdc7 b3b9 03a5 15ba 187d b53c
00000300: 2b7b b23c 55d4 b43c 7a33 db3c 365d 21ba
00000310: fdac b53c b5a9 e5b9 3679 0dba 369e 04ba
00000320: 572d b23c b42d aa3c 8bc7 b9b9 0ab3 15b9
00000330: 191d af3c 8804 0bba 4011 c5b9 8954 0bba
00000340: 06ec b53c 37b2 b13c 7766 12ba 5452 ae3c
00000350: 5bc7 09ba 4999 a93c 2ed1 27b8 d02d b53c
00000360: ce0d b33c b2d9 b53c b380 a73c 6e2a b03c
00000370: 3c84 ad3c 3cf1 0aba a666 27b8 2180 df3c
00000380: c404 12ba 0f73 a1b9 915c b33c 4a5a b03c
00000390: 3cc5 bfb8 0000 0000 5237 13ba 0000 0000
000003a0: 264b b93c 5a17 13ba b8ee 91b7 abd8 af3c
000003b0: 489d b13c 89d5 af3c f164 b33c 592f 10ba
000003c0: 234e b23c 1908 a83c 518c c6b9 0000 0000
000003d0: dc81 ac3c 21ed ecb9 0000 0000 9d52 29ba
000003e0: 9941 b63c ad56 0cba 838a 93b9 6860 b33c
000003f0: bc41 b73c 6af1 0fba 92bc 40ba 0000 0000
0.020892356 0.021942843 -0.00055177836 0.026875565 0.0 0.020919692 0.0 -0.0005431302
-0.00023450487 0.02209416 0.021813162 -0.0005266092 0.023103073 -0.00031384427 0.022415107 -6.025078e-05
-0.000569741 -0.00052794116 0.022175476 0.02220714 -0.00056687015 0.021959458 -0.0006222826 0.0
0.021209113 0.021868892 0.022285422 -0.0005163641 0.021926764 0.021193769 0.021031272 -0.00057860673
-0.0006834499 0.024560628 0.021768693 0.0 0.022129372 0.0 -0.00054663734 -0.00017459178
0.022566563 -0.00053359446 -0.00046105497 -0.0005370754 -0.00056734984 0.02628551 -0.000483763 -0.00053216005
0.021254404 0.027856497 0.0 -0.0006691944 -0.0005348315 0.025124809 0.0 0.021777062
-0.00034043146 0.022248106 0.0 -0.00061496947 -0.00010282493 0.025576184 0.020696618 -0.0005042778
-0.0005698454 -5.2449155e-07 -0.0005479258 0.025702719 0.0 0.0 -0.00055828976 -0.00049167196
-0.0005644424 0.022092093 0.021634124 -0.00038359856 0.02231247 0.02221888 0.021794006 0.022146093
0.0 0.0 -0.00023861426 0.02068825 0.0 0.0 0.021248352 0.021419644
0.024402173 0.021491002 0.02229275 -0.0006428812 -0.0001880901 -0.00043229497 0.021674212 0.021653123
-0.000521467 0.021297298 0.021604702 0.028622335 -1.4498549e-05 -0.00033307757 0.027658947 -0.00074528094
0.022189375 -0.00033976836 -0.00052903814 0.0 0.022295207 0.02098371 -0.0006381612 0.0
0.021521911 -0.0005437845 -0.00057975756 -0.0005095701 0.0 0.0 -0.0005912398 0.021502009
-0.00053452066 -0.00037040445 0.021620642 0.022184111 0.02223823 0.020794574 -0.0005651521 0.0
0.0 -0.0005418016 -0.0005157069 0.027660033 -0.0005516345 -0.00038600963 -0.00031792893 -7.202786e-05
0.021480557 0.021715926 0.021057522 0.021720203 0.0 0.021811126 0.02111653 0.022154951
0.021670304 0.022006158 -0.000557307 -0.0005347931 0.02229508 -0.00056993804 0.022176525 0.021288332
-0.00056714844 -1.9887586e-05 0.022319958 0.020644145 -0.0007338282 0.0 0.022404158 -0.00057182007
-7.0124785e-05 0.0 0.021278806 -0.00028649857 0.021966524 0.0 0.021839298 0.0
0.0 0.022047553 0.022132333 0.022003097 0.024933549 0.028157106 0.0 -1.0887691e-05
0.0222223 -0.0005473566 -0.0005907665 0.021452691 0.0 0.0 -0.00069532 -0.0005653715
-0.00065572263 -0.00056051 0.021429395 0.021465445 0.020663459 -0.00034290404 -0.00057084876 0.022154376
0.021787247 0.022073904 0.026757944 -0.0006155552 0.022177214 -0.00043804725 -0.0005396785 -0.00050589757
0.021750135 0.020773746 -0.0003543462 -0.00014276445 0.02137618 -0.00053031044 -0.0003758762 -0.0005315026
0.022207271 0.021691425 -0.00055847265 0.021279491 -0.00052558415 0.020702975 -4.0010716e-05 0.022116572
0.021857169 0.022198532 0.02044711 0.021504607 0.021181218 -0.0005300229 -3.99115e-05 0.027282776
-0.0005570168 -0.00030794038 0.021894725 0.021527428 -9.1443275e-05 0.0 -0.00056158483 0.0
0.022618841 -0.00056110846 -1.7396509e-05 0.02146562 0.021681443 0.021464126 0.021898719 -0.00055002194
0.021765774 0.020511674 -0.00037870047 0.0 0.021058016 -0.00045190103 0.0 -0.0006459149
0.022248076 -0.0005353492 -0.00028141224 0.021896556 0.022370212 -0.00054909906 -0.0007352318 0.0

actor_mean.weight f4 [2, 256]
00000000: e0f7 5bb7 8ab1 2b39 3981 0639 ce4b e038
00000010: 6133 9239 1b6a 8c3a 8cf8 813a 06f7 7a3a
00000020: 3400 9aba 3466 ab39 94d0 3339 62fe 14ba
00000030: 03df 3d3a c8cb 8539 3538 1fb9 4028 66b7
00000040: eff3 dd39 c080 02b9 e454 7339 da45 9f39
00000050: a443 96b8 30cd a1b9 7c16 7839 d739 d439
00000060: c083 74b9 7ef4 79ba c41a b538 fccd 03ba
00000070: 04d1 19ba b1e1 233a 7120 053a d6a8 7b3a
00000080: d707 bcb8 1877 85b8 f159 33ba 0cfb 86ba
00000090: 60a3 813a 7070 e2b9 1ae2 013a 0b09 e3b8
000000a0: a018 17ba d412 f1b9 df62 f939 f52d ad39
000000b0: f86f 883a 4eae 6fb9 fcf7 d3b9 c5b5 2339
000000c0: 09af 58b9 bc77 5839 cb26 a5b9 c3ec 8a39
000000d0: 198f 5039 e905 8b3a 8221 dcb9 8a04 ceb8
000000e0: 07c8 e839 6736 afba 8217 8d39 7f74 89b8
000000f0: 50a1 02ba 324f 96b8 7942 a93a 987d a5b9
00000100: a245 28b9 ec14 14ba 3907 cf38 67fc 5bb9
00000110: 13a3 613a bc79 9b39 c196 40ba 6031 55ba
00000120: b921 0239 f432 b737 0c3e 71ba f2e5 96ba
00000130: d0da f538 d0c3 29b9 0c78 fd39 0012 8fba
00000140: e815 0038 2bb4 81b8 4ff2 b0ba c646 0839
00000150: 549a 3939 9ea6 423a 6e6c 1aba 0ff9 b7b9
00000160: 0056 3dba 1a2a 5eba 91cd b5ba 6fa7 9d3a
00000170: fd3f 143a e2c3 3db9 4e0a 2e38 cd63 1b3a
00000180: 4a3e d039 8b2f 123a 8d28 843a a049 7bba
00000190: 5a40 6239 6496 153a f5a1 74ba fbbd aeb9
000001a0: 0e4d c0b9 1f13 433a 2f18 6139 1044 fa39
000001b0: 6847 31b9 5f0f 583a af58 473a f7c2 95b9
000001c0: c6c0 103a eadb 2eba a8ac b7b8 9f14 8338
000001d0: f7ba 783a 8d74 13ba b2c4 bd38 e664 a1b9
000001e0: ca69 ea39 aad1 8539 33d4 7a39 1f25 fc39
000001f0: 4915 b1ba 5e98 18ba f8e5 8cba 85af 313a
00000200: a9c9 f738 b94b 2238 6fa9 8a39 a978 6b39
00000210: f6ab 4c3a ac42 9eba 8cf2 7a3a e314 ddb7
00000220: 32ea 6d3a 6ed8 5dba 7446 7c3a f47a af38
00000230: 346c 83b9 a780 67ba f7ae 20ba 74c9 04ba
00000240: 8c31 f139 b2c8 193a f04d 0db9 4224 1539
00000250: cf70 15b9 c48e 9338 716c 2139 50bc afb7
00000260: 3132 90b9 3165 a4b8 702b 903a 4818 7539
00000270: 47a9 e9b8 e23e 9439 b853 033a 4d84 9db8
00000280: e009 a33a d0e1 2139 cfec 8439 e875 deb9
00000290: e40e adb9 dd86 c1ba 4054 3136 c10d 6839
000002a0: d3c0 b9ba a80e 403a 0000 8236 5c0d 033a
000002b0: a851 9a39 544b 0b39 a747 82ba 95d8 153a
000002c0: 1a2e 4e3a d074 cfba 2ef1 5bba 966b e4b9
000002d0: 3352 5a3a 2e90 20ba e046 74ba 3e98 70b8
000002e0: 8ae7 0bb9 00f4 35ba 5a31 c739 5d02 6ab9
000002f0: 50d2 163a 498b b939 4dfd 41ba 2d23 573a
00000300: bc1a adba 163f 63ba 9e66 0b39 d3b9 73b8
00000310: ffe0 92ba b047 62ba 25a7 52ba f705 33b9
00000320: 5013 0bba 9c4f 82b8 5dca 08ba 7ed8 3039
00000330: 6561 7dba 5a8d f337 201b 05b8 4bf0 25b9
00000340: 90aa 523a 522b 5aba 0c4e b5ba 9637 0aba
00000350: 556d c539 6f29 8039 8b9e 7839 4c99 54b9
00000360: c61a 10ba b066 2339 3f9c 283a b2d9 9e39
00000370: 72a8 863a b7d8 d3b9 2eaf e539 e2fb 3c3a
00000380: 69d5 4d3a 4274 123a 964a c53a 3e6c d7b8
00000390: 6acd dbb9 2e54 f2b9 908f 05ba d251 93ba
000003a0: 4022 c937 6c7e 7a38 4b4a 9f39 c0ba 633a
000003b0: e7c9 51ba cc9d 8f39 281e e139 38c8 1d3a
000003c0: af86 0c3a d943 59ba 06e0 383a 4f87 70b8
000003d0: 440b 56ba b65b 1cba d42f 8f3a 8be9 443a
000003e0: 3b71 42ba 8179 e1b9 427e 8f39 41ce 6eb9
000003f0: 7280 d239 44bc b039 df25 0aba dd10 adb8
-1.311113e-05 0.00016373969 0.00012827375 0.00010695272 0.0002788557 0.0010712774 0.0009915992 0.00095735525
-0.0011749328 0.0003269181 0.00017148472 -0.0005683658 0.0007243009 0.00025519566 -0.0001518436 -1.371844e-05
0.0004233415 -0.00012445729 0.0002320591 0.00030378887 -7.1651564e-05 -0.0003086119 0.00023659499 0.00040478885
-0.00023318734 -0.00095350284 8.635738e-05 -0.00050279475 -0.00058676326 0.0006251587 0.00050783815 0.00096000487
-8.965999e-05 -6.364117e-05 -0.00068417104 -0.0010298206 0.0009890608 -0.00043189852 0.0004954651 -0.00010825888
-0.0005763862 -0.0004598113 0.00047566646 0.00033031372 0.0010409346 -0.0002285775 -0.0004042982 0.00015612606
-0.00020664571 0.0002064397 -0.00031500155 0.00026497812 0.00019889734 0.001060662 -0.00041986635 -9.823691e-05
0.0004439952 -0.0013367654 0.0002691113 -6.554368e-05 -0.0004983144 -7.167309e-05 0.0012913487 -0.00031564827
-0.00016047669 -0.00056488696 9.8718745e-05 -0.00020979495 0.0008607369 0.00029654603 -0.0007346683 -0.00081326626
0.00012410329 2.1839027e-05 -0.0009202666 -0.0011512621 0.000117232674 -0.00016190042 0.00048345362 -0.0010915399
3.053798e-05 -6.184758e-05 -0.0013499948 0.00012996336 0.00017700467 0.00074253406 -0.0005890791 -0.00035090043
-0.0007222593 -0.00084749016 -0.0013870468 0.0012028049 0.0005655287 -0.00018097417 4.149443e-05 0.0005927652
0.0003971926 0.00055765425 0.0010082886 -0.0009585861 0.00021577012 0.0005706309 -0.0009331995 -0.00033329413
-0.00036678504 0.0007441509 0.00021466681 0.00047734426 -0.00016906636 0.00082420366 0.00076044624 -0.00028564755
0.00055218895 -0.0006670343 -8.75828e-05 6.250408e-05 0.0009488309 -0.00056249724 9.04886e-05 -0.00030783488
0.00044710777 0.0002552395 0.00023920908 0.00048092843 -0.0013510372 -0.00058210443 -0.0010749688 0.00067781686
0.0001181544 3.8694332e-05 0.0002644765 0.00022456296 0.00078076066 -0.0012074313 0.00095728855 -2.635498e-05
0.00090757303 -0.00084627315 0.00096235354 8.367552e-05 -0.00025066885 -0.00088311214 -0.00061295874 -0.0005065419
0.00046004017 0.0005866393 -0.00013475842 0.00014223254 -0.00014251772 7.0360984e-05 0.00015394554 -2.0949316e-05
-0.00027503216 -7.838978e-05 0.0010999274 0.00023374066 -0.00011141836 0.0002827561 0.00050097285 -7.510986e-05
0.0012438856 0.00015438278 0.00025353438 -0.00042430987 -0.00033008226 -0.0014764924 2.6424095e-06 0.00022130368
-0.0014171846 0.00073264027 3.874302e-06 0.0004999244 0.00029434008 0.00013284135 -0.0009939567 0.0005716172
0.0007865146 -0.001582766 -0.00083901256 -0.00043567707 0.00083282887 -0.0006125 -0.00093184225 -5.7362246e-05
-0.00013342328 -0.0006940961 0.00037993008 -0.0002231686 0.0005753385 0.00035389725 -0.00074001105 0.0008206841
-0.001320682 -0.00086687633 0.00013294301 -5.8108777e-05 -0.001120597 -0.0008631898 -0.0008035771 -0.00017072992
-0.0005305307 -6.2137115e-05 -0.0005218143 0.00016865318 -0.0009665697 2.903368e-05 -3.1734933e-05 -0.00015825142
0.000803628 -0.0008322495 -0.0013832464 -0.0005272565 0.00037656227 0.00024444933 0.00023710185 -0.00020275003
-0.00054971536 0.00015583145 0.0006431974 0.00030298304 0.0010273589 -0.0004040652 0.00043808803 0.00072091643
0.000785193 0.0005586782 0.0015052136 -0.000102721606 -0.0004192398 -0.00046220556 -0.000509494 -0.0011239594
2.3977016e-05 5.9722384e-05 0.00030382196 0.0008687191 -0.0008002803 0.00027392653 0.00042937812 0.00060189096
0.00053606456 -0.0008288003 0.0007052425 -5.7346475e-05 -0.0008165131 -0.0005964594 0.0010924288 0.0007511607
-0.00074173853 -0.00043005872 0.00027369155 -0.00022774284 0.0004015002 0.00033709605 -0.00052699255 -8.252424e-05

actor_mean.bias f4 [2]
00000000: 1031 0736 2c9e 053b
2.0145126e-06 0.0020388467

critic_value.weight f4 [1, 256]
00000000: 636e 06bd 9710 05bd 8ac6 6d3a 8c79 01bd
00000010: 964d 0f3a 315f 06bd 852b c43a 416d 023a
00000020: ee1f 653a 44a5 04bd cdfd 04bd 1ed7 2839
00000030: 04a5 02bd 9f09 083a 0d2b 04bd 6e7c 3b37
00000040: e884 5d3a adcc 0e39 ac4f 04bd fe32 04bd
00000050: b0da 513a 8fe1 04bd dc17 a63a 41d7 d3b9
00000060: 65a3 05bd 3d2a 05bd 7f76 04bd b7be 083a
00000070: f7c6 04bd 55df 05bd 94fc 05bd 4d3f f239
00000080: 315e 4739 a2ae 00bd 04d9 04bd 492b 873a
00000090: 2257 04bd f92b 1b37 f064 bd39 57b4 9b39
000000a0: 4daf 03bd f0ba 6239 63b1 9239 c06f 4b3a
000000b0: c7f5 4e3a d5da 00bd a518 2a3a 975d 743a
000000c0: 79e1 05bd efe4 f9bc 08d5 8d39 dec6 1e3a
000000d0: 5e24 203a 59d0 00bd b69d 0fba dee8 04bd
000000e0: d548 683a 076a 04bd 7e92 6d3a 0049 4c39
000000f0: 8c34 2539 54f9 00bd 43fe 06bd 6f93 d539
00000100: 83e2 173a 9dc7 6d38 adf1 403a 62d6 00bd
00000110: 8254 e439 1cad b8b9 56fa 983a 60c8 9139
00000120: e059 a639 f4aa 04bd 3d7e 05bd bfab 893a
00000130: 4785 04bd 4026 04bd e424 05bd 3c52 04bd
00000140: 22ea bbb9 aabd e739 ac10 533a 54cd 06bd
00000150: cf82 f2b9 5d64 c43a 9cc1 05bd 6f75 05bd
00000160: 1191 00bd 9d8e 05bd 769d 04bd 5245 a3b8
00000170: 7f35 a33a 438f 9d39 8a11 05bd 1c37 05bd
00000180: d2ec a539 0cef 05bd 96b9 05bd 07c8 01bd
00000190: edf8 cd39 18c3 a239 9e5c 02bd abb3 663a
000001a0: b698 04bd 5f36 1eb7 3ceb 323a 46b4 71ba
000001b0: ac38 04bd f90d 06bd 46e4 f639 e42c 1439
000001c0: ca61 05bd 2a35 3b3a ecc7 1e3a f908 d939
000001d0: 52a4 f3b9 ddf5 17ba 4b88 d839 2b3f 05bd
000001e0: 1fef 003a e650 4039 fc68 05bd 988e 04bd
000001f0: e945 04bd 84a7 06bd 9424 723a 621a 543a
00000200: 76ca 27b9 140f 273a 2109 e738 fc4c 02bd
00000210: 4b1b 823a 7f61 b937 8595 403a 134e c238
00000220: 6899 05bd 7c09 05bd 0340 06bd 6b1c 05bd
00000230: a48b 03b9 8c33 05bd a5cf 05bd eba5 04bd
00000240: e151 05bd 4bec 04bd def5 8838 3e64 b63a
00000250: 0c7e 04bd ec20 d338 eb96 04bd d8f4 05bd
00000260: b25c 2a3a 3c8a 3138 9d49 04bd 98ff 06bd
00000270: 777d 3e3a 5b82 693a 275d 04bd d7b7 863a
00000280: 4ba5 e539 a7fe 4d38 37e9 05bd 7bee d039
00000290: 5506 05bd ed8d 123a 0500 05bd 958d 1e38
000002a0: 19d5 83b9 1899 04bd 7580 04bd a35e 04bd
000002b0: fcaf 00bd 861d 02bd bb5d 103a 66b0 8538
000002c0: 5968 04bd 879e 693a d53c 073a 4584 05bd
000002d0: f26a b839 5243 9538 cf11 5039 f036 bd3a
000002e0: 5855 4339 a995 b439 698d 05bd 13b9 05bd
000002f0: 58b4 06bd 2273 8b39 4bbd 613a 179f 04bd
00000300: 651a 05bd 2ab4 04bd 441f 01bd eda0 c439
00000310: 6d83 04bd d541 c839 03c9 d639 ca50 8339
00000320: b227 05bd 5fde 06bd 864b b036 91f5 723a
00000330: ae6d 05bd f1b1 2e3a 11db 3e39 8790 d239
00000340: df3b 04bd a12f 05bd e493 2e39 03eb 05bd
00000350: ab24 7639 07a9 06bd 0f04 5139 5075 04bd
00000360: 973f 05bd 9656 04bd 1720 07bd 674d 05bd
00000370: 88a7 05bd 3871 2739 9e44 ca39 308f 01bd
00000380: ff71 4b38 e333 073a b216 05bd 505b 05bd
00000390: c0ca 073a 0c25 8739 52b4 1f3a 293f e737
000003a0: dcc3 03bd 7a5d 893a 6bc2 0938 a880 05bd
000003b0: 9627 05bd 4e7e 05bd 489d 04bd 171e bc38
000003c0: a3b5 04bd ab04 07bd 2ba8 b238 2167 31ba
000003d0: ea32 06bd 3528 6839 a78f cdb8 2811 db3a
000003e0: 5a6b 04bd be7d 5f3a af07 693a b0fa 04bd
000003f0: d8fc 03bd 686d 4d3a c4f9 123a 38f1 14ba
-0.032820117 -0.032486524 0.0009070417 -0.031610057 0.00054665783 -0.032805625 0.0014966583 0.00049753865
0.00087404146 -0.032384172 -0.032468606 0.00016101866 -0.031895652 0.0005189422 -0.03226762 1.117504e-05
0.00084502855 0.00013618423 -0.032302544 -0.032275192 0.0008005304 -0.032441672 0.0012671906 -0.00040405433
-0.03262653 -0.032510985 -0.03233957 0.0005216407 -0.03241631 -0.03268369 -0.03271158 0.00046205
0.00019013208 -0.031416543 -0.032433525 0.0010312583 -0.03230966 9.248958e-06 0.00036124093 0.00029698267
-0.0321496 0.00021622679 0.00027979453 0.00077604875 0.00078949 -0.031458694 0.00064886577 0.00093218073
-0.03268573 -0.030504672 0.00027052336 0.0006056855 0.0006108935 -0.031448696 -0.0005478518 -0.032448642
0.00088609505 -0.032327678 0.00090626616 0.0001948215 0.00015755201 -0.031487778 -0.032957327 0.00040736372
0.0005793946 5.6691108e-05 0.0007360231 -0.03145445 0.00043550512 -0.0003522419 0.0011671286 0.00027805846
0.0003172895 -0.032389596 -0.032591093 0.0010503455 -0.032353666 -0.03226304 -0.032505885 -0.032304987
-0.00035841862 0.00044201064 0.00080514955 -0.03291066 -0.00046255297 0.0014983524 -0.032655343 -0.032582697
-0.031388346 -0.03260671 -0.03237673 -7.7853576e-05 0.0012451856 0.00030052112 -0.03248743 -0.03252326
0.00031647697 -0.032698676 -0.03264769 -0.0316849 0.0003928611 0.00031044404 -0.031826608 0.00088005763
-0.0323722 -9.430193e-06 0.0006825214 -0.0009220283 -0.03228061 -0.03272817 0.00047090853 0.00014131103
-0.032563962 0.0007141406 0.00060570124 0.0004139615 -0.00046471 -0.00057968294 0.00041300277 -0.032530945
0.00049184443 0.00018340684 -0.032570824 -0.03236255 -0.032293234 -0.0328746 0.0009237018 0.00080910895
-0.00016001784 0.0006372791 0.00011016639 -0.0318117 0.0009926347 2.2099119e-05 0.0007346499 9.265183e-05
-0.032617003 -0.032479748 -0.03277589 -0.032497805 -0.00012545154 -0.032519862 -0.03266873 -0.032384794
-0.03254879 -0.03245191 6.530782e-05 0.0013915373 -0.03234677 0.00010067396 -0.03237049 -0.032704204
0.0006498798 4.232883e-05 -0.032296766 -0.032958597 0.00072666205 0.0008907669 -0.0323154 0.0010278177
0.00043801437 4.9112972e-05 -0.032693114 0.00039850533 -0.03247674 0.00055906066 -0.03247072 3.7801994e-05
-0.00025145037 -0.032372564 -0.03234907 -0.032316815 -0.03141783 -0.031766437 0.0005507131 6.374791e-05
-0.032326076 0.0008911867 0.0005158906 -0.032596845 0.00035174895 7.117413e-05 0.0001984306 0.0014435928
0.00018628442 0.0003444378 -0.032605562 -0.032647204 -0.032886833 0.00026597927 0.00086112757 -0.032378282
-0.032495875 -0.03239838 -0.031523958 0.00037503932 -0.0323519 0.0003819602 0.00040967026 0.0002504646
-0.03250856 -0.032926913 5.254001e-06 0.00092681596 -0.0325753 0.00066640886 0.0001820142 0.00040162003
-0.03228366 -0.032516126 0.00016649027 -0.032694828 0.00023474048 -0.03287604 0.00019933305 -0.03233844
-0.032531347 -0.032309137 -0.032989588 -0.03254452 -0.032630473 0.00015968538 0.00038579566 -0.031630695
4.850514e-05 0.0005157573 -0.032492347 -0.032557786 0.00051800534 0.0002577681 0.00060922385 2.7566757e-05
-0.032169208 0.0010480129 3.284441e-05 -0.0325934 -0.032508455 -0.032591157 -0.032376558 8.970143e-05
-0.032399785 -0.032963436 8.519025e-05 -0.00067673816 -0.0327634 0.00022140222 -9.801919e-05 0.0016713487
-0.03232894 0.0008525512 0.00088893896 -0.032465637 -0.032223552 0.0007836432 0.0005606676 -0.00056816963

exp_avg f4 [1, 2]
00000000: 0e38 2abb 424f 19bb
-0.0025973353 -0.0023393189

exp_avg_sq f4 [1, 2]
00000000: 038b df36 cf93 be36
6.662101e-06 5.6796484e-06

exp_avg f4 [256, 50]
00000000: 0000 0000 0000 0000 0000 0000 0000 0000
00000010: 0000 0000 0000 0000 0000 0000 0000 0000
00000020: 0000 0000 0000 0000 0000 0000 0000 0000
00000030: 0000 0000 0000 0000 0000 0000 0000 0000
00000040: 0000 0000 0000 0000 0000 0000 0000 0000
00000050: 0000 0000 0000 0000 0000 0000 0000 0000
00000060: 0000 0000 0000 0000 0000 0000 0000 0000
00000070: 0000 0000 0000 0000 0000 0000 0000 0000
00000080: 0000 0000 0000 0000 0000 0000 0000 0000
00000090: 0000 0000 0000 0000 0000 0000 0000 0000
000000a0: 0000 0000 0000 0000 0000 0000 0000 0000
000000b0: 0000 0000 0000 0000 0000 0000 0000 0000
000000c0: 0000 0000 0000 0000 6d81 2f39 0383 0339
000000d0: 43ed a238 701e 0e37 3ed4 07b9 6e77 02ba
000000e0: 3377 beba 4bc7 16ba 8be8 923a b207 233a
000000f0: 8360 9a3a ba22 d33a b8b8 fc3a 2641 133b
00000100: 7732 273b b441 0b3b 0f91 3b39 9d0a 1139
00000110: 47bf c238 91e5 e437 1608 e0b8 c7d5 f4b9
00000120: 3f83 b6ba f7e3 04ba 0a0b 983a ff8a 243a
00000130: 459b 983a 2444 d13a 8f1f fb3a d15c 123b
00000140: 60ad 2a3b 63ec 0b3b c537 4dbb fbdf 41bb
00000150: 35fe ccba 214f 92ba 18c0 81ba d58b a1ba
00000160: 4f24 09bb 7822 90ba b365 043a f79d b1b7
00000170: 59f7 e939 eb04 5c3a 3e32 893a a73a 9b3a
00000180: 5374 8f3a bb84 adb9 a9d3 cb39 be32 55b9
00000190: ea52 3039 1b25 0439 1cc7 a338 6024 1037
000001a0: 644c 08b9 0ffd 02ba ba40 bfba a35d 17ba
000001b0: de8c 933a d8be 233a b80a 9b3a 5e0a d43a
000001c0: 9dcd fd3a 8ce2 133b bcea 273b fadb 0b3b
000001d0: 3570 3c39 0bbc 1139 33bd c338 219b e637
000001e0: 26c2 e0b8 72ce f5b9 a043 b7ba a166 05ba
000001f0: 8ab5 983a 2f44 253a df43 993a ea29 d23a
00000200: c932 fc3a 3ffd 123b 4869 2b3b 6087 0c3b
00000210: 0615 4ebb dfb0 42bb c0d9 cdba caea 92ba
00000220: 3d49 82ba e436 a2ba 3ab6 09bb 4eb7 90ba
00000230: 5000 053a a093 b1b7 6300 eb39 6cf9 5c3a
00000240: f3c9 893a 6de6 9b3a 7915 903a 9a27 aeb9
00000250: 64bb cc39 6d0a 56b9 8713 2f39 712b 0339
00000260: 506f a238 5561 0c37 21aa 07b9 713c 02ba
00000270: 4d1a beba 6586 16ba 6698 923a efad 223a
00000280: 310e 9a3a 44b3 d23a a433 fc3a 84f3 123b
00000290: 6bd9 263b bdf6 0a3b 741c 3b39 84ab 1039
000002a0: a22f c238 4baf e337 82ce dfb8 0569 f4b9
000002b0: e22a b6ba 6dac 04ba bdb7 973a 1830 243a
000002c0: 9e49 983a 83d5 d03a 449b fa3a a80f 123b
000002d0: a452 2a3b 17a1 0b3b c7cf 4cbb d67d 41bb
000002e0: cf97 ccba 1607 92ba 1481 81ba 0e3d a1ba
000002f0: 9ce0 08bb 84df 8fba 7117 043a 5b06 b2b7
00000300: 1173 e939 5a8d 5b3a 67e8 883a e4e6 9a3a
00000310: 8124 8f3a aa46 adb9 9c5f cb39 c9cf 54b9
00000320: a443 3a39 02f3 0b39 00a2 ae38 c066 3037
00000330: bf16 0db9 dad7 08ba 083f c8ba 4bd4 1dba
00000340: 9e25 9b3a 2d3b 2c3a 48d4 a23a 0d99 de3a
00000350: 1e34 053b 973a 1b3b 674f 303b 45e6 123b
00000360: b701 4739 373e 1a39 dc3f d038 38ef fe37
00000370: 99d9 e7b8 8054 00ba 89d6 bfba 98f8 0aba
00000380: 6397 a03a 9dd9 2d3a a6fb a03a 60a3 dc3a
00000390: 165d 043b ea49 1a3b 29f8 333b dd99 133b
000003a0: 460c 58bb f218 4cbb 35b4 d7ba eae0 99ba
000003b0: 8866 88ba 36d9 a9ba ca3e 10bb 8444 97ba
000003c0: f354 0c3a 2e42 aab7 aa5b f739 cb35 683a
000003d0: b2bc 903a 34c3 a33a 8b7f 973a b4fe b4b9
000003e0: 5863 d739 7be3 5fb9 dcd0 2f39 ccc0 0339
000003f0: 5f41 a338 33f9 0e37 36ff 07b9 aba8 02ba
0.0 0.0 0.0 0.0 0.0 0.0 0.0 0.0
0.0 0.0 0.0 0.0 0.0 0.0 0.0 0.0
0.0 0.0 0.0 0.0 0.0 0.0 0.0 0.0
0.0 0.0 0.0 0.0 0.0 0.0 0.0 0.0
0.0 0.0 0.0 0.0 0.0 0.0 0.0 0.0
0.0 0.0 0.0 0.0 0.0 0.0 0.0 0.0
0.0 0.0 0.00016737515 0.00012541939 7.7689554e-05 8.470946e-06 -0.0001295367 -0.0004976903
-0.0014531374 -0.0005751743 0.0011208219 0.0006219103 0.001177803 0.0016108372 0.0019281125 0.0022469251
0.0025512257 0.002124888 0.00017887748 0.00013832231 9.286269e-05 2.7286618e-05 -0.000106826585 -0.00046698583
-0.0013924612 -0.000506937 0.001159997 0.00062768155 0.0011642954 0.0015965742 0.0019159185 0.0022333155
0.002604328 0.0021350614 -0.0031313759 -0.0029582966 -0.0015639724 -0.0011162498 -0.0009899167 -0.0012324998
-0.0020926183 -0.0010996601 0.0005050555 -2.1173602e-05 0.00044625512 0.0008393067 0.0010467244 0.0011843041
0.0010944701 -0.00033096023 0.00038876876 -0.00020332166 0.00016815556 0.00012602324 7.809533e-05 8.591538e-06
-0.00012998428 -0.0004996815 -0.0014591434 -0.0005774146 0.0011257192 0.00062463945 0.0011828756 0.0016177406
0.0019363646 0.0022565452 0.002562209 0.0021340833 0.00017970878 0.00013898329 9.333566e-05 2.7490374e-05
-0.00010717315 -0.00046883855 -0.0013981946 -0.000508884 0.0011650783 0.00063044106 0.0011693201 0.001603422
0.0019241209 0.0022428778 0.0026155282 0.0021442994 -0.0031445636 -0.0029707474 -0.0015705153 -0.0011208889
-0.000994004 -0.0012375978 -0.0021013157 -0.0011040957 0.0005073594 -2.1168787e-05 0.0004482298 0.0008429501
0.0010512456 0.0011894234 0.0010992727 -0.00033217372 0.0003904953 -0.00020412514 0.00016696575 0.00012509317
7.7454955e-05 8.367312e-06 -0.00012937981 -0.0004968113 -0.0014503688 -0.0005742072 0.0011184334 0.00062057277
0.0011753497 0.0016075154 0.0019241464 0.0022422979 0.002545918 0.0021204196 0.0001784431 0.00013796805
9.259513e-05 2.7142136e-05 -0.00010671934 -0.00046617552 -0.0013898278 -0.0005061094 0.0011575144 0.000626327
0.0011618619 0.0015932772 0.0019119759 0.0022287164 0.00259892 0.0021305734 -0.0031251775 -0.0029524467
-0.0015609207 -0.0011141028 -0.0009880387 -0.0012301521 -0.002088583 -0.0010976647 0.00050388934 -2.1222213e-05
0.00044526954 0.000837525 0.0010445238 0.0011818078 0.0010920913 -0.0003304978 0.00038790412 -0.00020295302
0.0001776354 0.000133466 8.3271414e-05 1.0514341e-05 -0.00013455281 -0.00052201527 -0.0015277574 -0.0006020709
0.0011836772 0.0006570097 0.0012422884 0.0016982869 0.0020325254 0.0023686045 0.0026902796 0.0022415083
0.00018978758 0.00014709761 9.9301076e-05 3.0390554e-05 -0.00011055469 -0.0004895404 -0.001463608 -0.00053013256
0.0012252148 0.0006631853 0.0012282028 0.0016833358 0.0020197085 0.0023542591 0.0027461147 0.002252213
-0.00329663 -0.0031142798 -0.0016456904 -0.0011740003 -0.0010406533 -0.0012958411 -0.0022010081 -0.0011540805
0.00053532346 -2.0296397e-05 0.00047179806 0.00088581134 0.0011042564 0.0012494088 0.0011558397 -0.00034522044
0.00041082012 -0.0002135168 0.00016767107 0.00012564956 7.784622e-05 8.521881e-06 -0.00012969677 -0.000498424
