controllers/rl_control/checkpoint_episode_900.pth (torch, 322879 bytes, 8 tensors)

actor_log_std f4 [1, 2]
0.0 0.0
00000000: 0000 0000 0000 0000

shared_fc1.weight f4 [256, 50]
0.00015848278 -0.0011142684 9.30685e-05 -0.0005961681 0.0011665397 -0.00053178053 -0.00030264317 -0.00042088795
3.096003e-05 -1.8903389e-05 -0.0006489025 0.00028796136 -0.00017617746 -0.00042044706 -0.00022945894 -8.401491e-05
0.0011813979 0.00010873241 -0.00066061196 -0.00028018386 -0.0008072071 -0.00095670356 0.00094995124 0.000500089
0.0001501582 -3.4575685e-05 0.00011254489 -0.00036167406 -0.0006353109 0.00037476007 7.546343e-05 -0.00022038419
-0.00025892898 -7.430528e-05 0.00012564502 0.0009431645 0.0002899618 -0.0009830319 -0.0003506426 -0.0017483529
-0.00030638196 -0.0007962316 -0.00025738368 0.00025064943 -0.0001672592 0.00025930055 0.0007957998 -8.6933185e-05
-0.0003540448 3.280214e-06 -0.00045594666 0.0009351623 0.00018977122 -0.00020190784 0.00031500676 0.00018783033
0.00070759107 0.00078787026 -8.481247e-05 -0.0008136564 0.0005334431 -2.6350313e-05 0.00055479683 6.395258e-06
0.0010301186 0.0007260272 -0.00042973872 0.0003567532 -0.0007529281 0.00031698143 -0.0010816443 4.8283895e-05
0.000762082 9.846133e-05 -0.0014254409 0.00062873145 -0.00018905479 -0.00034568924 0.00026612327 -0.0006397019
0.00069803477 -0.000984367 -0.00016520085 -0.00038337515 7.742675e-05 0.0008054437 0.00032436158 -0.00016495718
-0.00070850644 0.0006024996 0.00030174022 0.00018159077 -0.00048699498 -0.00013276462 0.00042981023 -0.0005275948
0.00029039106 0.0001448038 0.00012998283 -0.00048426777 0.00017498464 0.0012426424 1.4027357e-05 -0.00063631556
0.00012198882 0.00035843046 0.00038667372 -0.00018833566 -0.000691712 -0.0007280135 -0.0006004961 0.00095210853
-0.0011738084 -0.0006001754 -0.0011599445 -0.0005614434 0.0007610196 -0.00028539 -0.00014044358 -0.00056014006
-0.0014858589 -0.0009886542 0.0015184613 0.0008449321 0.00022014181 -0.0009914924 0.0010407035 -0.00045172597
-0.00010010142 -0.0008846405 -0.0003882242 0.00046497668 0.00058743224 -0.0017956557 0.0013525066 -0.00086691766
-0.00036674712 -0.0003225937 -2.1857602e-05 0.0002956441 0.00029515097 -0.00052562344 -0.00033064652 0.001481648
0.0009883203 0.0003067243 -3.605038e-05 0.0003378824 0.0001550723 0.00023988026 0.00032847724 0.0003698684
-0.001214988 0.00025872467 -0.0006411936 0.0010950646 -0.00028397737 -6.815084e-05 0.0006062468 -0.000231747
-7.032354e-05 9.2173395e-05 0.00035608816 -0.00073256006 -0.00093464553 5.6446308e-05 0.0005855997 -0.0008184355
0.001141842 -0.0008848811 0.00035913612 -0.00016494334 0.0013492652 0.0007868339 0.0003943502 -0.00054965756
0.0001842775 0.0004699332 0.00028406683 0.00035882482 -0.00010607495 0.0002664388 0.00079551927 -0.00087386207
-0.0014239709 -2.7089216e-05 5.235785e-05 -1.2026776e-05 -0.00034122408 0.0007046604 0.0013691128 -0.0003773138
-0.00073144387 0.00044674712 0.00063086976 -0.00077440625 0.00031083002 0.0011208168 -0.00019119195 -0.0009670242
0.0007373196 -0.000556498 -0.00019622741 0.00022932005 -0.0009832465 0.00013014604 -0.00056439993 -0.0005700132
1.0664908e-05 0.00037271864 -0.0009197618 -5.7018688e-06 -0.000913347 -0.00012311312 0.00049721886 0.00013150547
-0.0008790854 -2.5483696e-05 -0.00048977684 -0.00030901923 -0.00043271392 0.00040335846 -0.00012435392 4.077289e-05
0.000639128 -0.0001978183 0.0011820614 -0.00031216137 0.0012643387 0.00019431023 0.00017137013 -0.00014961018
0.00012110555 -0.00044517114 0.00046458098 0.00047736336 8.5697255e-05 -0.00030940998 0.00055668846 -0.00028824378
0.0004940167 -0.0005265604 -0.0005324692 -0.00045395765 -0.0004989895 -0.0018485867 0.00015686692 0.000509704
0.00026217746 -0.0011843363 -0.0002689499 5.7041245e-05 0.00023457284 -0.00011748044 -0.0010271394 -0.0006310153
00000000: 662e 2639 a50c 92ba c52d c338 2a48 1cba
00000010: 94e6 983a 3067 0bba 14ac 9eb9 a0aa dcb9
00000020: 14db 0138 b892 9eb7 1c1b 2aba 85f9 9639
00000030: 47bc 38b9 736f dcb9 ea9a 70b9 2931 b0b8
00000040: 23d9 9a3a 4507 e438 eb2c 2dba a4e5 92b9
00000050: c09a 53ba 4acb 7aba 2606 793a 6818 033a
00000060: c973 1d39 5c05 11b8 1406 ec38 129f bdb9
00000070: fe8a 26ba 727b c439 1f42 9e38 ee16 67b9
00000080: dcc0 87b9 58d4 9bb8 94bf 0339 b33e 773a
00000090: 0406 9839 14d9 80ba 74d6 b7b9 fd28 e5ba
000000a0: e4a1 a0b9 33ba 50ba 74f1 86b9 9969 8339
000000b0: 4d62 2fb9 bbf2 8739 389d 503a e64f b6b8
000000c0: 179f b9b9 a621 5c36 200c efb9 ae25 753a
000000d0: 53fd 4639 39b7 53b9 7e27 a539 52f4 4439
000000e0: a27d 393a 1489 4e3a 59dd b1b8 8f4b 55ba
000000f0: c3d6 0b3a de0a ddb7 c96f 113a d996 d636
00000100: 0b05 873a dc52 3e3a 8e4e e1b9 9b0a bb39
00000110: 2660 45ba 8730 a639 f6c5 8dba 7084 4a38
00000120: 75c6 473a 067d ce38 dcd5 baba 74d1 243a
00000130: 023d 46b9 a03d b5b9 7686 8b39 abb1 27ba
00000140: 52fc 363a e005 81ba c439 2db9 beff c8b9
00000150: 2b60 a238 6924 533a 130f aa39 5bf8 2cb9
00000160: 10bb 39ba 10f1 1d3a e332 9e39 6769 3e39
00000170: 5c53 ffb9 bb36 0bb9 2758 e139 4a4e 0aba
00000180: a13f 9839 79d6 1739 004c 0839 52e5 fdb9
00000190: 157c 3739 29e0 a23a 0a57 6b37 6ace 26ba
000001a0: 40d4 ff38 b9eb bb39 78ba ca39 f87b 45b9
000001b0: 0254 35ba 29d8 3eba 9c6a 1dba ec96 793a
000001c0: 79da 99ba 1755 1dba 4709 98ba d42d 13ba
000001d0: 297f 473a 66a0 95b9 0944 13b9 5dd6 12ba
000001e0: 27c1 c2ba bb95 81ba 1b07 c73a 6f7e 5d3a
000001f0: ded5 6639 f7f4 81ba 3768 883a a2d5 ecb9
00000200: 8aed d1b8 38e7 67ba 928a cbb9 1dc8 f339
00000210: e9fd 193a 355c ebba 9746 b13a dc41 63ba
00000220: f747 c0b9 cb21 a9b9 d85a b7b7 ae00 9b39
00000230: 7ebe 9a39 fec9 09ba a05a adb9 db33 c23a
00000240: 878a 813a d7cf a039 cd34 17b8 cf25 b139
00000250: e79a 2239 5e88 7b39 7837 ac39 e5ea c139
00000260: 3b40 9fba 70a5 8739 c615 28ba 4588 8f3a
00000270: cce2 94b9 34ec 8eb8 89ec 1e3a 1d01 73b9
00000280: aa7a 93b8 374d c138 58b1 ba39 4609 40ba
00000290: 0003 75ba c3c0 6c38 ee82 193a 478c 56ba
000002a0: dca9 953a 5ef7 67ba 6f4a bc39 a4f4 2cb9
000002b0: d4d9 b03a 8743 4e3a cac0 ce39 e516 10ba
000002c0: 9d3a 4139 5e61 f639 ceee 9439 a720 bc39
000002d0: 8e74 deb8 cfb0 8b39 658a 503a e413 65ba
000002e0: 89a4 baba a63d e3b7 d09a 5b38 9cc6 49b7
000002f0: 52e6 b2b9 f5b8 383a cd73 b33a 33d2 c5b9
00000300: 5ebe 3fba 6239 ea39 f460 253a 8601 4bba
00000310: e6f6 a239 5fe8 923a b37a 48b9 e57f 7dba
00000320: ae48 413a f3e1 11ba 65c2 4db9 a275 7039
00000330: 47e0 80ba d077 0839 3df4 13ba f06c 15ba
00000340: 6eed 3237 7369 c339 2b1c 71ba ae52 bfb6
00000350: ae6d 6fba ed17 01b9 cb57 023a bbe4 0939
00000360: 6c72 66ba d2c5 d5b7 5e64 00ba dc03 a2b9
00000370: e1dd e2b9 db79 d339 0065 02b9 8f03 2b38
00000380: 278b 273a 726d 4fb9 66ef 9a3a 97a9 a3b9
00000390: 2bb8 a53a c1bf 4b39 d2b1 3339 ade0 1cb9
000003a0: 0cfa fd38 dc65 e9b9 0193 f339 a046 fa39
000003b0: 5db8 b338 4e38 a2b9 bbee 113a 6d1f 97b9
000003c0: e680 013a df08 0aba 6795 0bba 2a01 eeb9
000003d0: 9ece 02ba 474c f2ba a57c 2439 a89d 053a
000003e0: dd74 8939 bb3b 9bba d801 8db9 923f 6f38
000003f0: abf7 7539 d55f f6b8 14a1 86ba b86a 25ba

shared_fc1.bias f4 [256]
0.0 0.0 0.0 0.0 0.0 0.0 0.0 0.0
0.0 0.0 0.0 0.0 0.0 0.0 0.0 0.0
0.0 0.0 0.0 0.0 0.0 0.0 0.0 0.0
0.0 0.0 0.0 0.0 0.0 0.0 0.0 0.0
0.0 0.0 0.0 0.0 0.0 0.0 0.0 0.0
0.0 0.0 0.0 0.0 0.0 0.0 0.0 0.0
0.0 0.0 0.0 0.0 0.0 0.0 0.0 0.0
0.0 0.0 0.0 0.0 0.0 0.0 0.0 0.0
0.0 0.0 0.0 0.0 0.0 0.0 0.0 0.0
0.0 0.0 0.0 0.0 0.0 0.0 0.0 0.0
0.0 0.0 0.0 0.0 0.0 0.0 0.0 0.0
0.0 0.0 0.0 0.0 0.0 0.0 0.0 0.0
0.0 0.0 0.0 0.0 0.0 0.0 0.0 0.0
0.0 0.0 0.0 0.0 0.0 0.0 0.0 0.0
0.0 0.0 0.0 0.0 0.0 0.0 0.0 0.0
0.0 0.0 0.0 0.0 0.0 0.0 0.0 0.0
0.0 0.0 0.0 0.0 0.0 0.0 0.0 0.0
0.0 0.0 0.0 0.0 0.0 0.0 0.0 0.0
0.0 0.0 0.0 0.0 0.0 0.0 0.0 0.0
0.0 0.0 0.0 0.0 0.0 0.0 0.0 0.0
0.0 0.0 0.0 0.0 0.0 0.0 0.0 0.0
0.0 0.0 0.0 0.0 0.0 0.0 0.0 0.0
0.0 0.0 0.0 0.0 0.0 0.0 0.0 0.0
0.0 0.0 0.0 0.0 0.0 0.0 0.0 0.0
0.0 0.0 0.0 0.0 0.0 0.0 0.0 0.0
0.0 0.0 0.0 0.0 0.0 0.0 0.0 0.0
0.0 0.0 0.0 0.0 0.0 0.0 0.0 0.0
0.0 0.0 0.0 0.0 0.0 0.0 0.0 0.0
0.0 0.0 0.0 0.0 0.0 0.0 0.0 0.0
0.0 0.0 0.0 0.0 0.0 0.0 0.0 0.0
0.0 0.0 0.0 0.0 0.0 0.0 0.0 0.0
0.0 0.0 0.0 0.0 0.0 0.0 0.0 0.0
00000000: 0000 0000 0000 0000 0000 0000 0000 0000
00000010: 0000 0000 0000 0000 0000 0000 0000 0000
00000020: 0000 0000 0000 0000 0000 0000 0000 0000
00000030: 0000 0000 0000 0000 0000 0000 0000 0000
00000040: 0000 0000 0000 0000 0000 0000 0000 0000
00000050: 0000 0000 0000 0000 0000 0000 0000 0000
00000060: 0000 0000 0000 0000 0000 0000 0000 0000
00000070: 0000 0000 0000 0000 0000 0000 0000 0000
00000080: 0000 0000 0000 0000 0000 0000 0000 0000
00000090: 0000 0000 0000 0000 0000 0000 0000 0000
000000a0: 0000 0000 0000 0000 0000 0000 0000 0000
000000b0: 0000 0000 0000 0000 0000 0000 0000 0000
000000c0: 0000 0000 0000 0000 0000 0000 0000 0000
000000d0: 0000 0000 0000 0000 0000 0000 0000 0000
000000e0: 0000 0000 0000 0000 0000 0000 0000 0000
000000f0: 0000 0000 0000 0000 0000 0000 0000 0000
00000100: 0000 0000 0000 0000 0000 0000 0000 0000
00000110: 0000 0000 0000 0000 0000 0000 0000 0000
00000120: 0000 0000 0000 0000 0000 0000 0000 0000
00000130: 0000 0000 0000 0000 0000 0000 0000 0000
00000140: 0000 0000 0000 0000 0000 0000 0000 0000
00000150: 0000 0000 0000 0000 0000 0000 0000 0000
00000160: 0000 0000 0000 0000 0000 0000 0000 0000
00000170: 0000 0000 0000 0000 0000 0000 0000 0000
00000180: 0000 0000 0000 0000 0000 0000 0000 0000
00000190: 0000 0000 0000 0000 0000 0000 0000 0000
000001a0: 0000 0000 0000 0000 0000 0000 0000 0000
000001b0: 0000 0000 0000 0000 0000 0000 0000 0000
000001c0: 0000 0000 0000 0000 0000 0000 0000 0000
000001d0: 0000 0000 0000 0000 0000 0000 0000 0000
000001e0: 0000 0000 0000 0000 0000 0000 0000 0000
000001f0: 0000 0000 0000 0000 0000 0000 0000 0000
00000200: 0000 0000 0000 0000 0000 0000 0000 0000
00000210: 0000 0000 0000 0000 0000 0000 0000 0000
00000220: 0000 0000 0000 0000 0000 0000 0000 0000
00000230: 0000 0000 0000 0000 0000 0000 0000 0000
00000240: 0000 0000 0000 0000 0000 0000 0000 0000
00000250: 0000 0000 0000 0000 0000 0000 0000 0000
00000260: 0000 0000 0000 0000 0000 0000 0000 0000
00000270: 0000 0000 0000 0000 0000 0000 0000 0000
00000280: 0000 0000 0000 0000 0000 0000 0000 0000
00000290: 0000 0000 0000 0000 0000 0000 0000 0000
000002a0: 0000 0000 0000 0000 0000 0000 0000 0000
000002b0: 0000 0000 0000 0000 0000 0000 0000 0000
000002c0: 0000 0000 0000 0000 0000 0000 0000 0000
000002d0: 0000 0000 0000 0000 0000 0000 0000 0000
000002e0: 0000 0000 0000 0000 0000 0000 0000 0000
000002f0: 0000 0000 0000 0000 0000 0000 0000 0000
00000300: 0000 0000 0000 0000 0000 0000 0000 0000
00000310: 0000 0000 0000 0000 0000 0000 0000 0000
00000320: 0000 0000 0000 0000 0000 0000 0000 0000
00000330: 0000 0000 0000 0000 0000 0000 0000 0000
00000340: 0000 0000 0000 0000 0000 0000 0000 0000
00000350: 0000 0000 0000 0000 0000 0000 0000 0000
00000360: 0000 0000 0000 0000 0000 0000 0000 0000
00000370: 0000 0000 0000 0000 0000 0000 0000 0000
00000380: 0000 0000 0000 0000 0000 0000 0000 0000
00000390: 0000 0000 0000 0000 0000 0000 0000 0000
000003a0: 0000 0000 0000 0000 0000 0000 0000 0000
000003b0: 0000 0000 0000 0000 0000 0000 0000 0000
000003c0: 0000 0000 0000 0000 0000 0000 0000 0000
000003d0: 0000 0000 0000 0000 0000 0000 0000 0000
000003e0: 0000 0000 0000 0000 0000 0000 0000 0000
000003f0: 0000 0000 0000 0000 0000 0000 0000 0000

shared_fc2.weight f4 [256, 256]
-0.00038945436 0.00046152584 -0.00047869576 -0.00033152188 0.0006103642 7.775809e-05 0.0010947151 -0.0006186801
0.00032757528 0.0006312731 -6.2548366e-05 -0.00042000486 0.0007851524 8.078396e-05 0.00074440415 -3.3952594e-05
0.00095437287 8.5108426e-05 -5.5075063e-05 0.000505031 -0.0010308101 -0.00090808957 -0.000496854 0.00066770136
-0.00027236072 -0.0007147361 0.0005972908 -0.0010345448 0.0009670356 -0.0012953633 0.00023202732 2.5454647e-05
-0.00054029096 0.00025830767 0.00088331697 0.00018387873 0.0012643641 0.0005544025 0.0011027958 0.00045169215
-2.7744536e-05 0.00015158574 -0.00015253507 -0.00011885314 0.001372229 7.266599e-05 0.00015026766 -0.0003113606
-0.00021060783 -0.00019988291 0.00042704243 -0.0010631896 0.00086526445 -0.00070057844 -0.0002962704 0.00032983284
0.00031272852 -0.00029282537 0.00016881578 -0.00096008857 0.00025023473 0.00082517986 -0.00056423125 -0.000674149
0.0013379426 -0.00032368934 -0.0002312893 0.00016668775 0.0010524009 -0.0002644276 0.00037907995 -0.0006359709
7.665905e-05 -6.0537885e-05 -0.0002063956 0.00028289005 3.6686565e-06 -0.000904709 0.0008739265 -0.0002480333
0.00034319435 -0.00020802915 -0.0009174799 0.0004460922 0.00019636896 0.00028696217 -0.00018566202 -0.00015854635
-0.0006642517 -0.0010411252 0.00020922029 -0.0011523252 0.00032452913 0.0005217483 0.000111249195 -0.00014464356
0.00016590963 -0.0003098911 -0.0004123616 0.001885872 -0.00068828976 -0.00071910844 0.0005454747 -0.00033597852
-6.701816e-05 -0.00128947 0.0007905131 -0.00032337435 0.000180955 -0.00022257741 -0.00012419587 -0.00016840761
0.0006394435 -0.0008699661 -0.00029002875 -0.00018421124 0.0009055188 0.00092751294 0.0005843538 6.0049388e-05
7.949285e-05 -0.00045074231 -0.00031678754 0.0013974688 0.000695021 0.000340407 0.0010550759 -0.00027988572
-0.00064515724 0.0006895379 2.850076e-05 5.7777983e-05 4.972875e-05 -0.0005532144 -0.00050823163 0.00069883786
0.0005185862 0.00038757967 0.00042524285 0.0012833747 -0.0012682679 -5.4161035e-05 -0.00018700452 9.5958276e-05
0.00020177139 0.00014317982 -0.00025207057 -0.00046011977 -0.0005831174 0.00023823432 0.00075731485 -0.0003610481
-0.00020753602 -0.0008428752 -0.0012631052 -0.00071903144 -0.0006016405 0.00039009974 -0.000251273 -0.0006236504
-0.0002651715 -0.0005275504 -0.0012553005 0.00012378149 -0.0007241713 -2.5451853e-05 0.00037097855 0.0003844276
-7.860647e-05 -0.0015926878 0.0008392843 -0.0009893301 -0.0004517333 -0.00018061767 -0.00016669753 0.00015403237
0.0007300359 0.00039966646 -0.00028318423 0.00072155235 0.0005334874 0.0009096929 -0.00088216824 0.00017056594
-6.339807e-05 0.0007871385 0.0010994565 -0.00021889423 -0.00051914994 0.00043231455 -3.97823e-05 -0.00066450157
0.00048211456 -4.2927524e-05 0.00028368758 0.00088079524 -1.04729825e-05 -0.00024149774 7.0916485e-06 0.0009680047
-0.00059571944 -0.001043693 -0.0003430728 0.00062953634 -0.0004424714 0.00049879757 -0.00036875138 -0.0012027067
0.0001537413 0.00080483145 -0.00022602903 0.0014386676 -0.0005233273 -5.8976744e-05 -0.0006266783 0.0012723167
0.00017248881 -0.0006630061 -0.00064863585 -0.0002888563 -0.0010212613 -0.0005440555 2.1981112e-05 0.00024645115
0.00014276303 0.00051228394 0.00034056883 -0.0005385307 -0.00033545776 0.00015772585 -0.0005946473 0.0005131939
0.00020586496 0.00065339875 -0.0010297586 -0.00026161864 -0.00029670945 0.0009831854 1.7585735e-05 -0.00041810118
-0.0002895066 -0.00030474173 -9.568967e-06 -0.00019162272 -0.00026207833 0.0015611592 -1.8557728e-05 0.00072373316
-0.00075910916 0.0009796814 -0.00080095447 -0.00044402631 0.0008704346 -0.0006626281 0.00018201038 0.000809574
00000000: ae2f ccb9 f3f8 f139 75f9 fab9 1dd0 adb9
00000010: d900 203a 0f12 a338 8b7c 8f3a eb2e 22ba
00000020: 69be ab39 057c 253a 662c 83b8 1934 dcb9
00000030: b0d2 4d3a 8f6a a938 1e24 433a 5268 0eb8
00000040: e12e 7a3a 3d7c b238 6600 67b8 0f64 043a
00000050: 3f1c 87ba dc0c 6eba 4f3f 02ba ae08 2f3a
00000060: a3cb 8eb9 215d 3bba 8293 1c3a 9099 87ba
00000070: a980 7d3a 2ec9 a9ba 5c4c 7339 7087 d537
00000080: 50a2 0dba 786d 8739 668e 673a 92cf 4039
00000090: 05b9 a53a 5255 113a b08b 903a 18d1 ec39
000000a0: f0bc e8b7 fdf2 1e39 d2f1 1fb9 cb40 f9b8
000000b0: 5ddc b33a 4264 9838 2b91 1d39 1d3e a3b9
000000c0: 9cd6 5cb9 a997 51b9 aae4 df39 b95a 8bba
000000d0: ead2 623a 06a7 37ba bd54 9bb9 6aed ac39
000000e0: b6f5 a339 5b86 99b9 2404 3139 74ae 7bba
000000f0: f031 8339 e250 583a ebe8 13ba 60b9 30ba
00000100: e75d af3a d9b4 a9b9 4086 72b9 e7c8 2e39
00000110: b7f0 893a dfa2 8ab9 40bf c639 49b7 26ba
00000120: 04c4 a038 0fea 7db8 e66b 58b9 dc50 9439
00000130: 0a33 7636 fe29 6dba 3718 653a 770a 82b9
00000140: c4ee b339 6622 5ab9 0983 70ba 7be1 e939
00000150: 64e8 4d39 6973 9639 45ae 42b9 763f 26b9
00000160: 2d21 2eba 5d76 88ba 2562 5b39 9e09 97ba
00000170: 9025 aa39 f0c5 083a 754e e938 76ab 17b9
00000180: 07f8 2d39 e178 a2b9 3d32 d8b9 5d2f f73a
00000190: 586e 34ba 8d82 3cba 30fe 0e3a 4626 b0b9
000001a0: 1a8c 8cb8 6f03 a9ba 703a 4f3a 928a a9b9
000001b0: bdbe 3d39 ab63 69b9 933a 02b9 9396 30b9
000001c0: 54a0 273a 700e 64ba 000f 98b9 d428 41b9
000001d0: 5760 6d3a 5724 733a 522f 193a 8add 7b38
000001e0: 66b5 a638 9c51 ecb9 8116 a6b9 462b b73a
000001f0: 1232 363a a778 b239 794a 8a3a a0bd 92b9
00000200: c51f 29ba 1bc2 343a eb14 ef37 a356 7238
00000210: d793 5038 9705 11ba d93a 05ba 3732 373a
00000220: bbf1 073a 1034 cb39 21f3 de39 e936 a83a
00000230: 023c a6ba f82a 63b8 a516 44b9 353d c938
00000240: 9892 5339 8a22 1639 5728 84b9 3b3c f1b9
00000250: 59dc 18ba 8ace 7939 8a86 463a 0e4b bdb9
00000260: 079e 59b9 66f4 5cba c78e a5ba 627d 3cba
00000270: 69b7 1dba 4d86 cc39 4bbd 83b9 787c 23ba
00000280: b706 8bb9 4f4b 0aba e588 a4ba 57cb 0139
00000290: 50d6 3dba 7081 d5b7 e67f c239 008d c939
000002a0: 87d9 a4b8 bcc1 d0ba 6a03 5c3a 69ac 81ba
000002b0: 9ed6 ecb9 3064 3db9 87cb 2eb9 c083 2139
000002c0: e15f 3f3a 538a d139 5878 94b9 8f26 3d3a
000002d0: bcd9 0b3a 7578 6e3a 4f41 67ba f2d9 3239
000002e0: 94f4 84b8 f857 4e3a a31b 903a f986 65b9
000002f0: 9017 08ba 47a8 e239 ebdb 26b8 f231 2eba
00000300: 52c4 fc39 140d 34b8 e7bb 9439 2be5 663a
00000310: 1eb5 2fb7 8e3a 7db9 ccf4 ed36 b2c1 7d3a
00000320: 0e2a 1cba 87cc 88ba 74de b3b9 7807 253a
00000330: 82fb e7b9 bdc1 023a f954 c1b9 24a4 9dba
00000340: 9e35 2139 53fb 523a 3502 6db9 ad91 bc3a
00000350: e72f 09ba cc5d 77b8 ab47 24ba ddc3 a63a
00000360: 1dde 3439 96cd 2dba 3709 2aba a371 97b9
00000370: d8db 85ba f29e 0eba 1464 b837 1d36 8139
00000380: a9b2 1539 cb4a 063a 608e b239 2f2c 0dba
00000390: 61e0 afb9 3663 2539 1be2 1bba dc87 063a
000003a0: 74dd 5739 d948 2b3a f7f8 86ba dc29 89b9
000003b0: ab8f 9bb9 3ade 803a 1485 9337 9734 dbb9
000003c0: ebc8 97b9 bec5 9fb9 668a 20b7 55ee 48b9
000003d0: 8f67 89b9 cf9f cc3a 6bac 9bb7 e9b8 3d3a
000003e0: f4fe 46ba a768 803a 25f7 51ba 34cc e8b9
000003f0: e12d 643a 38b4 2dba 0ada 3e39 9739 543a

shared_fc2.bias f4 [256]
0.0 0.0 0.0 0.0 0.0 0.0 0.0 0.0
0.0 0.0 0.0 0.0 0.0 0.0 0.0 0.0
0.0 0.0 0.0 0.0 0.0 0.0 0.0 0.0
0.0 0.0 0.0 0.0 0.0 0.0 0.0 0.0
0.0 0.0 0.0 0.0 0.0 0.0 0.0 0.0
0.0 0.0 0.0 0.0 0.0 0.0 0.0 0.0
0.0 0.0 0.0 0.0 0.0 0.0 0.0 0.0
0.0 0.0 0.0 0.0 0.0 0.0 0.0 0.0
0.0 0.0 0.0 0.0 0.0 0.0 0.0 0.0
0.0 0.0 0.0 0.0 0.0 0.0 0.0 0.0
0.0 0.0 0.0 0.0 0.0 0.0 0.0 0.0
0.0 0.0 0.0 0.0 0.0 0.0 0.0 0.0
0.0 0.0 0.0 0.0 0.0 0.0 0.0 0.0
0.0 0.0 0.0 0.0 0.0 0.0 0.0 0.0
0.0 0.0 0.0 0.0 0.0 0.0 0.0 0.0
0.0 0.0 0.0 0.0 0.0 0.0 0.0 0.0
0.0 0.0 0.0 0.0 0.0 0.0 0.0 0.0
0.0 0.0 0.0 0.0 0.0 0.0 0.0 0.0
0.0 0.0 0.0 0.0 0.0 0.0 0.0 0.0
0.0 0.0 0.0 0.0 0.0 0.0 0.0 0.0
0.0 0.0 0.0 0.0 0.0 0.0 0.0 0.0
0.0 0.0 0.0 0.0 0.0 0.0 0.0 0.0
0.0 0.0 0.0 0.0 0.0 0.0 0.0 0.0
0.0 0.0 0.0 0.0 0.0 0.0 0.0 0.0
0.0 0.0 0.0 0.0 0.0 0.0 0.0 0.0
0.0 0.0 0.0 0.0 0.0 0.0 0.0 0.0
0.0 0.0 0.0 0.0 0.0 0.0 0.0 0.0
0.0 0.0 0.0 0.0 0.0 0.0 0.0 0.0
0.0 0.0 0.0 0.0 0.0 0.0 0.0 0.0
0.0 0.0 0.0 0.0 0.0 0.0 0.0 0.0
0.0 0.0 0.0 0.0 0.0 0.0 0.0 0.0
0.0 0.0 0.0 0.0 0.0 0.0 0.0 0.0
00000000: 0000 0000 0000 0000 0000 0000 0000 0000
00000010: 0000 0000 0000 0000 0000 0000 0000 0000
00000020: 0000 0000 0000 0000 0000 0000 0000 0000
00000030: 0000 0000 0000 0000 0000 0000 0000 0000
00000040: 0000 0000 0000 0000 0000 0000 0000 0000
00000050: 0000 0000 0000 0000 0000 0000 0000 0000
00000060: 0000 0000 0000 0000 0000 0000 0000 0000
00000070: 0000 0000 0000 0000 0000 0000 0000 0000
00000080: 0000 0000 0000 0000 0000 0000 0000 0000
00000090: 0000 0000 0000 0000 0000 0000 0000 0000
000000a0: 0000 0000 0000 0000 0000 0000 0000 0000
000000b0: 0000 0000 0000 0000 0000 0000 0000 0000
000000c0: 0000 0000 0000 0000 0000 0000 0000 0000
000000d0: 0000 0000 0000 0000 0000 0000 0000 0000
000000e0: 0000 0000 0000 0000 0000 0000 0000 0000
000000f0: 0000 0000 0000 0000 0000 0000 0000 0000
00000100: 0000 0000 0000 0000 0000 0000 0000 0000
00000110: 0000 0000 0000 0000 0000 0000 0000 0000
00000120: 0000 0000 0000 0000 0000 0000 0000 0000
00000130: 0000 0000 0000 0000 0000 0000 0000 0000
00000140: 0000 0000 0000 0000 0000 0000 0000 0000
00000150: 0000 0000 0000 0000 0000 0000 0000 0000
00000160: 0000 0000 0000 0000 0000 0000 0000 0000
00000170: 0000 0000 0000 0000 0000 0000 0000 0000
00000180: 0000 0000 0000 0000 0000 0000 0000 0000
00000190: 0000 0000 0000 0000 0000 0000 0000 0000
000001a0: 0000 0000 0000 0000 0000 0000 0000 0000
000001b0: 0000 0000 0000 0000 0000 0000 0000 0000
000001c0: 0000 0000 0000 0000 0000 0000 0000 0000
000001d0: 0000 0000 0000 0000 0000 0000 0000 0000
000001e0: 0000 0000 0000 0000 0000 0000 0000 0000
000001f0: 0000 0000 0000 0000 0000 0000 0000 0000
00000200: 0000 0000 0000 0000 0000 0000 0000 0000
00000210: 0000 0000 0000 0000 0000 0000 0000 0000
00000220: 0000 0000 0000 0000 0000 0000 0000 0000
00000230: 0000 0000 0000 0000 0000 0000 0000 0000
00000240: 0000 0000 0000 0000 0000 0000 0000 0000
00000250: 0000 0000 0000 0000 0000 0000 0000 0000
00000260: 0000 0000 0000 0000 0000 0000 0000 0000
00000270: 0000 0000 0000 0000 0000 0000 0000 0000
00000280: 0000 0000 0000 0000 0000 0000 0000 0000
00000290: 0000 0000 0000 0000 0000 0000 0000 0000
000002a0: 0000 0000 0000 0000 0000 0000 0000 0000
000002b0: 0000 0000 0000 0000 0000 0000 0000 0000
000002c0: 0000 0000 0000 0000 0000 0000 0000 0000
000002d0: 0000 0000 0000 0000 0000 0000 0000 0000
000002e0: 0000 0000 0000 0000 0000 0000 0000 0000
000002f0: 0000 0000 0000 0000 0000 0000 0000 0000
00000300: 0000 0000 0000 0000 0000 0000 0000 0000
00000310: 0000 0000 0000 0000 0000 0000 0000 0000
00000320: 0000 0000 0000 0000 0000 0000 0000 0000
00000330: 0000 0000 0000 0000 0000 0000 0000 0000
00000340: 0000 0000 0000 0000 0000 0000 0000 0000
00000350: 0000 0000 0000 0000 0000 0000 0000 0000
00000360: 0000 0000 0000 0000 0000 0000 0000 0000
00000370: 0000 0000 0000 0000 0000 0000 0000 0000
00000380: 0000 0000 0000 0000 0000 0000 0000 0000
00000390: 0000 0000 0000 0000 0000 0000 0000 0000
000003a0: 0000 0000 0000 0000 0000 0000 0000 0000
000003b0: 0000 0000 0000 0000 0000 0000 0000 0000
000003c0: 0000 0000 0000 0000 0000 0000 0000 0000
000003d0: 0000 0000 0000 0000 0000 0000 0000 0000
000003e0: 0000 0000 0000 0000 0000 0000 0000 0000
000003f0: 0000 0000 0000 0000 0000 0000 0000 0000

actor_mean.weight f4 [2, 256]
6.7917106e-05 0.00021140244 0.00012847857 -0.00012117013 0.0002788557 0.0011509852 0.0009915992 0.00096136174
-0.0011749326 0.0003812148 0.00022827218 -0.0005622496 0.0007394893 0.0002551916 -0.0001103503 -1.3717856e-05
0.00042664146 -0.0001202636 0.0002898139 0.00035901146 -6.988292e-05 -0.00025762137 0.00023676096 0.00040478885
-0.00015472 -0.0009037656 0.00013086501 -0.0005027496 -0.00052537955 0.00070073945 0.00058564986 0.0009678924
-8.7085115e-05 -0.00023246546 -0.0006117173 -0.0010298206 0.0010462294 -0.00043189852 0.0004979036 -0.000108265456
-0.00053393055 -0.00045412453 0.00047568223 0.00033252715 0.0010426159 -0.00048927666 -0.00040366847 0.00015599228
-0.000132681 -9.9914345e-05 -0.00031500155 0.00027058204 0.0001990406 0.00084408646 -0.00041986635 -3.288374e-05
0.00044399613 -0.0012896651 0.0002691113 -6.378884e-05 -0.0004983295 -0.00031158372 0.001365559 -0.00031546692
-0.00015944644 -0.000564886 9.898961e-05 -0.00044538008 0.0008607369 0.00029654603 -0.00073466514 -0.00081297435
0.000127785 6.7397596e-05 -0.0008638625 -0.0011512041 0.00015461796 -0.00010644601 0.0005377633 -0.0010261112
3.053798e-05 -6.184758e-05 -0.0013499933 0.0002100947 0.00017700467 0.00074253406 -0.0005137372 -0.00028366243
-0.0008518004 -0.0007821097 -0.001348426 0.0011977875 0.0005655268 -0.00018023679 0.0001071918 0.0006505011
0.00039720992 0.0006268562 0.0010604989 -0.0009877546 0.00021577268 0.00057062396 -0.0009871186 -0.00032485928
-0.0003229067 0.0007481821 0.00021511999 0.00047734426 -0.00012210054 0.00091021153 0.00076990045 -0.00028564755
0.0006201441 -0.0006669957 -8.459037e-05 6.256484e-05 0.0009488309 -0.00056249724 9.6000236e-05 -0.00023812408
0.00044750614 0.00025542278 0.00029887675 0.00053136755 -0.0012970811 -0.00050465297 -0.0010748872 0.00067781686
0.0001181544 3.9206105e-05 0.00026740588 0.00016154861 0.0007808068 -0.0012061358 0.0009572972 -2.6281612e-05
0.0009696739 -0.00078355527 0.0010349362 0.0001488683 -0.00025066885 -0.00082871586 -0.0005277181 -0.00045840122
0.00051849504 0.00063496706 -0.00013387449 0.00014284477 -0.00010097207 7.110138e-05 0.00020331945 4.554806e-05
-0.0002733254 -7.838807e-05 0.001142031 0.00030895806 -0.000111226436 0.0002827561 0.00053890835 -7.3998934e-05
0.0012438841 0.00015438278 0.00031923383 -0.00042430882 -0.0002764901 -0.0014764924 5.7084708e-05 0.00022130368
-0.0014171846 0.0007905676 5.1632207e-05 0.00055685604 0.00010511411 2.9448756e-05 -0.0009939567 0.0005716116
0.00083138316 -0.001582691 -0.00083337777 -0.0003719481 0.00083282887 -0.0006125 -0.0009276366 -5.7336027e-05
-0.00012913207 -0.00069137133 0.00044249822 -0.00016540843 0.0006627207 0.00035454868 -0.0007359449 0.000868778
-0.0012612917 -0.00081644714 -0.00013276386 -5.386551e-05 -0.0010701476 -0.0008622526 -0.000801765 -0.00016909056
-0.00047190938 1.015177e-05 -0.00052106165 0.00016864856 -0.0008927533 2.9053403e-05 -3.033239e-05 -0.00015783904
0.0008591005 -0.0007715663 -0.0013808714 -0.00046286845 0.00038312125 0.00032982015 0.0002370996 -0.00015012517
-0.00050134026 0.00020947341 0.0007333298 0.00037666224 0.0011115954 -0.00040346157 0.00043808803 0.0005227099
0.00079384993 0.0005585849 0.0015578839 -3.723967e-05 -0.00041924644 -0.00046220556 -0.0005055542 -0.0011239594
5.821086e-05 5.9924114e-05 0.00030380773 0.00094000186 -0.0007355857 0.0003399998 0.00048868585 0.00060686347
0.00060302153 -0.00074036507 0.00070753484 -5.7346475e-05 -0.0007463769 -0.00059643673 0.0010924288 0.0007512993
-0.00069439114 -0.00042410597 0.00027367842 -0.00017264645 0.00044449331 0.00033716473 -0.0005269141 -8.252424e-05
00000000: b86e 8e38 e9ab 5d39 34b8 0639 b81c feb8
00000010: 6133 9239 a8dc 963a 8cf8 813a e503 7c3a
00000020: 3200 9aba c9dd c739 595c 6f39 ef63 13ba
00000030: 49da 413a 3dcb 8539 de6b e7b8 be25 66b7
00000040: d9ae df39 0736 fcb8 2af2 9739 b439 bc39
00000050: 1b8e 92b8 5b11 87b9 0943 7839 d739 d439
00000060: 553c 22b9 afea 6cba cf38 0939 f4ca 03ba
00000070: a0b9 09ba d4b1 373a 4c86 193a 29ba 7d3a
00000080: 77a1 b6b8 f9c1 73b9 a75b 20ba 0cfb 86ba
00000090: a221 893a 7070 e2b9 bf85 023a 930c e3b8
000000a0: 79f7 0bba 9017 eeb9 fd64 f939 0a57 ae39
000000b0: 62a8 883a cd42 00ba 77a3 d3b9 dc91 2339
000000c0: 4920 0bb9 1b89 d1b8 cb26 a5b9 e8dc 8d39
000000d0: 8eb5 5039 af45 5d3a 8221 dcb9 a6ec 09b8
000000e0: 27c8 e839 fb09 a9ba 8217 8d39 5fc6 85b8
000000f0: 54a2 02ba 0f5c a3b9 8efc b23a 4165 a5b9
00000100: 1431 27b9 dc14 14ba a498 cf38 e781 e9b9
00000110: 13a3 613a bc79 9b39 8b96 40ba c91d 55ba
00000120: 06fe 0539 cf57 8d38 d574 62ba 00e4 96ba
00000130: f120 2239 c43b dfb8 aff8 0c3a 947e 86ba
00000140: e815 0038 2bb4 81b8 42f2 b0ba de4c 5c39
00000150: 549a 3939 9ea6 423a 52ac 06ba 87b8 94b9
00000160: 5b4b 5fba 7e06 4dba abbd b0ba 14ff 9c3a
00000170: dc3f 143a f2fd 3cb9 29cc e038 6486 2a3a
00000180: 9d40 d039 9c53 243a 7000 8b3a 8b77 81ba
00000190: 0a41 6239 ed95 153a 3462 81ba e051 aab9
000001a0: ce4b a9b9 a721 443a d591 6139 1044 fa39
000001b0: 1d08 00b9 439b 6e3a 25d3 493a f7c2 95b9
000001c0: 2b91 223a 53d9 2eba 1c66 b1b8 3e35 8338
000001d0: f7ba 783a 8d74 13ba bc53 c938 f2b0 79b9
000001e0: 429f ea39 44ea 8539 8fb2 9c39 794b 0b3a
000001f0: d202 aaba b04a 04ba 3be3 8cba 85af 313a
00000200: a9c9 f738 3c71 2438 9c32 8c39 6065 2939
00000210: 0faf 4c3a 3417 9eba 21f3 7a3a 5577 dcb7
00000220: b731 7e3a 8167 4dba b2a6 873a 8819 1c39
00000230: 346c 83b9 2e3e 59ba 9056 0aba 9255 f0b9
00000240: 9deb 073a eb73 263a a960 0cb9 9ac8 1539
00000250: f8c0 d3b8 431c 9538 2632 5539 db0a 3f38
00000260: 1d4d 8fb9 4664 a4b8 34b0 953a a6fb a139
00000270: 3d42 e9b8 e23e 9439 8745 0d3a e02f 9bb8
00000280: d309 a33a d0e1 2139 d75e a739 c475 deb9
00000290: dff5 90b9 dd86 c1ba 3d6e 6f38 c10d 6839
000002a0: d3c0 b9ba 183e 4f3a a98f 5838 faf9 113a
000002b0: b570 dc38 b908 f737 a747 82ba 35d8 153a
000002c0: 2ef1 593a 4c72 cfba 0977 5aba 0702 c3b9
000002d0: 3352 5a3a 2e90 20ba a32c 73ba 177c 70b8
000002e0: a067 07b9 253d 35ba 1bff e739 7d71 2db9
000002f0: 6fba 2d3a b8e2 b939 6dec 40ba b4be 633a
00000300: ed51 a5ba d706 56ba 8736 0bb9 a7ed 61b8
00000310: 3244 8cba cb08 62ba 8a2d 52ba e74d 31b9
00000320: 9b6a f7b9 8551 2a37 db97 08ba 41d7 3039
00000330: a907 6aba b5b7 f337 5072 feb7 9881 25b9
00000340: 4235 613a f042 4aba 5bfe b4ba 27ad f2b9
00000350: aadd c839 b6eb ac39 f09d 7839 eb6a 1db9
00000360: 606c 03ba 17a6 5b39 ee3c 403a c07a c539
00000370: f4b2 913a b287 d3b9 2eaf e539 7806 093a
00000380: 5e1a 503a 006e 123a e931 cc3a cb31 1cb8
00000390: 4ece dbb9 2e54 f2b9 2b87 04ba d251 93ba
000003a0: 6f27 7438 0757 7b38 6248 9f39 756a 763a
000003b0: 52d4 40ba 0042 b239 271b 003a eb15 1f3a
000003c0: 1714 1e3a 0f15 42ba dc79 393a 4f87 70b8
000003d0: 82a8 43ba 315a 1cba d42f 8f3a d8f2 443a
000003e0: cd07 36ba 8a5a deb9 7f7c 8f39 6e08 35b9
000003f0: e20a e939 7cc5 b039 9b20 0aba dd10 adb8

actor_mean.bias f4 [2]
0.0 0.0
00000000: 0000 0000 0000 0000

critic_value.weight f4 [1, 256]
-0.0010164094 -0.00038419268 0.00095195917 0.00018871212 0.00054665783 -0.000993216 0.0014966583 0.0006503452
0.00088475936 -0.00018400102 -0.00045595743 0.00037138193 4.094416e-06 0.00052146945 -0.00019977301 1.128156e-05
0.0009703488 0.00030840831 -9.456796e-05 -2.8113307e-05 0.000885534 -0.00035583513 0.0013225521 -0.00040405433
-0.00076783216 -0.00041256633 -5.4753404e-05 0.00054619065 -0.00028914068 -0.00081476464 -0.0009197298 0.0007116648
0.00037558936 0.00020898596 -0.0003746633 0.0010312583 -0.00013230165 9.248958e-06 0.00052336184 0.00030281727
-0.00012680377 0.00041611202 0.00028552933 0.0008795123 0.00088967144 -0.00041702396 0.00071054924 0.0009407078
-0.0007609517 4.6341185e-05 0.00027052336 0.0008496315 0.00063735695 0.00024657985 -0.0005478518 -0.00039307034
0.0008864592 -8.394055e-05 0.00090626616 0.0003674995 0.00015863935 -0.000672101 -0.0012385258 0.00043352705
0.0006690497 5.6780886e-05 0.0007613731 0.00019109037 0.00043550512 -0.0003522419 0.0011722943 0.00029870495
0.00052270305 -0.00021204508 -0.000557151 0.001059866 -6.278026e-05 -1.11659365e-05 -0.00046643658 -1.5816006e-05
-0.00035841862 0.00044201064 0.00080899795 -0.0011751029 -0.00046255297 0.0014983524 -0.000749433 -0.0007056318
0.00012110461 -0.0006254292 -0.00011023594 0.00027160856 0.0012455231 0.0003525482 -0.00048142116 -0.0005501294
0.00032354414 -0.0007629534 -0.00061458285 0.0002476571 0.00039295643 0.00031479064 0.00030967046 0.0012030929
-0.00018342036 0.00014096357 0.000704907 -0.0009220283 -4.9224473e-05 -0.00091376243 0.0007627048 0.00014131103
-0.00057484326 0.0007276751 0.0007734417 0.00045313773 -0.00046471 -0.00057968294 0.0006244346 -0.0006298282
0.0005234589 0.00020409218 -0.00055132137 -0.00011797803 -1.0208939e-05 -0.0011555483 0.00096812827 0.00080910895
-0.00016001784 0.0006805051 0.00024174021 0.00018634365 0.0010168735 0.00013882905 0.0007348706 9.913816e-05
-0.00064098253 -0.00045338273 -0.00093423284 -0.00042794592 -0.00012545154 -0.00044924548 -0.000815762 -0.00018127798
-0.0005526067 -0.00032509622 0.00017772432 0.0014201876 -0.000110575515 0.0002053754 -0.00013925105 -0.00078800414
0.00074563455 4.2427637e-05 -5.1719708e-05 -0.0012730485 0.000779116 0.0008907669 -7.07107e-05 0.0011238253
0.00043820063 4.9112972e-05 -0.00081866677 0.00039865062 -0.00027286034 0.00055906066 -0.00041973704 3.7801994e-05
-0.00025145037 -0.00019697093 -0.00028994208 -0.0005617311 0.00017445123 5.8816535e-05 0.0005507131 6.426915e-05
-0.00015454377 0.0009290818 0.0007507813 -0.0006935132 0.00035174895 7.117413e-05 0.00047561715 0.0014589415
0.00042012747 0.00047904148 -0.000701863 -0.00070166885 -0.0011953869 0.00029284274 0.0010189144 -0.00016881945
-0.0004306151 -0.00025469766 1.2511546e-05 0.00054879725 -0.00012512479 0.00041924944 0.00048354117 0.00031452667
-0.0004377613 -0.0011864596 8.648106e-05 0.00092819816 -0.000667629 0.00067291415 0.00024630647 0.0004606132
-5.6573026e-05 -0.0005090184 0.00030496615 -0.00080685806 0.0004565038 -0.0011314305 0.00020001158 -0.00024247203
-0.00043834106 -7.506204e-05 -0.001344947 -0.00057352055 -0.00076923845 0.0001993194 0.0003858047 0.00010549989
0.00033469516 0.0005246531 -0.00041897854 -0.00063311786 0.00051999366 0.0002577681 0.0007599657 2.7566757e-05
-0.00019550466 0.0010744814 3.4617566e-05 -0.0006080812 -0.00044772113 -0.0006609044 -0.0005717417 0.00029687517
-0.00037957876 -0.00130104 0.00018898021 -0.00067673816 -0.00095468183 0.00023874996 -9.801919e-05 0.0017446744
-1.40547345e-05 0.0010463209 0.0008914632 -0.00033504344 -0.00032686294 0.0008041016 0.0005716051 -0.00056816963
00000000: 0a39 85ba 786d c9b9 e68c 793a 06e1 4539
00000010: 964d 0f3a cc2e 82ba 852b c43a ed7b 2a3a
00000020: 32ef 673a 66f0 40b9 920d efb9 0ab6 c239
00000030: c462 8936 39b3 083a 297a 51b9 ee45 3d37
00000040: 015f 7e3a ddb1 a139 c952 c6b8 ded4 ebb7
00000050: 2e23 683a 628f bab9 7c59 ad3a 41d7 d3b9
00000060: 5848 49ba b74d d8b9 05a7 65b8 3c2e 0f3a
00000070: ce97 97b9 ee95 55ba 061a 71ba 048f 3a3a
00000080: c0ea c439 3e23 5b39 756e c4b9 492b 873a
00000090: 74ba 0ab9 f92b 1b37 3832 093a 72c3 9e39
000000a0: a1f6 04b9 9c29 da39 19b3 9539 128f 663a
000000b0: d738 693a 02a4 dab9 2744 3a3a d599 763a
000000c0: 9b7a 47ba 785e 4238 08d5 8d39 ceb9 5e3a
000000d0: 4d14 273a 6347 8139 b69d 0fba 0215 ceb9
000000e0: 4561 683a 3d09 b0b8 7e92 6d3a f3ac c039
000000f0: 6d58 2639 ef2f 30ba 0856 a2ba 044b e339
00000100: 2a63 2f3a 0328 6e38 e296 473a 6e5f 4839
00000110: 8254 e439 1cad b8b9 aba7 993a 809b 9c39
00000120: 0206 093a 6b58 5eb9 c50d 12ba 34eb 8a3a
00000130: e5a8 83b8 5555 3bb7 0f8c f4b9 9dac 84b7
00000140: 22ea bbb9 aabd e739 ef12 543a e905 9aba
00000150: cf82 f2b9 5d64 c43a 9975 44ba 26fa 38ba
00000160: 8bf9 fd38 d8f3 23ba 782e e7b8 af66 8e39
00000170: d240 a33a 38d6 b839 4167 fcb9 8f36 10ba
00000180: 5ca1 a939 f000 48ba f51b 21ba f9d7 8139
00000190: b805 ce39 7c0a a539 445b a239 19b1 9d3a
000001a0: 8754 40b9 9fcf 1339 82c9 383a 46b4 71ba
000001b0: 6076 4eb8 8f89 6fba 41f0 473a e42c 1439
000001c0: 14b1 16ba 73c1 3e3a cbc0 4a3a 1e93 ed39
000001d0: 52a4 f3b9 ddf5 17ba 19b1 233a 0e1b 25ba
000001e0: bb38 093a 9401 5639 8d86 10ba f96a f7b8
000001f0: 0f47 2bb7 c475 97ba fdc9 7d3a 621a 543a
00000200: 76ca 27b9 ed63 323a a57b 7d39 3e65 4339
00000210: 9d48 853a a492 1139 55a4 403a 65e8 cf38
00000220: 9c07 28ba 00b4 edb9 4ee7 74ba ee5d e0b9
00000230: a48b 03b9 b588 ebb9 dcd8 55ba 7015 3eb9
00000240: cfdc 10ba ad71 aab9 825b 3a39 9725 ba3a
00000250: c7e4 e7b8 0a5a 5739 eb03 12b9 1092 4eba
00000260: b076 433a 54f4 3138 9ded 58b8 6bdc a6ba
00000270: 973d 4c3a 5b82 693a 854a 94b8 524d 933a
00000280: 4bbe e539 a7fe 4d38 cc9b 56ba fb01 d139
00000290: b20e 8fb9 ed8d 123a 2710 dcb9 958d 1e38
000002a0: 19d5 83b9 fb89 4eb9 5e03 98b9 2341 13ba
000002b0: e5ec 3639 c6b1 7638 bb5d 103a 3dc8 8638
000002c0: 070d 22b9 a08d 733a 15d0 443a e2cc 35ba
000002d0: f26a b839 5243 9538 415c f939 f439 bf3a
000002e0: 8e44 dc39 dc27 fb39 3bfd 37ba 33f0 37ba
000002f0: 87ae 9cba b088 9939 188d 853a 2005 31b9
00000300: 2ec4 e1b9 f188 85b9 aee8 5137 29dd 0f3a
00000310: ee33 03b9 b5ce db39 cc83 fd39 0ee7 a439
00000320: 5483 e5b9 fa82 9bba 2a5d b538 5352 733a
00000330: d303 2fba 8166 303a b222 8139 757e f139
00000340: d348 6db8 a66f 05ba dde3 9f39 5483 53ba
00000350: e756 ef39 824c 94ba 33ba 5139 1740 7eb9
00000360: 24d1 e5b9 a06a 9db8 ef48 b0ba 5058 16ba
00000370: b8a6 49ba 6500 5139 d545 ca39 d23f dd38
00000380: 067a af39 e088 093a 59aa dbb9 d2f7 25ba
00000390: 2f50 083a 0c25 8739 6f38 473a 293f e737
000003a0: 6200 4db9 9dd5 8c3a 5432 1138 a367 1fba
000003b0: 1dbc eab9 8b40 2dba f0e0 15ba e9a5 9b39
000003c0: 3302 c7b9 a987 aaba fd28 4639 2167 31ba
000003d0: 9d43 7aba f458 7a39 a78f cdb8 8fad e43a
000003e0: a0cc 6bb7 b424 893a 15b1 693a c5a8 afb9
000003f0: cd5e abb9 58ca 523a c5d7 153a 38f1 14ba
